dl/models/conv2d_4block/checkpoint.ckpt (torch, 521495 bytes, 22 tensors)

generator.conv1.conv.weight f4 [64, 1, 3, 3]
0	0x3dcc7475	0.0998315
1	0xbd100994	-0.035165384
2	0x3df110c2	0.117707744
3	0x3e17618b	0.14783303
4	0x3e2f4747	0.17117034
5	0xbdeeb5e7	-0.11655789
6	0xbddc54e7	-0.10758381
7	0xbe1aecb4	-0.15129358
8	0xbe121403	-0.14265446
9	0x3e651eab	0.2237498
10	0x3e2c316a	0.16815725
11	0x3ca52f2a	0.020164091
12	0xbd3e944c	-0.046528146
13	0xbd19af4e	-0.0375207
14	0x3e0a1a61	0.13486625
15	0x3db2db88	0.087332785
16	0x3e02bd6f	0.12767576
17	0x3da815b7	0.08207267
18	0x3e25b8ef	0.16183828
19	0xbe89a0fe	-0.2688064
20	0xbe8c3850	-0.27386713
21	0x3e3ef428	0.18647826
22	0x3e6df194	0.23236686
23	0xbe7b5513	-0.24544172
24	0x3e903ebd	0.28172866
25	0x3a584a94	0.0008250859
26	0xbdbe15f8	-0.09281534
27	0xbea4735e	-0.32119268
28	0xbe4639ae	-0.1935794
29	0xbdf99576	-0.121867105
30	0x3e97bfee	0.29638618
31	0x3a07daf5	0.00051824684
32	0x3e2d7e57	0.16942726
33	0x3e8b608b	0.27222094
34	0x3cfc7edd	0.030822212
35	0xbde61e37	-0.11236232
36	0xbea5c30c	-0.3237537
37	0x3dd8f2bc	0.10593173
38	0x3e111568	0.14168322
39	0x3e28210b	0.16418855
40	0xbdce8801	-0.100845344
41	0xbd17cd56	-0.037061058
42	0x3e8d5a1a	0.27607805
43	0x3e761856	0.24032721
44	0xbe5f507e	-0.21808049
45	0x3e00a670	0.12563491
46	0x3d2e7fe7	0.042602446
47	0x3e0d3816	0.13790926
48	0x3c5d3e31	0.013503597
49	0x3d80026c	0.06250462
50	0x3e3dc814	0.18533355
51	0x3e93bdd1	0.28855756
52	0xbe77fa16	-0.24216494
53	0x3e81d3bb	0.2535685
54	0xbd400d08	-0.046887428
55	0x3e83c94a	0.2573951
56	0x3d85482a	0.06507905
57	0x3e5ca844	0.21548563
58	0x3dc290be	0.09500264
59	0x3e4c7033	0.19964676
60	0xbda4f18f	-0.08053886
61	0x3e6b7bfd	0.22996517
62	0xbc256e01	-0.010097028
63	0xbd38dab9	-0.045130465
64	0x3e15d19f	0.14630745
65	0xbe874823	-0.26422223
66	0x3e7e6c74	0.24846059
67	0x3e9f16d0	0.31072092
68	0x3e8dcd0d	0.27695504
69	0xbe70cfdc	-0.23516792
70	0xbe8ce82e	-0.2752089
71	0xbe26e972	-0.1629999
72	0xbbe1f8b0	-0.006896101
73	0xbe86b36f	-0.26308772
74	0x3e369020	0.17828417
75	0x3e8fa669	0.28056648
76	0x3e261f55	0.1622289
77	0xbd560dea	-0.052259363
78	0x3e9be53d	0.30448332
79	0x3d892ba7	0.06697779
80	0x3e5781d7	0.21045624
81	0x3d89ceb8	0.067288816
82	0x3d45c5f6	0.048284493
83	0xbe959a7c	-0.29219425
84	0x3e2140bb	0.15747349
85	0x3da9808c	0.082764715
86	0x3ea9a26a	0.33131725
87	0xbd82448d	-0.06360731
88	0xbdb39516	-0.0876867
89	0xbe80fda2	-0.25193506
90	0x3c1db874	0.009626497
91	0xbe890d25	-0.2676784
92	0xbdd82c7e	-0.10555361
93	0x3e53acd6	0.206714
94	0x3c9e8e24	0.019354887
95	0x3e93f5b3	0.2889839
96	0x3d1843b3	0.037173938
97	0x3e9d18c8	0.3068297
98	0xbc86b2f8	-0.01644276
99	0x3e2e3b73	0.17014866
100	0x3ea35b4d	0.31905594
101	0xbeafc19c	-0.343274
102	0x3e3ec090	0.18628144
103	0x3e996025	0.29956165
104	0x3e15fa03	0.14646153
105	0xbd663fe4	-0.056213275
106	0xbe8b1409	-0.27163723
107	0x3e4773bb	0.19477741
108	0xbe6682f7	-0.22510897
109	0x3e1fddd2	0.15611961
110	0x3e08407c	0.13305849
111	0x3e4c1f8c	0.19933909
112	0x3e7bb5dc	0.24581093
113	0xbdae2418	-0.08502978
114	0x3db05659	0.086102195
115	0xbdfc2fb1	-0.12313784
116	0xbe911b99	-0.28341368
117	0x3ea42e91	0.32066777
118	0x3e8712b6	0.26381463
119	0x3d0f866f	0.035040315
120	0x3e69a833	0.22818069
121	0xbdcc269e	-0.09968303
122	0xbe6c1484	-0.23054701
123	0xbe31f0e8	-0.17377055
124	0x3e8e063f	0.2773914
125	0x3ea628be	0.3245296
126	0x3e6c4814	0.2307437
127	0x3e1cafbb	0.15301411
128	0x3c531450	0.012883261
129	0x3ea71c4f	0.32638785
130	0xbe966235	-0.293718
131	0x3b85bbfb	0.004081247
132	0xbda586cc	-0.08082351
133	0xbc4607b8	-0.012086801
134	0x3e90317d	0.28162757
135	0x3e50fbc5	0.20408542
136	0xbe8535f6	-0.2601773
137	0x3e64f9bd	0.22360893
138	0xbe83a61c	-0.2571267
139	0x3e826d95	0.2547423
140	0xbdcb3fd6	-0.09924285
141	0x3db9ac56	0.090660736
142	0xbea4e39a	-0.32204896
143	0x3e793846	0.24337873
144	0xbdf6284f	-0.12019407
145	0xbdb7744d	-0.089577295
146	0xbe40571e	-0.18783233
147	0xbdb06164	-0.08612326
148	0x3df104cc	0.11768493
149	0x3e0349ee	0.1282117
150	0xbc9939fa	-0.018704403
151	0x3e25bd5a	0.16185513
152	0x3e43e359	0.19129695
153	0xbe613634	-0.21993333
154	0x3df7610d	0.12079058
155	0xbe9c73e7	-0.30557176
156	0xbcf016f9	-0.02930783
157	0xbdfb3557	-0.12266033
158	0xbe5ed880	-0.21762276
159	0x3e40ff50	0.18847394
160	0xbc639e8c	-0.013892781
161	0xbe4fd49d	-0.2029595
162	0xbe14701c	-0.14495891
163	0xbe46d944	-0.19418818
164	0x3e34dfe8	0.17663538
165	0x3df76a4a	0.1208082
166	0xbd05ff0f	-0.032713946
167	0x3db2e702	0.087354675
168	0x3e8f66a0	0.28007984
169	0xbe52ff74	-0.2060526
170	0xbe01650f	-0.12636207
171	0xbe214a9e	-0.1575112
172	0x3d8c682c	0.06855807
173	0x3e341772	0.17587069
174	0xbdf65cef	-0.120294444
175	0x3df6a8b1	0.12043894
176	0x3e5d96e0	0.21639585
177	0xbc0cb33f	-0.0085876575
178	0x3e0bac0f	0.13639854
179	0xbeb70fc8	-0.35754228
180	0xbe8d99f5	-0.27656522
181	0xbeac0c9c	-0.3360337
182	0x3e8c349f	0.27383897
183	0xbea15413	-0.31509456
184	0xbe31717f	-0.17328452
185	0xbe2d288b	-0.16909997
186	0xbbff92ba	-0.0077994736
187	0x3dcbaa1c	0.09944555
188	0xbe6facaf	-0.23405717
189	0x3aad40ca	0.0013218161
190	0xbe9d58a9	-0.30731705
191	0x3b0166a4	0.0019745016
192	0x3d4ed32c	0.050494358
193	0xbe6f336f	-0.23359464
194	0x3e3e747a	0.1859912
195	0xbe7151af	-0.23566316
196	0xbe9c6f1f	-0.3055353
197	0x3cda2871	0.026630612
198	0xbd7f9964	-0.062402144
199	0xbe462e1e	-0.1935353
200	0xbd022e90	-0.031782687
201	0x3e55eec9	0.2089187
202	0xbb260a3f	-0.0025335697
203	0x3e67106a	0.22564855
204	0x3e75d75f	0.24007939
205	0xbdfcc654	-0.123425156
206	0xbe7d9682	-0.24764445
207	0xbe81ebb6	-0.25375146
208	0x3dabe47d	0.0839319
209	0xbe1732a4	-0.14765412
210	0xbdf5dac5	-0.120046176
211	0x3d55a6a4	0.052160874
212	0xbd608508	-0.05481437
213	0x3e7e1e5d	0.2481627
214	0xbe5dec2b	-0.21672122
215	0xbe85c3c5	-0.26125923
216	0xbd2aeaf0	-0.04172796
217	0x3dd0d0fc	0.101961106
218	0x3d9c8cda	0.07644053
219	0xbe7bccf5	-0.24589904
220	0xbe3251f2	-0.17414072
221	0xbe8d77f5	-0.27630582
222	0xbd43400f	-0.047668513
223	0x3c62ecb6	0.013850382
224	0xbe8d7222	-0.2762614
225	0x3e93c3b4	0.28860247
226	0xbdc61696	-0.09672277
227	0xbd76e275	-0.06027456
228	0x3dd3eaca	0.10347517
229	0x3e03b143	0.12860589
230	0xbde364df	-0.11103224
231	0x3dfb8464	0.12281111
232	0xbd15e304	-0.036593452
233	0x3e99fd76	0.30076188
234	0x3df51bfc	0.11968228
235	0x3d856e33	0.065151595
236	0x3e7279e4	0.2367931
237	0xbe95bf15	-0.29247347
238	0xbdcfd811	-0.10148633
239	0x3dcf9d36	0.101374075
240	0xbe2d1118	-0.16901052
241	0x3d7fe687	0.062475707
242	0x3c836f6d	0.016044343
243	0xbdc7d26f	-0.09756934
244	0x3e52d6b3	0.20589714
245	0xbd2bfeed	-0.041991163
246	0xbe29cb91	-0.1658156
247	0xbe6984e2	-0.22804597
248	0x3cdf5f08	0.027266994
249	0xbe393c89	-0.18089499
250	0x3e4599ec	0.19296998
251	0x3e4855ab	0.1956393
252	0xbe09cb6a	-0.13456503
253	0x3e22687b	0.15860169
254	0xbe671b81	-0.22569086
255	0x3d528199	0.051393125

generator.conv1.bn.weight f4 [64]
0	0x3f816b17	1.0110806
1	0x3f7aa177	0.97902626
2	0x3f83b350	1.0289097
3	0x3f811327	1.008397
4	0x3f7a74f6	0.9783472
5	0x3f79d666	0.9759277
6	0x3f7888f8	0.97084
7	0x3f840e63	1.031689
8	0x3f790520	0.97273445
9	0x3f80452c	1.002111
10	0x3f7d26fa	0.988876
11	0x3f7c9447	0.98663753
12	0x3f806afb	1.0032648
13	0x3f77db6b	0.9681918
14	0x3f7d6a69	0.98990494
15	0x3f7a1d1f	0.97700685
16	0x3f801492	1.0006278
17	0x3f7c3343	0.9851572
18	0x3f8114c1	1.0084459
19	0x3f80f677	1.0075215
20	0x3f7a0bf7	0.97674507
21	0x3f7c7915	0.98622257
22	0x3f7d94e0	0.9905529
23	0x3f7d3181	0.9890366
24	0x3f7b1300	0.98075867
25	0x3f7bcdf1	0.98361117
26	0x3f827ba8	1.0193987
27	0x3f7ce5f2	0.9878837
28	0x3f7d0579	0.98836476
29	0x3f7c483d	0.98547727
30	0x3f7d067c	0.9883802
31	0x3f80e8ad	1.0071007
32	0x3f80f2be	1.0074079
33	0x3f8078f9	1.0036918
34	0x3f7bb831	0.9832793
35	0x3f7b833d	0.9824713
36	0x3f77b7b6	0.96764696
37	0x3f83dcde	1.0301778
38	0x3f80ba12	1.0056784
39	0x3f7bcd71	0.98360354
40	0x3f7f9af1	0.99845797
41	0x3f7f4d14	0.99726987
42	0x3f8181a9	1.0117694
43	0x3f855276	1.041579
44	0x3f7920b4	0.97315526
45	0x3f7ad9ee	0.97988784
46	0x3f7f25e0	0.9966717
47	0x3f7900f9	0.9726711
48	0x3f8102ed	1.0079018
49	0x3f7e1da8	0.99264
50	0x3f7cf7c7	0.9881558
51	0x3f7ec01d	0.9951189
52	0x3f87916c	1.0591254
53	0x3f78cce0	0.97187614
54	0x3f82b6f8	1.0212088
55	0x3f861308	1.0474558
56	0x3f7f7bf0	0.9979849
57	0x3f78f213	0.97244376
58	0x3f7ce715	0.98790103
59	0x3f7d4ad7	0.9894232
60	0x3f812c4c	1.0091643
61	0x3f831642	1.0241168
62	0x3f7f2c8f	0.99677366
63	0x3f819d8f	1.0126208

generator.conv1.bn.bias f4 [64]
0	0xbb46a2b1	-0.0030309374
1	0x3c06203e	0.008186398
2	0x3c753662	0.014966579
3	0x3c5e4412	0.013566034
4	0xbc0c5be9	-0.008566835
5	0xbd0a2b14	-0.03373249
6	0xbcf48d7e	-0.029852625
7	0xbb873c2b	-0.0041270456
8	0xbc9b24f0	-0.018938512
9	0xbae18bf7	-0.001720785
10	0xbc16e88c	-0.009210717
11	0xbc4b6fef	-0.012416824
12	0x3c2a732a	0.010403434
13	0xbce08eab	-0.02741178
14	0xbb855152	-0.004068532
15	0x3bb0dade	0.0053971848
16	0xbac29cd3	-0.0014847763
17	0xbcfd8959	-0.030949282
18	0x3baab1b8	0.005209174
19	0x39f1367c	0.00046007696
20	0xbd1cad5e	-0.038251273
21	0xbc982f79	-0.018577324
22	0xbbff78f8	-0.007796403
23	0xbc5c5cde	-0.013449876
24	0xbca7a4a5	-0.02046425
25	0xbc6ee0c9	-0.01457996
26	0x3b5beec4	0.0033559063
27	0xbb307deb	-0.0026930522
28	0xbcd6f0af	-0.026237814
29	0xbc8874e7	-0.016657306
30	0xbbb1ab63	-0.005422042
31	0xbbc37fdc	-0.0059661698
32	0x3caa03f0	0.02075383
33	0x3b1d9e4a	0.0024050646
34	0xbcaebde8	-0.021330789
35	0xbca315f8	-0.019907936
36	0xbcf48f73	-0.029853558
37	0x3d04a82b	0.03238694
38	0x3c1d0041	0.00958258
39	0xbcab1157	-0.020882292
40	0xbc032908	-0.008005388
41	0xbca15a12	-0.01969627
42	0x3cfb0450	0.030641705
43	0xbbea7889	-0.007155482
44	0xbc296f4b	-0.010341476
45	0xbca6da9d	-0.020367915
46	0xbb305db0	-0.002691131
47	0xbcd84d17	-0.026403947
48	0x3d1f57f0	0.038902223
49	0xbbadc3eb	-0.0053028963
50	0xbcd48cea	-0.0259461
51	0xbc2bb420	-0.010479957
52	0xbc2d8a4b	-0.010592054
53	0xbc9931ce	-0.018700507
54	0x3d096c2b	0.033550423
55	0x3c84bdad	0.016203726
56	0x3bd50651	0.006500997
57	0xbc28ebc1	-0.010310114
58	0xbbfe8175	-0.0077668973
59	0xbc8bb21a	-0.017052699
60	0x3b4c8ec1	0.0031213018
61	0x3ca44ec0	0.020057082
62	0xb984c469	-0.0002532334
63	0x3b9b1aa2	0.0047333995

generator.conv1.bn.running_mean f4 [64]
0	0xba87bf4c	-0.0010356694
1	0x3d627c87	0.05529454
2	0xbab9533e	-0.0014139188
3	0x3ac46e06	0.0014986403
4	0x3c923777	0.017848713
5	0x3d81fe2d	0.06347308
6	0x3d8999d2	0.06718792
7	0x39552b31	0.00020329353
8	0x3d836d67	0.06417351
9	0xb9e87fab	-0.00044345608
10	0x3d0ec7d0	0.034858525
11	0x3d40858c	0.04700236
12	0x3bf5db5a	0.0075029554
13	0x3d8c92c0	0.06863928
14	0x3d3acebb	0.04560731
15	0x3bc4aa2f	0.006001733
16	0x3bdbda86	0.0067093996
17	0xbd70b7f7	-0.058769193
18	0xbb24036c	-0.0025026454
19	0x3bac9958	0.0052673034
20	0xbda9e8bd	-0.082963444
21	0xbd70b405	-0.05876543
22	0x3aa8311b	0.0012832017
23	0xbd483f4e	-0.048888497
24	0xbd81f45c	-0.06345436
25	0x3d3ede50	0.046598732
26	0x3b3d8019	0.0028915463
27	0xbbe58d25	-0.007005351
28	0xbd7bafb2	-0.061446853
29	0x3cc49a5a	0.023999382
30	0x3cc2c646	0.023776185
31	0xbaa3e796	-0.0012504931
32	0x39d47085	0.00040519625
33	0x3c5902e1	0.013245315
34	0xbd47f9ba	-0.048822142
35	0xbc6d6293	-0.014488834
36	0x3d10beaf	0.0353381
37	0x3a76a6f0	0.0009409031
38	0xbb2f81ee	-0.0026780325
39	0xbcdf9926	-0.027294707
40	0xbc4b6f75	-0.01241671
41	0xbaf09cd2	-0.0018357283
42	0xba9c9ae0	-0.0011948012
43	0xbaa49ba6	-0.0012558594
44	0x3d018660	0.03162229
45	0xbd377ad7	-0.044794884
46	0x3ba01f0a	0.0048865126
47	0x3d892ac7	0.06697612
48	0xbaed2daf	-0.001809528
49	0xbc493801	-0.012281419
50	0xbd9b4452	-0.075813904
51	0xbc73dbfd	-0.014883992
52	0x39be2674	0.00036268274
53	0xbdc0efed	-0.09420762
54	0xbb214e5b	-0.0024613354
55	0xba291a0b	-0.0006450719
56	0x3c1b032e	0.009461207
57	0x3d375ad4	0.044764355
58	0xbc04bf6b	-0.008102278
59	0xbcbaccc7	-0.022802724
60	0xbb23aeb6	-0.0024975962
61	0x3a119316	0.00055532285
62	0xbc81c2c7	-0.015839947
63	0xba379d3c	-0.0007004326

generator.conv1.bn.running_var f4 [64]
0	0x3bf901b2	0.007599079
1	0x3e00257d	0.125143
2	0x3d110bc1	0.0354116
3	0x3c8a4c28	0.016882017
4	0x3cba0b18	0.022710368
5	0x3e23dd89	0.16002478
6	0x3e4b3da1	0.19847728
7	0x3c5d2fe4	0.013500188
8	0x3e348450	0.17628598
9	0x3be8fc35	0.0071101435
10	0x3d80ac01	0.06282807
11	0x3ddccb57	0.107809715
12	0x3c542f59	0.012950742
13	0x3e4c6a78	0.1996249
14	0x3dacbb38	0.08434147
15	0x3bbb5498	0.0057168715
16	0x3c6d2694	0.01447453
17	0x3e1a075c	0.1504187
18	0x3bca0f78	0.006166395
19	0x3c22182d	0.009893459
20	0x3e99c072	0.30029637
21	0x3e25180a	0.16122451
22	0x3c0a8f46	0.008457011
23	0x3dcd55fb	0.10026165
24	0x3e3238be	0.17404458
25	0x3dbc19fb	0.09184643
26	0x3c743d9b	0.014907266
27	0x3c473c93	0.012160438
28	0x3e1cc600	0.15309906
29	0x3cf07928	0.029354647
30	0x3d0ba149	0.03408936
31	0x3b65a418	0.0035040434
32	0x3c46b0cc	0.012127113
33	0x3ccfb36e	0.025354113
34	0x3ddaee82	0.10690023
35	0x3c5d169f	0.013494163
36	0x3d63ffb4	0.05566378
37	0x3ca37ac4	0.019956
38	0x3bf89157	0.0075856852
39	0x3d08310f	0.03324991
40	0x3c588753	0.013215858
41	0x3c37a3a6	0.01120845
42	0x3c9db067	0.019249154
43	0x3bc44adf	0.0059903706
44	0x3d3b92f5	0.045794446
45	0x3dba4877	0.09095853
46	0x3b66ffc6	0.0035247668
47	0x3e492bc1	0.19645597
48	0x3cf92323	0.030412262
49	0x3c4f1593	0.012639421
50	0x3e82e108	0.2556231
51	0x3c96c539	0.01840459
52	0x3c525961	0.012838692
53	0x3eb9837e	0.36233133
54	0x3baca3f9	0.0052685705
55	0x3cfac789	0.030612724
56	0x3cd78ed8	0.02631323
57	0x3db87fcd	0.09008751
58	0x3bff1a78	0.0077851377
59	0x3d0793e6	0.03310003
60	0x3c0c394a	0.008558581
61	0x3c4e2cd2	0.012583928
62	0x3cd60a06	0.026127826
63	0x3ba1e29a	0.004940343

generator.conv2.conv.weight f4 [64, 64, 3, 3]
0	0x3d190f35	0.03736802
1	0x3ca46ebe	0.020072337
2	0xbd06ba55	-0.032892544
3	0x3ce953d7	0.02848236
4	0x3ce5eb15	0.028066197
5	0x3b5c7921	0.0033641534
6	0x3c9aa3d1	0.018876942
7	0x3ba6ccc8	0.00509033
8	0x3c9c8625	0.019106934
9	0xbce1a744	-0.027545579
10	0xbc601506	-0.013676887
11	0xbd1e76d4	-0.038687542
12	0x3cd92a94	0.02650956
13	0xbd1b1b8c	-0.037868068
14	0xbceda588	-0.029009596
15	0x3d2e802f	0.042602714
16	0xbcdef71f	-0.027217446
17	0x3d2daec9	0.042403016
18	0xbc9455ab	-0.018107256
19	0x3c25e06c	0.010124307
20	0xba2bd06a	-0.00065541884
21	0x3cb34c33	0.02188692
22	0x3d231746	0.039817117
23	0x3d30b9e7	0.04314604
24	0x3d2ed0ef	0.042679723
25	0xbcbaccbc	-0.022802703
26	0x3d0ff2de	0.035143726
27	0x3c927f63	0.017883008
28	0x3bd117cf	0.006381012
29	0x3cbd2e80	0.023093462
30	0x3cfc1661	0.03077239
31	0xbbb72b60	-0.0055898875
32	0x3bc30f55	0.0059527555
33	0x3d010278	0.031496495
34	0x3bb1d6fa	0.0054272385
35	0x3b19aa88	0.0023447592
36	0xbbacd7b7	-0.0052747387
37	0x3bfd55ef	0.0077311913
38	0xbbab189c	-0.0052214395
39	0x3c85a068	0.01631184
40	0x3c80378c	0.015651487
41	0xbc9d5239	-0.019204246
42	0x3cf96c36	0.030447107
43	0xbce02735	-0.027362445
44	0xbca6624d	-0.020310545
45	0xbb91fe67	-0.004455376
46	0xbc4a3a4d	-0.012343002
47	0xbc74d5a5	-0.014943515
48	0x3d388f73	0.04505868
49	0x3beb5463	0.0071816905
50	0x3c314e62	0.010821911
51	0x3d04b874	0.03240247
52	0x3d26d654	0.040731743
53	0x3d02690c	0.03183846
54	0xbc721f08	-0.014777906
55	0x3c7a62a8	0.015282311
56	0x3bff9eb2	0.0078009004
57	0x3cd0913e	0.025459882
58	0x3d07892a	0.033089794
59	0x3c8f3a34	0.017483808
60	0x3b86e650	0.004116811
61	0xbbb4529d	-0.0055030123
62	0x3c6bda7f	0.014395355
63	0x3c20ad9a	0.009807015
64	0x3c40a718	0.011758588
65	0xbd344cb5	-0.044018466
66	0xbd3b6c2e	-0.045757465
67	0xbcc8b6a5	-0.024501154
68	0x3c4e9955	0.012609799
69	0x3c97110b	0.018440744
70	0xbc5409d4	-0.012941796
71	0x3bc4b713	0.0060032695
72	0xbcce9146	-0.025215756
73	0x3be8474f	0.007088579
74	0xbd1ed928	-0.038781315
75	0x3b6c9754	0.003610094
76	0x3c9926de	0.018695291
77	0x3aa7a80e	0.0012791173
78	0xbca438fa	-0.0200467
79	0xbc91200a	-0.017715473
80	0x3c9d6b90	0.019216329
81	0x3cf8064a	0.030276436
82	0xbd2f093b	-0.042733412
83	0xbbec21af	-0.007206164
84	0xbcc11486	-0.023569357
85	0xbc8bebb5	-0.017080167
86	0x3ccc1a49	0.024914877
87	0x3c36955d	0.011144009
88	0xbcd9b425	-0.026575157
89	0x3c12fb7a	0.0089710895
90	0x3d07af26	0.03312602
91	0x3b7627c8	0.0037560333
92	0xbd0a1426	-0.03371062
93	0xbbde8a41	-0.0067913835
94	0xbd2a423a	-0.041567065
95	0xbcd3f3a2	-0.02587301
96	0x3c79943a	0.015233094
97	0x3d2547a5	0.04035153
98	0x3c0addd0	0.008475736
99	0x3b48a127	0.0030613632
100	0x3d21df5d	0.039519656
101	0xbcb7418e	-0.022370126
102	0x3cc4c4a2	0.024019543
103	0x3cf85538	0.030314073
104	0x3ca1c0a7	0.019745184
105	0x3cc0ff54	0.02355925
106	0x3b85af5d	0.004079743
107	0x3cae356a	0.021265704
108	0xbb0f294c	-0.0021844683
109	0x3ce20614	0.027590789
110	0xbc4b9ee1	-0.012428016
111	0xbc270fc6	-0.010196632
112	0xbcddfc66	-0.027097892
113	0xbc5eff7d	-0.013610718
114	0x3c1c49cb	0.009539078
115	0xbcf75980	-0.030194044
116	0x3ca3b5b9	0.019984113
117	0x3be990ec	0.0071278717
118	0x3c493afe	0.012282131
119	0x3c72987c	0.014806863
120	0x3cc136a9	0.023585634
121	0xbc22b9f3	-0.009932029
122	0xbd0344ab	-0.03204791
123	0x3c79ad1c	0.015239026
124	0x3b725af7	0.0036980489
125	0x3cb3bdd0	0.021941096
126	0x3c2fbc4a	0.010726044
127	0x3c376689	0.01119388
128	0x3c9c9fad	0.019119108
129	0xbc36fafe	-0.01116824
130	0xbc595f6c	-0.013267379
131	0xbba77a63	-0.005111025
132	0xbcfa88da	-0.030582834
133	0xbd180abd	-0.037119616
134	0x3cc3ac6e	0.023885932
135	0xbcc12102	-0.02357531
136	0xbce1726b	-0.027520379
137	0x3cdc2148	0.026871338
138	0xbc503257	-0.012707314
139	0x3d4e31b7	0.05034038
140	0x3bf94966	0.0076076267
141	0xbbca2506	-0.0061689643
142	0x3d2db411	0.042408053
143	0x3cdc3f24	0.026885577
144	0xbca47631	-0.02007589
145	0x3cc264fb	0.023729792
146	0x3c6c53bc	0.014424261
147	0xbcc7a792	-0.024371896
148	0x3cbe8708	0.023257747
149	0x3baf71b5	0.005354131
150	0x3c39689c	0.011316445
151	0xbc556d34	-0.013026524
152	0xbbb751a7	-0.0055944505
153	0x3cf6e899	0.030140208
154	0x3c2611f6	0.010136118
155	0x3c279cf1	0.010230289
156	0x3cefc802	0.029270176
157	0x3cdcc54a	0.026949544
158	0xbced5d6e	-0.028975215
159	0x3d3804cb	0.044926446
160	0x3cf23d3c	0.029570214
161	0xbce1bf1c	-0.027556948
162	0x3cdb963b	0.026805034
163	0x3c6c2a85	0.014414434
164	0x3d42a315	0.04751881
165	0x3d2ef98d	0.04271846
166	0x3c925586	0.017863046
167	0x3bf32a65	0.0074208253
168	0xbb32fd02	-0.002731145
169	0xbc7e9524	-0.015538488
170	0xbc0b2ebc	-0.008495029
171	0x3ce062bd	0.027390832
172	0x3bc11a9a	0.0058930637
173	0xbcaa2b4f	-0.020772604
174	0xbc2356b6	-0.009969404
175	0xbaff9efb	-0.0019502336
176	0xbc78e51d	-0.015191344
177	0x3cd808d4	0.026371397
178	0xbcc76cf8	-0.024343953
179	0xbc772434	-0.015084315
180	0x3c9aabfb	0.018880835
181	0xbbe86b63	-0.0070928796
182	0x3c819116	0.015816253
183	0x3886a49c	6.420279e-05
184	0x3cd94aa0	0.026524842
185	0x3d1be6f2	0.038062043
186	0x3b9d3616	0.0047977073
187	0x3b4ac491	0.0030939917
188	0xbcadfaf6	-0.021237832
189	0x3cd4553a	0.025919545
190	0xbb8b03f1	-0.004242413
191	0x3c2325d3	0.009957748
192	0x3ccf5046	0.025306832
193	0xbb36c66b	-0.0027889262
194	0xbcfe6db2	-0.031058166
195	0x3d080722	0.033209927
196	0x3b4ed931	0.0031562562
197	0xbc2eea6b	-0.010676007
198	0x3b2eca00	0.0026670694
199	0xbd17f2d6	-0.03709682
200	0x3c738612	0.014863508
201	0xbc87274c	-0.01649823
202	0x3d06bd71	0.03289551
203	0xbc443ee6	-0.011977887
204	0xbcc4703a	-0.023979295
205	0x3be40287	0.006958309
206	0x3cd2cfb2	0.025733802
207	0x3d168cc8	0.036755353
208	0xbcf2c093	-0.029632842
209	0x3ce02849	0.02736296
210	0x3d0b1da1	0.033963803
211	0xbc4a123f	-0.012333452
212	0xbc6e5325	-0.01454619
213	0xbce4a7d8	-0.027912065
214	0xbba88017	-0.0051422226
215	0x3b40e6a9	0.002943436
216	0x3d013f09	0.031554256
217	0xbd08df5d	-0.03341614
218	0x3bbd88b5	0.005784119
219	0xbc893cdf	-0.016752658
220	0x3d2d6acb	0.042338174
221	0xbc3c660a	-0.011498937
222	0x3cb5e8bc	0.022205703
223	0x3c9da96c	0.019245826
224	0xbbc9b3b4	-0.0061554555
225	0xbc60a6b3	-0.013711619
226	0xbd1126bf	-0.03543734
227	0xbce1295b	-0.02748554
228	0xbcbfd69c	-0.023417763
229	0x3c898d85	0.016791115
230	0xbc91ab05	-0.017781744
231	0x3d36e96f	0.044656213
232	0xbbde66b3	-0.006787145
233	0x3d3b35a1	0.04570544
234	0x3d07f270	0.03319019
235	0x3cefe228	0.029282644
236	0xbb93a7a5	-0.004506069
237	0x3cbdc152	0.023163471
238	0x3c390402	0.011292459
239	0xbd16b297	-0.03679141
240	0xbca9e6d1	-0.020739945
241	0xbc4015cc	-0.011723947
242	0x3c1bbe9d	0.009505895
243	0x3d35349b	0.04423962
244	0xbcf9a330	-0.030473322
245	0xbc20f7d2	-0.00982471
246	0x3c04dbec	0.008109074
247	0x3d2da6c0	0.042395353
248	0xbb9f9994	-0.004870603
249	0x3d0c6c74	0.034283116
250	0x3cf7af15	0.030234853
251	0xbc100bda	-0.008791888
252	0x3d31a92d	0.04337423
253	0xbbbc9952	-0.005755582
254	0xbd24af06	-0.040205978
255	0x3d1efdfe	0.038816445

generator.conv2.bn.weight f4 [64]
0	0x3f7c160c	0.9847114
1	0x3f816ace	1.0110719
2	0x3f820dc4	1.0160451
3	0x3f80128a	1.0005658
4	0x3f80f305	1.0074164
5	0x3f819ea2	1.0126536
6	0x3f811b98	1.0086546
7	0x3f83c881	1.0295564
8	0x3f78ec79	0.9723583
9	0x3f7e00c3	0.9921991
10	0x3f7ce790	0.98790836
11	0x3f7a050b	0.97663945
12	0x3f7a366c	0.9773929
13	0x3f7fec50	0.9996996
14	0x3f7d5736	0.989612
15	0x3f875e16	1.0575588
16	0x3f7c76cf	0.9861879
17	0x3f823924	1.0173688
18	0x3f812cde	1.0091817
19	0x3f7b61dd	0.981962
20	0x3f838a80	1.0276642
21	0x3f838b8c	1.0276961
22	0x3f7bcda9	0.9836069
23	0x3f7dc570	0.9912939
24	0x3f83d0e7	1.0298127
25	0x3f78173c	0.9691045
26	0x3f7919ee	0.9730519
27	0x3f82a8e1	1.0207788
28	0x3f8575e3	1.0426601
29	0x3f7c9060	0.986578
30	0x3f80d9ea	1.0066502
31	0x3f800ece	1.0004518
32	0x3f82a410	1.0206318
33	0x3f7a2563	0.977133
34	0x3f7ff4c6	0.9998287
35	0x3f7e0856	0.9923147
36	0x3f7bd70a	0.98375
37	0x3f7fe657	0.99960846
38	0x3f7bde5b	0.9838616
39	0x3f7d33f0	0.98907375
40	0x3f84a7dd	1.0363728
41	0x3f84cce0	1.0375023
42	0x3f7e8f04	0.99436975
43	0x3f7c2594	0.9849484
44	0x3f7ba82e	0.98303497
45	0x3f7cc51b	0.9873826
46	0x3f80eb6f	1.0071849
47	0x3f811eef	1.0087565
48	0x3f82428b	1.0176557
49	0x3f840691	1.0314504
50	0x3f8127ca	1.0090268
51	0x3f7d423f	0.9892921
52	0x3f7f964d	0.99838716
53	0x3f829248	1.0200891
54	0x3f7d7e17	0.9902052
55	0x3f7a3782	0.9774095
56	0x3f7cfeaa	0.98826087
57	0x3f795858	0.97400427
58	0x3f7d845c	0.9903009
59	0x3f7a14a3	0.9768774
60	0x3f86a8ad	1.0520226
61	0x3f7f695d	0.99770147
62	0x3f7d6977	0.9898905
63	0x3f7cf9bb	0.9881856

generator.conv2.bn.bias f4 [64]
0	0xbb4e6bc9	-0.003149735
1	0x3abff45a	0.0014644966
2	0xbc661cfa	-0.0140449945
3	0xbc984853	-0.018589174
4	0xbca97007	-0.020683302
5	0xbcb4c900	-0.0220685
6	0x3cb4d8e4	0.022076078
7	0xbc84624d	-0.016160155
8	0xbd0d9218	-0.034563154
9	0x3b80d121	0.00393118
10	0xbd223838	-0.039604396
11	0xbce1dbe0	-0.027570665
12	0xbc8e71a5	-0.017388174
13	0xbc8f2db0	-0.01747784
14	0xbbb5366a	-0.0055301683
15	0x3c3f17f6	0.011663428
16	0xbcc445cd	-0.023959065
17	0xbd292048	-0.04129055
18	0xbc45e211	-0.012077824
19	0xbcf044d8	-0.029329702
20	0xbbf82366	-0.007572579
21	0xbd1590ce	-0.03651505
22	0xbd0db8bc	-0.034600005
23	0xbcc23ea0	-0.023711503
24	0xbc76e77e	-0.0150698405
25	0xbc9cd689	-0.019145267
26	0xbc605389	-0.013691791
27	0xbd00a8be	-0.031410925
28	0xbc0b4bca	-0.008501956
29	0xbb4949f1	-0.0030714239
30	0xbcd122f1	-0.025529357
31	0xbbe4c7be	-0.006981819
32	0xbc99c175	-0.018769005
33	0xbc052610	-0.008126751
34	0x3a0dea6b	0.0005413654
35	0x3c06115c	0.00818285
36	0x3c849975	0.016186455
37	0xbcb0cfa2	-0.021583382
38	0xbcdf83ca	-0.027284522
39	0xbc6e04e9	-0.014527538
40	0xbcd93008	-0.02651216
41	0x3aa034f1	0.0012222809
42	0x3c0ec3ba	0.008713657
43	0xbce143e7	-0.027498199
44	0xbcb0e592	-0.021593843
45	0xbb0ae894	-0.0021195756
46	0xbc8cc743	-0.01718486
47	0x3c54950e	0.0129749905
48	0xbcba1067	-0.0227129
49	0xbc92ef42	-0.017936353
50	0xbc4c0221	-0.012451679
51	0xbcaa5c0a	-0.02079584
52	0xbd165aa2	-0.036707528
53	0xbccf67b7	-0.02531801
54	0xbbc6c8de	-0.0060664257
55	0xbcd00e2c	-0.025397383
56	0xbd131b9f	-0.035915013
57	0xbcb1127c	-0.02161526
58	0xbc55a76c	-0.013040405
59	0xb991f24e	-0.00027837086
60	0xbd2c6b76	-0.04209467
61	0xbd238295	-0.039919455
62	0xbb8f5502	-0.0043741474
63	0xbbf57f51	-0.007491984

generator.conv2.bn.running_mean f4 [64]
0	0x3fa6cf33	1.3031982
1	0xbeff3912	-0.4984823
2	0xbf022fb7	-0.5085406
3	0x3df08e66	0.1174591
4	0xbd7affe4	-0.061279193
5	0xbee1ac6d	-0.44076863
6	0xbf38983e	-0.72107303
7	0xbf0e7fec	-0.55663943
8	0xbe0a4526	-0.1350294
9	0x3f876ebb	1.0580667
10	0xbe23e3b5	-0.16004832
11	0x3df66f6e	0.12032972
12	0xbd5af412	-0.05345542
13	0xbf0a83d6	-0.54107416
14	0x3f2e62f6	0.6811975
15	0xbf102401	-0.5630494
16	0xbf7b760b	-0.98226994
17	0xbe3d8ffa	-0.18511954
18	0xbc19dd06	-0.009391075
19	0x3d80b217	0.06283968
20	0xbf873586	-1.0563209
21	0xbfcc9b32	-1.5984862
22	0xbd7ff157	-0.06248602
23	0x3efb26e0	0.49053097
24	0x3e2bd35d	0.16779847
25	0x3e814ea6	0.25255316
26	0xbe837c3a	-0.25680715
27	0xbfaf0c32	-1.3675597
28	0xbfb5b136	-1.4194705
29	0xbe2f2a04	-0.17105871
30	0xbf000baf	-0.5001783
31	0xbea11027	-0.31457636
32	0xbfa531e5	-1.2905852
33	0x3f66363a	0.89926493
34	0x3eb24f66	0.348262
35	0x3d598f62	0.053115256
36	0x3e60710a	0.21918121
37	0xbef5441c	-0.47903526
38	0x3e635e4d	0.22203942
39	0x3f3e8934	0.74428105
40	0xbfb6740a	-1.4254162
41	0xbe959d34	-0.292215
42	0xbf06b750	-0.5262346
43	0xbd4c8d8a	-0.04993967
44	0x3e706973	0.23477726
45	0xbf750574	-0.95711446
46	0xbef826d1	-0.48467115
47	0xbe9c4322	-0.30519968
48	0xbf0fe1a9	-0.56203705
49	0xbf5639d3	-0.8368198
50	0xbf591895	-0.84803134
51	0xbec5bd49	-0.38620976
52	0xbed7fbde	-0.42184347
53	0xbf8a6e53	-1.0814918
54	0xbefa3ad3	-0.48873004
55	0xbec35270	-0.38148832
56	0xbf00d8d7	-0.5033087
57	0xbe888f98	-0.26672053
58	0xbe203d14	-0.156483
59	0xbe7f1e77	-0.24913965
60	0xbf80c303	-1.0059513
61	0xbd32cc2c	-0.043651745
62	0x3f01ad4e	0.50655067
63	0xbe8ff817	-0.28118965

generator.conv2.bn.running_var f4 [64]
0	0x3f15d7f9	0.58532673
1	0x3f0c9144	0.5490916
2	0x3e8fb536	0.2806794
3	0x3e92a982	0.2864495
4	0x3f145dd4	0.5795567
5	0x3ede3b53	0.43404636
6	0x3ec15dc7	0.3776686
7	0x3eb81fdd	0.3596181
8	0x3fbad329	1.4595691
9	0x3f1bc71f	0.6085071
10	0x3f360d94	0.7111447
11	0x3ef1777e	0.47161478
12	0x3f3d1b73	0.7387001
13	0x3e6e506b	0.23272865
14	0x3f2ad168	0.6672578
15	0x3eae3384	0.34023678
16	0x3f58e6d4	0.84727216
17	0x3f07d1d0	0.53054523
18	0x3ebfe213	0.37477168
19	0x3f47ebc8	0.7809415
20	0x3f3bd20f	0.733674
21	0x3f4efe37	0.8085665
22	0x3f955f49	1.1669704
23	0x3f300846	0.68762624
24	0x3f06b712	0.52623093
25	0x3f37156d	0.7151707
26	0x3ed1bd1b	0.4096459
27	0x3f883c62	1.0643427
28	0x3f4d1e43	0.801243
29	0x3e923bab	0.28561148
30	0x3ee56a4b	0.44807658
31	0x3e8b0cca	0.27158195
32	0x3f3ade7a	0.7299572
33	0x3eecb7c7	0.4623396
34	0x3ebca8a3	0.3684741
35	0x3ea2f095	0.31824175
36	0x3e985b30	0.2975707
37	0x3eb61814	0.35565245
38	0x3f6d7e49	0.9277082
39	0x3f003442	0.5007974
40	0x3f4290a7	0.7600197
41	0x3ecfdefb	0.40599808
42	0x3e894b7b	0.268154
43	0x3f7ea172	0.99465096
44	0x3edbbdf2	0.42918354
45	0x3f22d721	0.6360951
46	0x3eecafc0	0.46227837
47	0x3efa8626	0.48930472
48	0x3ea7fa8e	0.32808346
49	0x3edaf9c9	0.42768696
50	0x3eeca487	0.46219274
51	0x3f1c7c48	0.6112714
52	0x3ebb4cd4	0.36582053
53	0x3f192c2d	0.5983303
54	0x3f08a192	0.53371537
55	0x3ec89542	0.39176375
56	0x3f105251	0.56375605
57	0x3f7a6ace	0.9781922
58	0x3f0d7dce	0.5527009
59	0x3e669a60	0.22519827
60	0x3f0e707e	0.556404
61	0x3eef8846	0.46783656
62	0x3ebc699e	0.3679933
63	0x3f334eef	0.7004232

generator.conv3.conv.weight f4 [64, 64, 3, 3]
0	0x3d1b360e	0.037893347
1	0xbca21a6b	-0.019787988
2	0xbce4d378	-0.027932867
3	0x3d2089be	0.03919386
4	0xbc1a0fa0	-0.009403139
5	0x3b52cc65	0.0032165286
6	0xb8bd3d77	-9.023671e-05
7	0xbce42f84	-0.027854688
8	0x3c75040b	0.014954577
9	0xbcfa25ff	-0.030535696
10	0xbc0032be	-0.007824598
11	0xbc7386ff	-0.014863729
12	0xbd0855b6	-0.033284865
13	0xbca45dfc	-0.020064346
14	0xbccf7ab9	-0.025327073
15	0x3bbd2241	0.0057719056
16	0xbd1febf7	-0.039043393
17	0xbb4ecaaf	-0.0031553914
18	0xbd48af6b	-0.048995417
19	0xbc06fa6d	-0.008238417
20	0x3ceb41cf	0.028717903
21	0xbc8b16f1	-0.016978713
22	0xbcbe78c3	-0.023250943
23	0x3c9b686b	0.018970689
24	0xbce5deba	-0.028060306
25	0x3cbf7b98	0.023374364
26	0x3ce94179	0.028473603
27	0xbd1971e2	-0.037462123
28	0x3c859251	0.01630512
29	0x3cca38e9	0.02468534
30	0xbbc5a157	-0.006031196
31	0x3b8940db	0.0041886396
32	0x3cd5160e	0.026011493
33	0x3c95a1d2	0.018265639
34	0x3c87c9eb	0.016575774
35	0xbd17a943	-0.037026655
36	0xbd2cf540	-0.042226076
37	0x3bf1c585	0.0073782825
38	0xbcd87d25	-0.026426861
39	0xbc504a61	-0.012713046
40	0xbcd48b30	-0.025945276
41	0x3c49b703	0.0123117
42	0x3c164cce	0.009173585
43	0x3c3d4ce5	0.011553978
44	0x3c8e3809	0.017360704
45	0x3d2d8977	0.042367425
46	0xbcbf2788	-0.02333428
47	0x3c913864	0.017727084
48	0xbd46fa21	-0.048578385
49	0xbcae1a0d	-0.021252656
50	0x3b92e192	0.0044824565
51	0xbc411096	-0.01178374
52	0x3bfa6d2b	0.0076424084
53	0xbb884d4d	-0.0041596056
54	0xbc1302ba	-0.008972818
55	0xbcedf9d9	-0.0290498
56	0xbd40a6f3	-0.047034215
57	0x3ca14874	0.019687869
58	0xbd1918ed	-0.037377287
59	0xbcb773e0	-0.02239412
60	0x3b477051	0.0030431936
61	0x3cf7f50c	0.030268215
62	0x3c563e4d	0.013076377
63	0x3ce3123f	0.027718661
64	0x3a054c5c	0.0005084926
65	0x3cd1f5a1	0.02562982
66	0x3d078257	0.033083286
67	0x3c28f88d	0.010313165
68	0xbced1ff9	-0.02894591
69	0x3d27b123	0.040940415
70	0xbc449538	-0.011998467
71	0x3c815d94	0.015791692
72	0xbcaf191d	-0.02137428
73	0x3a83f635	0.0010067882
74	0x3c620f2d	0.0137975635
75	0xbc589a55	-0.013220389
76	0xbcf79ce6	-0.030226182
77	0x3ce63cea	0.028105218
78	0x3cfda3c9	0.030961888
79	0x3cb57177	0.02214883
80	0x3cec977e	0.02888083
81	0xbc514ad5	-0.012774189
82	0x3b953e09	0.0045545143
83	0x3ce8943a	0.028390992
84	0xbbee3f2b	-0.007270714
85	0x3d110c0b	0.035411876
86	0x3c9dd3dd	0.019266063
87	0x3a1ec802	0.0006057025
88	0xbd0eb0c4	-0.034836546
89	0x39827496	0.00024882396
90	0xbd1bcc79	-0.038036797
91	0x3d0a62c7	0.033785608
92	0xba7b8a4c	-0.0009595498
93	0xbcb35570	-0.021891326
94	0x3bd8fe15	0.006622086
95	0xbc96b26f	-0.01839563
96	0xbd1f400f	-0.03887945
97	0xbcc86bce	-0.024465468
98	0x3d14f9b2	0.03637094
99	0xbd080f45	-0.033217687
100	0x3ca91c9a	0.020643521
101	0xbcfbae1c	-0.03072267
102	0xbd8616bf	-0.06547307
103	0x3c0bfdc4	0.008544389
104	0x3b9d3a14	0.004798183
105	0xbc8a4250	-0.016877323
106	0x3b2441f6	0.002506373
107	0xbc9aed85	-0.018912086
108	0xbcc9d522	-0.024637762
109	0xbc013608	-0.007886417
110	0x3ccd155f	0.025034605
111	0xbcbfbd40	-0.023405671
112	0x3c79cf57	0.015247188
113	0x3c225052	0.009906845
114	0x3cb0288a	0.021503706
115	0xbc518397	-0.012787721
116	0xbc453ac3	-0.012037936
117	0xbd2ad14d	-0.04170351
118	0xbd408ddd	-0.04701029
119	0xbb91ee13	-0.0044534295
120	0xbc2c0b8e	-0.010500802
121	0xbcce242c	-0.025163732
122	0x3cd8c94f	0.026463179
123	0xbbe5dcf9	-0.0070148674
124	0x3c78026a	0.015137294
125	0x3c476756	0.012170633
126	0xbb874994	-0.0041286442
127	0xbc3617c6	-0.0111140665
128	0x3b05bf94	0.002040838
129	0x3c9fc19e	0.019501504
130	0xbc8dcc31	-0.01730928
131	0xbc117984	-0.008879069
132	0xbc0c8294	-0.008576054
133	0xbc80e57b	-0.015734425
134	0xbce2f8f8	-0.027706608
135	0x3d0e6791	0.034766737
136	0x3c8e7987	0.017391933
137	0x3bc92236	0.0061381115
138	0x3c990eee	0.018683877
139	0x3cc4b988	0.02401425
140	0x3c96bd80	0.018400908
141	0x3bc86abc	0.0061162394
142	0xbcef8ae9	-0.029241042
143	0xbd1713c0	-0.03688407
144	0x3d03d5e1	0.032186393
145	0xbca69747	-0.020335807
146	0xbcb8f495	-0.022577563
147	0x3d083d2c	0.033261463
148	0x3cb639ff	0.022244452
149	0xbc945c94	-0.018110551
150	0x3c845f2c	0.016158663
151	0x3b436822	0.0029816707
152	0xbc01a952	-0.007913904
153	0xbd04b2e6	-0.032397173
154	0x3b2f287f	0.0026727018
155	0xbce76391	-0.02824572
156	0x3d0c89c5	0.034311075
157	0xbc290c5f	-0.010317891
158	0xbc552333	-0.01300888
159	0x3cf40551	0.029787691
160	0x3cf9bc6d	0.030485356
161	0x3caba010	0.020950347
162	0xbbd8bb07	-0.0066140923
163	0xbd09a6fc	-0.033606514
164	0xbcbd2ae1	-0.023091735
165	0xbc907198	-0.01763229
166	0xbd6b2586	-0.057408832
167	0x3b04c524	0.0020259107
168	0xbb39ec95	-0.0028369774
169	0x3d31fd5e	0.04345452
170	0xbc092b46	-0.008372134
171	0x3ccbd1f8	0.024880394
172	0xbce73b7e	-0.02822661
173	0x3c515f93	0.012779134
174	0xbcb100a7	-0.021606756
175	0xbccaaa2d	-0.02473935
176	0xbc49eb9c	-0.01232424
177	0x3c93ddd5	0.018050114
178	0xbcd95b77	-0.026532872
179	0xbcfef7d7	-0.031124039
180	0xbc894a40	-0.016759038
181	0x3d0ba9ec	0.034097597
182	0x3cee4469	0.029085355
183	0x3b78bb5a	0.0037953467
184	0x3baaea56	0.0052159233
185	0x3cb1ba6f	0.021695344
186	0xbc717593	-0.014737505
187	0xbd133572	-0.03593964
188	0x3d16867f	0.03674936
189	0xbc8a8500	-0.016909122
190	0x3b2f2f1a	0.0026730956
191	0x3d23acc2	0.039959677
192	0xbc72008a	-0.014770636
193	0x3d0867d2	0.033302136
194	0x3c7381ed	0.01486252
195	0xbd438a4f	-0.047739323
196	0xbc852d5e	-0.016256984
197	0xbc4530be	-0.012035547
198	0x3cf33dc8	0.029692546
199	0xbd2a376a	-0.041556753
200	0x3b528fea	0.0032129236
201	0x3d32f98c	0.043695018
202	0x3c7c683e	0.015405713
203	0x3d070b3e	0.032969706
204	0x3cff86f2	0.031192277
205	0x3d2c4a6d	0.042063165
206	0xbd00479e	-0.0313183
207	0xbcc506bf	-0.024051068
208	0x3c16fd32	0.00921564
209	0xbb6c553e	-0.003606155
210	0xbc922c15	-0.017843286
211	0x3b1a0d3c	0.0023506423
212	0xbcf56f58	-0.02996032
213	0x3ce76559	0.028246569
214	0x3ba4c4ee	0.0050283587
215	0x3b8e6321	0.004345313
216	0x3b938515	0.0045019486
217	0xbca505b1	-0.020144315
218	0xbca27df1	-0.019835444
219	0x3c14261a	0.009042287
220	0xbcf61009	-0.030036943
221	0x3c299b42	0.010351958
222	0xbd586fd3	-0.05284102
223	0xbcde7237	-0.027154071
224	0x3cdc2d30	0.026877016
225	0x3c10a717	0.0088289
226	0xbbfefbbf	-0.0077814753
227	0x3ca38881	0.019962551
228	0x3c0aab64	0.008463714
229	0x3d1a8bb8	0.037730902
230	0x3cb92a61	0.022603216
231	0xbbf7d848	-0.0075636245
232	0xbcb8d27b	-0.022561302
233	0xbd02ac9d	-0.031902898
234	0xbcf536ae	-0.0299333
235	0x3cabcc4d	0.020971442
236	0xbc1e2f12	-0.009654777
237	0xbc49062d	-0.012269539
238	0xbcef8cc3	-0.029241925
239	0xbb02184b	-0.0019850906
240	0x3ce034f2	0.027368996
241	0xbca52a08	-0.020161644
242	0xbcdff2dc	-0.027337484
243	0xbd0ea7a0	-0.03482783
244	0xbca454d0	-0.020059973
245	0xbc4d39ff	-0.012526034
246	0xbca5eaf9	-0.020253645
247	0x3d176f75	0.036971528
248	0xbb428e86	-0.0029687001
249	0xbd1cbbe5	-0.038265128
250	0xbd08cf96	-0.033401094
251	0xbc92818b	-0.017884037
252	0xbcf77b75	-0.030210236
253	0xbccb6a2f	-0.024830906
254	0x3c55c410	0.013047233
255	0xbce5a5b2	-0.028033111

generator.conv3.bn.weight f4 [64]
0	0x3f82051c	1.0157809
1	0x3f825420	1.0181923
2	0x3f7f04eb	0.9961688
3	0x3f7c071d	0.98448354
4	0x3f7f0192	0.9961177
5	0x3f83697f	1.026657
6	0x3f805683	1.0026401
7	0x3f80d7f6	1.0065906
8	0x3f812dcc	1.0092101
9	0x3f820f51	1.0160924
10	0x3f781450	0.96905994
11	0x3f7fb97c	0.998924
12	0x3f7aeab0	0.98014355
13	0x3f814114	1.0097985
14	0x3f776850	0.96643543
15	0x3f7e3873	0.99304885
16	0x3f802356	1.0010784
17	0x3f802af8	1.0013113
18	0x3f7fc531	0.99910265
19	0x3f7c3f9d	0.98534566
20	0x3f7c5c23	0.9857809
21	0x3f7dfe87	0.992165
22	0x3f7b6c04	0.98211694
23	0x3f7fa35e	0.99858654
24	0x3f806766	1.0031555
25	0x3f80eae2	1.007168
26	0x3f79505f	0.9738826
27	0x3f814c0d	1.0101334
28	0x3f7a73c5	0.978329
29	0x3f7e7490	0.9939661
30	0x3f80b62d	1.0055596
31	0x3f7df9ab	0.9920909
32	0x3f818e8e	1.0121629
33	0x3f7cf75a	0.9881493
34	0x3f7b1711	0.9808207
35	0x3f7b2b3c	0.98112845
36	0x3f818052	1.0117285
37	0x3f8149d4	1.0100656
38	0x3f7f1a5f	0.99649614
39	0x3f837ff9	1.0273429
40	0x3f80021f	1.0000647
41	0x3f826e4e	1.0189912
42	0x3f80298f	1.0012683
43	0x3f847e25	1.0350996
44	0x3f8199f0	1.0125103
45	0x3f80bbe0	1.0057335
46	0x3f7dbdf1	0.9911795
47	0x3f7db989	0.9911123
48	0x3f84375e	1.0329397
49	0x3f80679c	1.0031619
50	0x3f84ff99	1.0390502
51	0x3f7b4bb8	0.9816241
52	0x3f81b0b7	1.0132054
53	0x3f7a333d	0.97734433
54	0x3f7e6351	0.99370295
55	0x3f825054	1.0180764
56	0x3f7fa1b5	0.9985612
57	0x3f7e9c04	0.9945681
58	0x3f7cdcf2	0.98774636
59	0x3f7d5aef	0.9896688
60	0x3f7ddb78	0.9916301
61	0x3f7cb6d3	0.9871647
62	0x3f789807	0.97106975
63	0x3f7b1c6b	0.9809024

generator.conv3.bn.bias f4 [64]
0	0xbcc76841	-0.024341704
1	0xbd06fb47	-0.03295448
2	0xbd42d76c	-0.047568724
3	0xbcf57f37	-0.029967887
4	0xbd5c0279	-0.053713296
5	0xbd859764	-0.06523016
6	0xbd2d25fd	-0.042272557
7	0xbc85e6d7	-0.016345425
8	0xbce5a8dc	-0.02803462
9	0xbc7b759c	-0.0153478645
10	0xbc90ca4b	-0.017674586
11	0xbcaf14a0	-0.02137214
12	0xbd313bc8	-0.043269902
13	0xbcc527ef	-0.024066893
14	0xbd0945b0	-0.033513725
15	0xbd0a4688	-0.03375867
16	0xbd0131b3	-0.031541537
17	0xbd231d93	-0.039823126
18	0xbcc1f07d	-0.023674244
19	0xbb87f659	-0.00414924
20	0xbc8a34e5	-0.016870925
21	0xbcc45991	-0.02396849
22	0xbc56effe	-0.013118742
23	0xbc68e5af	-0.014214917
24	0xbce7e7f5	-0.028308848
25	0xbd3d78e9	-0.046257887
26	0xbcbdf9e3	-0.023190444
27	0xbc95c0ce	-0.018280413
28	0xbcb8297c	-0.022480719
29	0xbce58d58	-0.0280215
30	0xbd30cade	-0.04316222
31	0xbc85c921	-0.016331257
32	0xbd855245	-0.06509832
33	0xbced201b	-0.028945973
34	0xbd126813	-0.035743784
35	0xbcb54103	-0.022125727
36	0xbcc144df	-0.02359241
37	0xbd4f4c17	-0.050609674
38	0xbd1a554c	-0.037679
39	0xbd285555	-0.041097004
40	0xbcdbb053	-0.026817476
41	0xbce4fb6a	-0.027951915
42	0xbc05153b	-0.0081227375
43	0xbd478586	-0.048711322
44	0xbd39c04a	-0.045349397
45	0xbce6b57b	-0.028162709
46	0xbcbaeafa	-0.022817124
47	0xbd6e6b58	-0.05820784
48	0xbcc167b6	-0.023609024
49	0xbcd8cceb	-0.0264649
50	0xbda20a03	-0.07912066
51	0xbca01dd6	-0.019545477
52	0xbcf6ea99	-0.030141162
53	0xbcea31da	-0.028588224
54	0xbd0f0bd7	-0.0349234
55	0xbd1e1b29	-0.03860012
56	0xbcacbacc	-0.021085165
57	0xbcce8885	-0.025211582
58	0xbd14c0a2	-0.03631652
59	0xbcedbf73	-0.029021954
60	0xbca5d97d	-0.020245308
61	0xbd045e37	-0.032316413
62	0xbd057b4b	-0.032588284
63	0xbd037b2c	-0.032099888

generator.conv3.bn.running_mean f4 [64]
0	0xbf6c3e04	-0.9228213
1	0xbece1ef6	-0.40257996
2	0xbeae4c76	-0.3404271
3	0xbf7cf7be	-0.98815525
4	0x3e9ed313	0.31020412
5	0xbf565927	-0.83729786
6	0xbf519cb5	-0.8187974
7	0xbf8a014a	-1.0781643
8	0xbdd36e6c	-0.10323796
9	0xbf2a788e	-0.665902
10	0x3e3405b8	0.17580307
11	0xbf136295	-0.575723
12	0xbe7b9551	-0.24568678
13	0x3dc35a12	0.09538664
14	0x3f48580a	0.78259337
15	0xbed6ef13	-0.41979274
16	0x3df4746f	0.119362704
17	0x3e0d4e47	0.13799392
18	0xbf6f3b4a	-0.9344984
19	0xbecd4a15	-0.40095583
20	0xbf3d6f4e	-0.7399796
21	0xbf445618	-0.7669387
22	0x3f7c62f1	0.9858847
23	0xbf271811	-0.652711
24	0xbe980050	-0.29687738
25	0xbea9d617	-0.3317115
26	0xbee028e1	-0.43781188
27	0xbf89cc18	-1.076541
28	0xbefa75e0	-0.48918056
29	0xbe7b707f	-0.24554633
30	0xbf1733ec	-0.590636
31	0xbf119e1d	-0.56881887
32	0x3d9eee3a	0.07760282
33	0x3f1b7a3e	0.607334
34	0x3e84b0c6	0.25916117
35	0xbf87650e	-1.0577714
36	0xbdc75218	-0.09732455
37	0xbf1d89fc	-0.6153867
38	0xbf30c8c2	-0.6905633
39	0xbf41ba52	-0.7567493
40	0xbe9495f2	-0.2902065
41	0xbfac6bf7	-1.3470448
42	0xbf698f13	-0.9123394
43	0xbefc348e	-0.49258846
44	0x3ee1d4e9	0.4410775
45	0xbf883fcb	-1.0644468
46	0xbfa18eba	-1.2621682
47	0x3c6aec55	0.0143385725
48	0x3f0b0ba2	0.54314625
49	0xbf829e9b	-1.0204653
50	0xbec8567d	-0.39128485
51	0x3ebb38da	0.36566812
52	0xbebe6a19	-0.3719032
53	0xbfa7d2ff	-1.3111266
54	0xbe4edc13	-0.20201139
55	0xbf68d66d	-0.9095219
56	0xbfa729ca	-1.3059628
57	0xbf4ce7db	-0.80041283
58	0x3e8cad75	0.27476087
59	0x3e884a3c	0.26619136
60	0xbef45d15	-0.47727266
61	0x3f32a1c6	0.69778097
62	0xbf3cf83e	-0.7381629
63	0xbf54a6d1	-0.8306704

generator.conv3.bn.running_var f4 [64]
0	0x3ec80c23	0.3907176
1	0x3eac6655	0.33671823
2	0x3e95f42d	0.29287854
3	0x3ef22354	0.47292578
4	0x3eea7800	0.45794678
5	0x3ef47bf3	0.47750816
6	0x3f03dbe7	0.5150742
7	0x3f18bbd8	0.59661627
8	0x3ea0e42c	0.3142408
9	0x3ed82994	0.42219222
10	0x3ec4cbfb	0.38436875
11	0x3eab4cad	0.33456936
12	0x3eda8747	0.42681333
13	0x3f27e510	0.65583897
14	0x3eb088c3	0.3447934
15	0x3ec836fd	0.39104453
16	0x3ec4d123	0.3844081
17	0x3ec981d0	0.39356852
18	0x3ef8aad9	0.48567846
19	0x3ee379d1	0.44428876
20	0x3ebc73cc	0.36807096
21	0x3eff4688	0.498585
22	0x3ef8de69	0.48607185
23	0x3eae7e20	0.340806
24	0x3efb826d	0.49122944
25	0x3e9dc940	0.30817604
26	0x3ed0c636	0.40776223
27	0x3ee2cf20	0.4429865
28	0x3ed5d91e	0.4176721
29	0x3ef82210	0.48463488
30	0x3efadc62	0.48996264
31	0x3f358a11	0.709138
32	0x3ea3a5ba	0.31962377
33	0x3eb876ef	0.3602824
34	0x3ef3dbea	0.4762872
35	0x3ee5a57e	0.44852823
36	0x3ed9b354	0.4251963
37	0x3eabebb8	0.33578277
38	0x3ecc1926	0.39862937
39	0x3f15c2d3	0.58500403
40	0x3ecea0f7	0.4035718
41	0x3f03ec54	0.51532483
42	0x3edeba9c	0.43501747
43	0x3ea4ca8e	0.32185787
44	0x3ead6f12	0.33873802
45	0x3eed1b80	0.46310043
46	0x3ee61566	0.449382
47	0x3e93c23e	0.28859133
48	0x3ebb5649	0.36589268
49	0x3efde061	0.4958525
50	0x3ea5d718	0.32390666
51	0x3ec82a40	0.39094734
52	0x3f03dff6	0.5151361
53	0x3ecf27ae	0.4045996
54	0x3eb89b1d	0.36055842
55	0x3f118733	0.5684692
56	0x3f1991f3	0.59988326
57	0x3f01100f	0.5041513
58	0x3ee73c9f	0.45163438
59	0x3ed44965	0.41462246
60	0x3f41eb1d	0.7574938
61	0x3eb1a00f	0.34692428
62	0x3ed58239	0.41700915
63	0x3f076ac3	0.5289728

generator.conv4.conv.weight f4 [64, 64, 3, 3]
0	0x3d3fa5f8	0.04678914
1	0xbc24a042	-0.010047974
2	0x3d00df0d	0.031462718
3	0xbce249b1	-0.02762303
4	0x3caf791a	0.02142005
5	0x3c2a19d1	0.010382132
6	0x3c83cd7e	0.016089197
7	0xbb86564d	-0.0040996433
8	0x3caa0fbb	0.020759454
9	0x3ac027f9	0.001466035
10	0xb9da57dc	-0.0004164566
11	0xbb459844	-0.0030150572
12	0x3ca10279	0.0196545
13	0xbcf37e79	-0.029723393
14	0x3ca8660e	0.020556476
15	0xbb47c49d	-0.003048218
16	0x3adb0b96	0.0016711827
17	0xbc3cb5d1	-0.011517958
18	0x3d023cc8	0.031796247
19	0xbbc61776	-0.006045277
20	0x3d1da7fc	0.03849028
21	0xbcad4660	-0.021151721
22	0xbd2687be	-0.040656798
23	0x3c5038e2	0.012708874
24	0x3c58b248	0.013226099
25	0x3d0d51b4	0.034501746
26	0x3d1b758a	0.03795389
27	0x3be27a1d	0.0069115297
28	0x3c8c5cee	0.017134156
29	0xbc02b0cb	-0.007976721
30	0xbc1f596e	-0.009725912
31	0x3d25812e	0.0404064
32	0x3cff777a	0.0311849
33	0x3d1c213c	0.038117632
34	0x3c48bb64	0.012251709
35	0xbccd19c7	-0.025036706
36	0x3cba3201	0.022728922
37	0xbc92ea95	-0.017934123
38	0xbc924583	-0.017855411
39	0xbd16b73a	-0.036795832
40	0x3d064ecc	0.03278999
41	0xbc115fb6	-0.008872917
42	0x3d2d8cff	0.042370792
43	0x3c60ed0d	0.013728392
44	0x3d2b6c3c	0.041851267
45	0xbca1c167	-0.019745542
46	0xbcd2842f	-0.025697796
47	0x3a3f7ada	0.0007304378
48	0x3c1964f7	0.009362451
49	0xbd38e230	-0.045137584
50	0x3c458991	0.012056724
51	0x3d3d352b	0.046193283
52	0x3d08991c	0.03334914
53	0x3d35b61f	0.044363137
54	0xbbeac6f4	-0.0071648303
55	0xbcb1e79c	-0.021716885
56	0x3d09654e	0.033543877
57	0xbd1c0fee	-0.03810113
58	0x3cb0a2b9	0.021561967
59	0x3c001b67	0.007819033
60	0xbcc585ba	-0.024111617
61	0x3b2b71fb	0.0026160467
62	0xbd2318ad	-0.039818455
63	0x3cb594f4	0.022165753
64	0xba6553c1	-0.0008748137
65	0x3ce60172	0.028076861
66	0xbc857020	-0.016288817
67	0x3c98976f	0.018626897
68	0xbbe1e180	-0.006893337
69	0xbd5129a6	-0.05106511
70	0xbca1c972	-0.019749377
71	0xbcdb27b4	-0.02675233
72	0x3c03c2a1	0.008042009
73	0x3c94beca	0.018157382
74	0xbd013857	-0.03154787
75	0x3bb1e565	0.0054289573
76	0x3d2ec78f	0.042670783
77	0x3cbc7c2d	0.02300843
78	0x3cd98f49	0.026557581
79	0xbb263bba	-0.002536519
80	0x3b5997a5	0.003320196
81	0xbc894ea9	-0.01676114
82	0xbd08363e	-0.033254854
83	0xbc3edab2	-0.011648821
84	0xbb9b9fda	-0.0047492804
85	0xbc8533bd	-0.016260022
86	0xbca4dbd6	-0.020124357
87	0xbbf9ec51	-0.007627048
88	0x3c2bf95b	0.010496463
89	0x3b79f7dc	0.003814212
90	0x3c158b44	0.009127442
91	0xbc1224e7	-0.008919931
92	0x3c1e49b6	0.009661129
93	0xbce6c7a8	-0.028171375
94	0x3d2dcebf	0.042433497
95	0x3cc2511b	0.023720315
96	0x3bd921d9	0.0066263494
97	0xbbe2a036	-0.0069160713
98	0xbca8afbe	-0.020591613
99	0xbc17a1be	-0.009254871
100	0x3cf1eb29	0.029531078
101	0x3d0a0767	0.033698466
102	0x3c36663b	0.011132772
103	0xbcddaaf7	-0.027059061
104	0xbcfc757d	-0.030817742
105	0xbab10ee7	-0.001350847
106	0x3cbeec82	0.023306135
107	0xbcafecfd	-0.02147531
108	0x3ccc6aaf	0.024953214
109	0xbcb20895	-0.021732608
110	0xbca050b5	-0.019569734
111	0xbc01e0b4	-0.007927109
112	0x3c4e0670	0.012574777
113	0xbcd56bd4	-0.026052393
114	0xbcfc7db3	-0.030821657
115	0xbb68bd78	-0.0035513323
116	0xba7d6604	-0.00096663856
117	0x3c17453c	0.009232815
118	0x3d09bf6c	0.03362982
119	0x3c97f0de	0.018547472
120	0xbccbf93b	-0.024899116
121	0xbcf31887	-0.029674781
122	0xbcec3fe0	-0.028839052
123	0xbbf73167	-0.007543731
124	0x3b3356cc	0.0027364967
125	0x3c5f8dfd	0.0136446925
126	0xbcc1c076	-0.023651343
127	0xbcc936df	-0.024562297
128	0x3ceeac56	0.02913491
129	0x3bd72816	0.006566058
130	0xbaa6ee95	-0.0012735898
131	0x3ba7bd6f	0.005119018
132	0xbcb45da1	-0.022017302
133	0xbcdff837	-0.027340038
134	0xbcaa1071	-0.020759793
135	0x3a948efc	0.0011334117
136	0xbd1f7ea3	-0.03893913
137	0xbd3e8a3e	-0.046518557
138	0xbc012b2e	-0.00788383
139	0x3cf2e0c0	0.029648185
140	0xbb583380	-0.003298968
141	0x3d09a45f	0.033604022
142	0xbbc4f1f3	-0.006010288
143	0x3cc66e4d	0.024222517
144	0xbd23db21	-0.0400039
145	0xbb95bece	-0.004569865
146	0xbc32cabb	-0.0109125925
147	0x3bae39d4	0.0053169522
148	0x3bf81f89	0.0075721187
149	0xbc8eab06	-0.017415535
150	0x3bb7f9c1	0.00561449
151	0x3cac224f	0.021012453
152	0xbc3a50ae	-0.011371775
153	0x3bec6010	0.0072136
154	0x3c819de2	0.015822355
155	0x3d54d783	0.05196334
156	0x3d6ac358	0.0573152
157	0x3d2ecfed	0.042678762
158	0xbca7869e	-0.020449933
159	0xbc765342	-0.015034499
160	0xbd0b14c8	-0.033955365
161	0xbc5a8af2	-0.013338791
162	0xbd0d504d	-0.03450041
163	0x3a4c50b1	0.00077940064
164	0xbd52ebbc	-0.051494345
165	0xbb8cb768	-0.0042943247
166	0x3c3412fe	0.010990856
167	0x3c4e1e5a	0.012580479
168	0x3d0163cd	0.031589318
169	0x3d3a6cf7	0.045514073
170	0x3b54389c	0.0032382375
171	0xbd0b6251	-0.03402931
172	0xbcda741e	-0.026666697
173	0x3cfe4908	0.031040683
174	0x3c85a8b4	0.016315795
175	0xbd52b429	-0.051441345
176	0xbcf5985d	-0.029979879
177	0xbd055294	-0.032549456
178	0xbaf694f2	-0.00188127
179	0xbb4f3cc6	-0.0031621917
180	0x3ccc5a33	0.024945354
181	0xbd471eee	-0.04861348
182	0xbd1ff091	-0.03904778
183	0x3caa2293	0.02076844
184	0xbbde8735	-0.0067910203
185	0xbd16e58d	-0.03684001
186	0x3ccb831d	0.024842793
187	0x3cbeab3b	0.023275008
188	0xbbec8a81	-0.0072186594
189	0xbcf420bc	-0.029800765
190	0xbc1956f8	-0.009359114
191	0x3cbd3f47	0.023101462
192	0x3cd864d0	0.026415259
193	0x3c3d61e2	0.011558982
194	0x3d0e96b1	0.03481168
195	0xbcf572aa	-0.029961903
196	0x3ca7206d	0.020401204
197	0xbc802424	-0.015642233
198	0x3d2faf66	0.042891882
199	0x3cb27dfd	0.021788592
200	0xbc3afcce	-0.011412812
201	0x3a73aaef	0.00092951854
202	0x3c24ecac	0.010066193
203	0xbb31562a	-0.0027059414
204	0xbd30b1f9	-0.043138478
205	0xbd1e5cf3	-0.038662862
206	0x3b909520	0.0044123083
207	0x3c79a012	0.015235918
208	0xbcdbca23	-0.026829785
209	0x3c36798f	0.01113738
210	0xbd0d5a49	-0.03450993
211	0x3c208a0b	0.009798537
212	0xbd0ed0ae	-0.03486698
213	0x3aad99f6	0.0013244736
214	0x3c1a92f9	0.009434455
215	0x3d080bc6	0.033214353
216	0x3d5c7aea	0.053828157
217	0x3c4e890a	0.012605915
218	0x3c5e71d2	0.013576942
219	0x3c35282f	0.011056944
220	0xbccba3c5	-0.024858365
221	0x3d0197f9	0.031639073
222	0xbd160766	-0.03662815
223	0xbd5ac1bc	-0.053407416
224	0xbd2f7909	-0.042840037
225	0xbd0dca7b	-0.03461693
226	0xbc856f6d	-0.016288484
227	0xbadbd29a	-0.0016771138
228	0xbd18c378	-0.03729579
229	0xbb368c8f	-0.0027854776
230	0xbc2a9842	-0.010412278
231	0x3c8bfb38	0.017087564
232	0xbcb5c9ae	-0.022190895
233	0x3cebc64c	0.028781079
234	0x3d1b4c15	0.037914354
235	0x3c96f3f8	0.01842688
236	0xbcc23249	-0.023705618
237	0xbb8226c5	-0.003971907
238	0x3a85a5ae	0.0010196471
239	0x3c52da9e	0.012869505
240	0x3c42cbe4	0.011889432
241	0xbca20180	-0.019776106
242	0xbd22059e	-0.03955614
243	0x3c8e8486	0.017397176
244	0x3d0f30e3	0.03495873
245	0x3c1f3380	0.009716868
246	0x3c43588a	0.011922965
247	0x3bd2c0fb	0.0064316965
248	0xbcd2badb	-0.025723865
249	0x3c56eb3e	0.01311761
250	0xbc9ff89b	-0.019527724
251	0x3c0b2283	0.008492115
252	0xbd0d1428	-0.03444305
253	0xbc51e08a	-0.012809882
254	0x3d0d8b11	0.034556452
255	0xbbbbfcad	-0.0057369084

generator.conv4.bn.weight f4 [64]
0	0x3f81bace	1.0135133
1	0x3f80963a	1.0045846
2	0x3f834139	1.0254279
3	0x3f7ff3d7	0.99981445
4	0x3f80448a	1.0020916
5	0x3f854a11	1.0413228
6	0x3f81333e	1.0093763
7	0x3f837673	1.0270523
8	0x3f8135d9	1.0094558
9	0x3f8092c7	1.0044793
10	0x3f828ecf	1.0199832
11	0x3f82b075	1.02101
12	0x3f84b564	1.0367856
13	0x3f859075	1.043471
14	0x3f8337eb	1.025144
15	0x3f7f5888	0.9974446
16	0x3f81e352	1.0147498
17	0x3f7e2d18	0.9928756
18	0x3f839f90	1.028307
19	0x3f7fb048	0.9987836
20	0x3f803090	1.001482
21	0x3f7ee555	0.9956868
22	0x3f817c25	1.0116011
23	0x3f829f80	1.0204926
24	0x3f8076f6	1.0036304
25	0x3f80266d	1.0011727
26	0x3f80094c	1.0002837
27	0x3f81b3cc	1.0132995
28	0x3f84fc9a	1.0389588
29	0x3f832602	1.0245974
30	0x3f856dac	1.0424094
31	0x3f854f93	1.0414909
32	0x3f7f7bae	0.99798095
33	0x3f82adc6	1.0209281
34	0x3f7cf48f	0.98810667
35	0x3f81f671	1.0153333
36	0x3f80e495	1.0069758
37	0x3f814309	1.0098583
38	0x3f81be65	1.0136229
39	0x3f83a0f8	1.0283499
40	0x3f858ed9	1.0434219
41	0x3f82655c	1.0187182
42	0x3f82544d	1.0181977
43	0x3f7e900d	0.99438554
44	0x3f84e658	1.0382795
45	0x3f83017e	1.023483
46	0x3f8357ce	1.0261171
47	0x3f80408d	1.0019699
48	0x3f82c17b	1.0215296
49	0x3f827351	1.0191442
50	0x3f8172af	1.0113124
51	0x3f8197d6	1.0124462
52	0x3f820579	1.015792
53	0x3f82a2de	1.0205953
54	0x3f839aa8	1.0281572
55	0x3f82d745	1.0221945
56	0x3f839826	1.0280807
57	0x3f8493aa	1.0357563
58	0x3f7dcaf0	0.99137783
59	0x3f849ea4	1.0360913
60	0x3f81f683	1.0153354
61	0x3f80e754	1.0070596
62	0x3f82dcb8	1.0223608
63	0x3f812812	1.0090353
