dl/models/conv2d_4block/checkpoint.ckpt (torch, 521495 bytes, 22 tensors)

generator.conv1.conv.weight f4 [64, 1, 3, 3]
000000 a2 54 92 be cc 47 a4 be 1a dd 9d be 03 4a 47 3e
       -0.28580195 -0.32086027 -0.3083275 0.19461827
000010 29 20 a4 3e c3 a8 db bd 10 f6 11 3e 49 22 90 3e
       0.32055786 -0.10725548 0.14254022 0.28151157
000020 45 cb b0 3d 90 74 58 3e 61 69 a3 3d a2 41 1e bb
       0.086325206 0.21138215 0.07979084 -0.0024148007
000030 ff 14 b7 3c d8 5b 29 3c dc c4 1c bd 02 96 11 3d
       0.022348879 0.010336839 -0.038273677 0.03554345
000040 c5 6e 5a be 17 f5 b0 bd ca 8d 6d 3d d8 2f 86 bd
       -0.21331318 -0.08640497 0.05799655 -0.06552094
000050 b0 ca 79 3e 36 d8 19 3e cd 5a 80 3e e7 7d 70 be
       0.24393725 0.15023884 0.25069275 -0.23485528
000060 11 78 05 be ea 18 81 be 05 fb 12 bd 7f 7a 80 3e
       -0.13034083 -0.2521432 -0.035883922 0.25093457
000070 2c b8 8c 3e 3b b7 87 3d 6a 04 f7 3d 90 07 89 3e
       0.27484262 0.06626745 0.12061389 0.26763582
000080 42 f5 8e 3d b1 88 96 3e 37 03 86 3b b6 56 7e 3e
       0.06980373 0.29401162 0.0040897387 0.24837765
000090 f4 3b 92 be 17 8d 5b bd 61 6d 19 3e 36 e6 bc 3d
       -0.28561366 -0.05360135 0.14983131 0.09223597
0000a0 70 fe c2 3d 43 eb 81 be 47 1e 95 be 21 e7 90 3e
       0.09521186 -0.25374803 -0.29124662 0.28301337
0000b0 51 93 8a bd 7d b9 07 3e ef b3 97 bd d9 f1 9b 3e
       -0.067663796 0.13254352 -0.074073665 0.30457953
0000c0 0f ca fd 3c c3 71 08 3e 3b ea 05 be 63 cf 41 be
       0.030980138 0.13324647 -0.13077633 -0.18926768
0000d0 58 51 24 3d 8c 0b 53 be 7e 17 e3 bd 2d 4a 01 3e
       0.040116638 -0.20609874 -0.11088465 0.12625952
0000e0 d9 09 a6 bd c3 95 ee ba a6 12 96 b8 bf f7 a1 be
       -0.08107347 -0.0018202591 -7.156031e-05 -0.31634328
0000f0 0c 52 3a 3e de ca a8 3e 99 89 18 be 1e f6 f4 3d
       0.18195361 0.32967275 -0.1489624 0.11961006
000100 df 93 1b 3e d7 d9 85 bd 31 d4 35 bd a9 a6 6e bd
       0.15193127 -0.0653569 -0.044391815 -0.05826441
000110 29 19 af be 93 04 92 3e a1 9a 22 be f1 94 93 3e
       -0.34198883 0.28519115 -0.15879299 0.2882457
000120 c5 11 58 bd 1a df 7a be 0e 03 a3 be 32 60 71 be
       -0.05275132 -0.24499169 -0.31838268 -0.23571852
000130 2e de ac bd 4a 01 a6 3d f2 09 1d be 11 81 3b 3e
       -0.08440815 0.081057146 -0.15335825 0.18310954
000140 03 5f 1b bd 65 5a 35 3e c0 2d 29 be 9d e5 75 3e
       -0.037932407 0.17710264 -0.16521358 0.24013372
000150 d3 c1 9a be f5 d7 e5 3d 7a 60 00 be 83 c3 80 3e
       -0.30226 0.11222831 -0.12536803 0.25149164
000160 c4 23 25 3e e1 18 49 3e 89 54 6b 3e 00 33 5d 3e
       0.16126925 0.19638397 0.22981466 0.21601486
000170 9d 2e 73 bd 05 05 8c be 2f 69 39 be 9e 6f 37 be
       -0.059370626 -0.2734758 -0.1810653 -0.17913672
000180 c3 30 8e bd fe 80 4e 3e 91 b3 5d 3c 7c b0 a3 bc
       -0.06942894 0.20166394 0.0135315815 -0.019981615
000190 4b 6a 37 3e 09 3f 97 be 9d b9 bb bc f5 3d 8f 3e
       0.17911641 -0.2954028 -0.022915656 0.27976957
0001a0 8a c4 48 be 4a 14 74 3e 4c 0c 51 be 68 0e 92 3d
       -0.19606224 0.23835865 -0.20414847 0.07131654
0001b0 4e 23 c6 3d d8 25 63 3e 01 ef 39 3e 37 ef 2b 3e
       0.096747026 0.22182405 0.18157579 0.16790472
0001c0 45 89 9c bd 5c 7c 95 3e 53 32 a8 3e f2 66 9e be
       -0.076433696 0.2919644 0.32850894 -0.30937916
0001d0 7c 0c 45 3e 85 8e 1b bd 49 ef 0c be 47 63 3a be
       0.19243044 -0.037977714 -0.13763155 -0.18201934
0001e0 cb d4 c1 3d 3c 8d 57 be 99 91 d0 3d bc 08 3e 3e
       0.09464415 -0.2104997 0.101840205 0.1855802
0001f0 10 c1 2e bc a9 83 8f 3e eb e5 a9 be 92 c3 c1 3d
       -0.010666147 0.28030136 -0.33183226 0.0946113
000200 2c e6 85 3e e8 2f 5d be 5d 84 c9 bd ca e6 83 3e
       0.2615217 -0.21600306 -0.098396994 0.25762016
000210 62 1d aa 3e 53 b3 98 3e 23 68 3e be e5 ff af 3e
       0.33225542 0.29824314 -0.18594413 0.3437492
000220 27 3d 26 be b9 b6 53 be e9 81 23 be b3 5f 63 be
       -0.16234265 -0.20675172 -0.15967526 -0.22204475
000230 6d 5e af 3e 11 ee a8 bd 92 7a 41 3e e3 cc cc bd
       0.3425173 -0.082485326 0.18894413 -0.100000165
000240 c7 53 0b 3e 57 e5 04 3d 8a e5 52 3e 8c 7c a9 bc
       0.13606177 0.032445278 0.20595375 -0.020689271
000250 80 67 9b 3d b5 cb b8 3d ad 59 2c be 2d 95 7a 3e
       0.075881004 0.09023229 -0.16831084 0.24470969
000260 de 51 87 3e ee ed b3 3d 76 c0 75 3d 2c 41 bb 3c
       0.26429647 0.08785616 0.059998 0.022858225
000270 7d 5b c8 3d 5f b7 2c 3c 24 54 83 be dd 15 a6 3c
       0.09783075 0.010541766 -0.25650132 0.020274097
000280 a9 a8 83 be 2e 9e 58 3e 63 99 92 bd b4 ca 4f 3e
       -0.25714615 0.21154091 -0.071581624 0.20292169
000290 8e 7e e8 bd d9 77 56 be 6a 1b a4 3e 99 cb 50 be
       -0.113522634 -0.20944156 0.32052165 -0.20390166
0002a0 c0 63 c3 bd fb 45 20 bc ee 38 72 3e f8 ac 50 3e
       -0.0954051 -0.00978231 0.2365453 0.20378482
0002b0 bb 69 3c 3e 9d 07 9d 3d 89 e3 69 be 85 c3 11 3d
       0.18399708 0.07667468 -0.22840704 0.035586853
0002c0 e1 c1 80 be 4d ee 49 3c 0a 5e 87 be 3b 1e 0c be
       -0.25147918 0.012324882 -0.26438934 -0.13683407
0002d0 59 37 43 3e 68 d5 73 be 6a 22 18 be e5 6b 1c 3d
       0.19064082 -0.23811877 -0.14856878 0.038188834
0002e0 e7 5f 22 3d 5f 8d 61 be a7 a0 58 3e 29 f5 8d bd
       0.03964224 -0.22026585 0.21155034 -0.06931526
0002f0 51 92 f9 3d 5f 81 70 be 14 0c 34 bc cd 22 fa 3c
       0.12186111 -0.23486851 -0.010989208 0.030534172
000300 cf 08 5d be 7c 6d b7 bd 5e 6d 7c be b0 96 59 3e
       -0.21585391 -0.08956429 -0.24651095 0.21248889
000310 09 d4 7c be a2 15 a9 3e 63 89 ec bd 10 e4 91 be
       -0.2469026 0.33024317 -0.11549642 -0.2849431
000320 30 37 53 3c 3f 9e b1 3d 32 8c c3 3d 2b b5 47 bd
       0.012891576 0.08672761 0.095482245 -0.04875676
000330 99 91 10 3e fd 5a a3 3e 8d 8e 58 be 3c b1 97 3e
       0.14118041 0.31905356 -0.21148129 0.29627407
000340 b8 d1 ae 3d 02 2a 4c be 1a e1 aa 3e eb 33 8f 3e
       0.085360944 -0.199379 0.33374864 0.27969298
000350 a8 14 9a 3d c1 30 49 3e e8 fc e5 bd 2a 37 be bd
       0.07523471 0.19647504 -0.11229879 -0.092878655
000360 65 0e fe 3d b1 6d e8 3d 23 6b 22 3d 15 ae 9d bd
       0.12405089 0.11349047 0.039652955 -0.07699219
000370 c2 f1 17 3e 5a 88 45 3e 20 2a a2 3e 7a 67 8b 3e
       0.14838317 0.19290295 0.31672764 0.27227384
000380 0e bf 2d 3e 92 29 cc 3c 4c f1 8d be b9 8c 98 3e
       0.16967413 0.024922166 -0.27723157 0.29794863
000390 fc 6d 9d 3e db 15 d8 3d be ec b7 bd 72 bd a1 bd
       0.30747974 0.105510436 -0.08980702 -0.07897462
0003a0 f9 c1 73 3e 60 e6 dd 3d a6 b6 26 be f7 e3 ec 3b
       0.23804463 0.10834956 -0.16280612 0.007229324
0003b0 c8 ff 35 bd 65 5f 42 be 08 96 3c be ca b9 94 bc
       -0.044433385 -0.18981703 -0.18416607 -0.018154997
0003c0 b8 60 ce 3d 73 e8 9c 3e 9f e8 3b 3e 03 d1 10 3e
       0.100770414 0.30646095 0.18350457 0.14142232
0003d0 70 26 84 3d 8d 84 8a 3c 86 58 f9 3d 1c f2 48 3e
       0.06452644 0.016908908 0.12175088 0.19623607
0003e0 d4 81 d9 bd a1 6e 93 be f3 26 9d 3e 31 5b 05 be
       -0.10620466 -0.2879534 0.30693778 -0.13023068
0003f0 70 fb 86 be 4a 1a 39 3e 4b 5b e0 3c db 6b 93 3e
       -0.26363707 0.18076435 0.027387282 0.28793225

generator.conv1.bn.weight f4 [64]
000000 4b 9e 82 3f 97 b8 81 3f 27 57 83 3f e4 99 7c 3f
       1.0204557 1.0134457 1.0260972 0.9867232
000010 03 96 7b 3f 46 07 81 3f 78 c3 82 3f 3e 8a 7e 3f
       0.98275775 1.0080345 1.0215902 0.9942969
000020 cb 15 79 3f d8 35 7d 3f 4c a7 7f 3f b9 e6 83 3f
       0.9729888 0.98910284 0.9986465 1.0304786
000030 5c 96 7b 3f 0c 28 7e 3f 4d 2d 7d 3f a5 53 82 3f
       0.98276305 0.99279857 0.9889725 1.0181776
000040 75 84 79 3f 2f 1d 84 3f 1c 0a 80 3f e7 6c 80 3f
       0.9746774 1.0321406 1.0003085 1.0033234
000050 c5 7d 81 3f 38 58 7c 3f 57 07 7b 3f f1 d5 7a 3f
       1.0116507 0.9857211 0.98058075 0.979827
000060 b7 a8 7d 3f b5 97 78 3f cc 07 83 3f 6a dd 7c 3f
       0.99085563 0.97106487 1.0236754 0.9877535
000070 91 61 80 3f 15 2e 84 3f ff 56 82 3f fa fc 83 3f
       1.0029775 1.0326563 1.0182799 1.0311577
000080 5f 49 7e 3f eb 1a 80 3f e8 a4 7f 3f ed 73 7b 3f
       0.99330705 1.0008215 0.99861 0.98223764
000090 54 3e 81 3f c1 a0 79 3f ea 8e 7e 3f 55 0e 7f 3f
       1.0097146 0.97510916 0.9943682 0.99631244
0000a0 f3 52 7f 3f 7d 36 7b 3f 4e 03 79 3f 9f 26 7b 3f
       0.99735945 0.9813002 0.9727067 0.98105806
0000b0 4d ad 7b 3f 64 b1 82 3f 9e 9f 79 3f aa dc 7d 3f
       0.9831131 1.0210385 0.9750918 0.9916483
0000c0 f0 11 7e 3f 5c e2 80 3f c7 7e 7d 3f 9d 18 7a 3f
       0.9924612 1.0069079 0.9902157 0.97693807
0000d0 ac 28 81 3f a8 c5 76 3f 51 55 85 3f da 09 7b 3f
       1.0090537 0.9639535 1.0416662 0.9806191
0000e0 a6 27 7d 3f 3f d0 7c 3f b3 88 82 3f 80 95 7b 3f
       0.98888624 0.9875526 1.0197967 0.98274994
0000f0 0a 11 7d 3f bb ca 7d 3f 6d 3b 7f 3f 30 d0 80 3f
       0.98854125 0.9913747 0.9970005 1.0063534

generator.conv1.bn.bias f4 [64]
000000 11 02 d6 3c 73 95 81 3c 72 c3 66 bb 7c 0c c8 bb
       0.026124032 0.015818333 -0.003521171 -0.006105004
000010 7c b6 82 bc dd cb 16 3c 1c fc 98 3c 4c 6a 9e bb
       -0.015956156 0.009203878 0.018674903 -0.004834449
000020 d4 ed 98 bc 0c 4c 65 bc c8 e8 48 bb 54 5e 75 3c
       -0.018668093 -0.013995182 -0.0030656327 0.014976103
000030 3c 3f 7e bc ed c3 ac 3c 89 e9 e3 ba 28 dc e6 bb
       -0.015518006 0.021089518 -0.0017388324 -0.0070452876
000040 21 3d 80 bc 10 3a 11 bd fc b6 86 3b 23 4e 0f 39
       -0.015654149 -0.035455763 0.004111169 0.00013666651
000050 5d ec 9a bb e1 e9 b0 bc f5 2b ac 3c ba 21 56 bc
       -0.0047278837 -0.021595897 0.021017054 -0.0130695645
000060 e3 14 44 bc d6 fc f5 bc 16 ae de 3c 74 7d 3e 3b
       -0.01196787 -0.030027788 0.02718262 0.0029066475
000070 bb 56 12 bc 19 2c 26 3c 4e 4a 29 3c ec 95 87 bb
       -0.008931811 0.01014235 0.010332657 -0.004137745
000080 c5 e8 9e bc 82 86 16 3c ad 44 18 bc a1 9e 07 bc
       -0.019398103 0.009187343 -0.009293717 -0.008277566
000090 51 c9 90 3b 6a d0 cd bc b8 dc 7d 3c 1c b7 f2 bb
       0.00441853 -0.025123794 0.015494518 -0.0074070822
0000a0 28 19 6d 3b 12 4e fa b9 29 32 83 bc 5e ca e7 bc
       0.0036178324 -0.00047741883 -0.01601513 -0.028294738
0000b0 ff 3a ae bc 90 ee 80 3b 84 83 62 bc e0 c8 ab bc
       -0.021268366 0.003934689 -0.013825301 -0.020969808
0000c0 60 c2 da bc d4 b2 bf 3b 6c 96 ae bb 05 c0 50 bc
       -0.026704013 0.0058501754 -0.0053279903 -0.0127410935
0000d0 d6 89 3c 3c c8 a8 c2 bc 5a 3b b7 3c fd e6 ae bc
       0.011507472 -0.023762122 0.022367168 -0.021350378
0000e0 2f ca da bc 3d 1a 77 bc 2e be d1 ba 1d 97 7c bc
       -0.026707737 -0.015081939 -0.0016002113 -0.015416888
0000f0 82 9d 9f bc 18 a0 bc bc bf 03 20 3c 7e a6 32 3b
       -0.019484285 -0.023025557 0.009766518 0.0027259882

generator.conv1.bn.running_mean f4 [64]
000000 3a c2 18 ba 7d f5 9b 3a 26 f1 4a ba 89 0b d0 3d
       -0.0005827282 0.0011898723 -0.00077416224 0.1015845
000010 1f 23 b1 bc 1f be 2e 3b c3 18 e1 ba 5e 89 3b 3c
       -0.021623192 0.0026663614 -0.0017173517 0.011446325
000020 0b cc 61 bd 56 48 0e 3d ad 65 e3 bb 0e 6f c6 3a
       -0.05512623 0.034736954 -0.006939611 0.0015139298
000030 e4 39 90 3d a7 d8 b5 3b 63 da d2 3c 49 50 58 bb
       0.07042292 0.0055495086 0.0257389 -0.0033006838
000040 73 60 5f 3d fe 8a 18 38 b2 dd 59 3b 50 1b bf bc
       0.05453534 3.636907e-05 0.0033243713 -0.023328453
000050 db 8d 98 bb 2f b7 f4 bc 4d de 11 ba b2 be 61 3d
       -0.0046555824 -0.029872505 -0.00055644364 0.0551135
000060 22 af a8 3d 59 64 26 3d 78 2e fc b9 d3 c0 a4 3c
       0.08236529 0.040623043 -0.00048099807 0.020111477
000070 34 4f b7 3b 73 d4 76 3a 28 91 9f b9 38 3e 96 ba
       0.0055941585 0.00094158127 -0.00030434993 -0.0011462634
000080 e6 95 09 3c 74 14 ac bb 6d 5e 71 bd c9 c8 ae 3d
       0.008397555 -0.0052514616 -0.058927942 0.085343905
000090 6a ce a7 3b 9b 50 33 bd e5 65 17 3c bd d7 ce bc
       0.005121042 -0.043778043 0.009240602 -0.025249356
0000a0 41 f3 8c bc 96 f4 81 3c 84 66 07 3d 08 4e ee 3c
       -0.017205836 0.015863698 0.03305675 0.029089943
0000b0 af fe 11 3d d3 bd 03 bb 62 63 31 bc 0a dc 32 bd
       0.035643276 -0.0020102158 -0.010826917 -0.043666877
0000c0 fc d7 4e bc 1e 7c 5b 3a e4 ac 9e bc 46 f0 5e 3c
       -0.012624737 0.0008372682 -0.01936955 0.01360709
0000d0 af 4c 2d 3c b0 36 0e 3d 33 bf 98 3a 74 f9 74 bd
       0.010577365 0.034720123 0.0011653661 -0.05980821
0000e0 68 b6 09 bd 7a 29 3b 3c dc e9 3d 3b 7a 7b 22 3c
       -0.03362122 0.011423463 0.0028978502 0.009917134
0000f0 aa f8 93 bd 52 6d 47 bd 28 69 3e 3b a6 5d 45 3b
       -0.07225163 -0.04868824 0.0029054377 0.0030115633

generator.conv1.bn.running_var f4 [64]
000000 3e 1a 1f 3d 5a b3 06 3c 25 d2 09 3c 4c 68 0e 3f
       0.038843386 0.008221472 0.008411919 0.55627894
000010 31 a5 d8 3c e5 aa 0f 3c 7e ef 6e 3c 64 e0 63 3c
       0.026445957 0.008768772 0.014583467 0.013908479
000020 04 d6 2a 3e 1e d5 86 3d 9c 9c 1a 3c e9 dc 2b 3c
       0.16683203 0.06583618 0.009436753 0.010489681
000030 8a 49 83 3e be bb 57 3c e0 20 5a 3d 60 b2 a7 3b
       0.25642043 0.01316732 0.05325401 0.0051176995
000040 91 dd 2b 3e 97 00 7c 3b 48 c7 ff 3b e4 dd 3c 3d
       0.1678374 0.00384525 0.0078057386 0.04611005
000050 d3 ed 7b 3c 0e 9d 7d 3d ee ca 46 3c c0 00 44 3e
       0.015376526 0.061917357 0.012133343 0.19140911
000060 13 04 be 3e 9b d1 ba 3d f7 ae 6c 3c db 93 05 3d
       0.37112483 0.0912201 0.014446012 0.03261171
000070 06 00 0b 3c 69 eb bd 3b 95 f2 90 3b bf fc c0 3b
       0.008483892 0.0057958853 0.0044234493 0.0058895047
000080 ca 76 d1 3c eb ba 44 3c 02 19 59 3e 11 d3 cd 3e
       0.025569338 0.012007455 0.21200946 0.40200093
000090 9b 47 c0 3c f4 be e2 3d 2d fb f7 3c 49 86 47 3d
       0.023471644 0.11071578 0.030271137 0.04871205
0000a0 d3 2e cf 3c 0c 30 b9 3c 88 d9 78 3d 4b 78 32 3d
       0.025290882 0.022605918 0.06075433 0.04357175
0000b0 03 f4 9a 3d 90 44 ea 3b 41 f9 ff 3b f7 50 ee 3d
       0.07566073 0.0071492866 0.007811696 0.116365366
0000c0 8a ad d5 3c c9 e1 fe 3b 02 a3 06 3d 72 39 ab 3c
       0.026083726 0.0077783805 0.0328703 0.020901415
0000d0 98 66 24 3d 2e 27 93 3d c1 ea 7f 3c 0c d8 5a 3e
       0.040136904 0.07185207 0.015619935 0.21371478
0000e0 6e be 8e 3d 74 7f 9a 3c 5a 09 39 3c 19 78 22 3c
       0.06969915 0.018859603 0.0112937335 0.009916329
0000f0 75 71 95 3e aa d3 0a 3e f4 bf 53 3c c1 d3 0a 3c
       0.29188123 0.13557306 0.012924183 0.008473338

generator.conv2.conv.weight f4 [64, 64, 3, 3]
000000 dd e5 da 3c d7 73 18 3d ca 86 56 3d 15 38 29 bc
       0.026720935 0.03721985 0.05237464 -0.010328312
000010 5a d4 f9 bb 8a ab ba 3b 34 b9 34 3c 88 39 3e bc
       -0.007624191 0.0056967186 0.011030484 -0.011610396
000020 be d2 43 3c e7 4d 0a bd 1a 6f 3b bc ca df 19 3d
       0.0119521 -0.0337657 -0.011440063 0.037566938
000030 06 12 16 bd c1 a2 4f bc 0d e6 f2 3a b7 19 5a bc
       -0.036638282 -0.012673081 0.0018531695 -0.013311795
000040 d6 de 2c bd 73 6a 9a bc 3b 12 89 bc 6e 35 fb 3c
       -0.0422047 -0.018849587 -0.016732326 0.030665126
000050 2c 08 14 3d 4a 9a 06 bc 42 e7 c1 3b 31 0f 80 3c
       0.036140606 -0.008215496 0.0059174607 0.015632244
000060 fc 68 4e bd 17 40 42 bd 22 38 93 bc ee 80 95 3c
       -0.05039309 -0.047424402 -0.017971102 0.018249955
000070 80 92 51 bb 4b a8 c3 3c 73 b3 1d 3d ea f9 c7 bc
       -0.003197819 0.02388396 0.038501214 -0.02441116
000080 4a f8 e8 3c 74 1a ee 3b b8 7f d9 bc 5c 0a f0 bb
       0.028438706 0.007266337 -0.026550159 -0.0073254537
000090 5b e3 14 bc d6 86 0b bd 72 28 37 bb 96 85 30 3c
       -0.009087409 -0.034064136 -0.0027947691 0.010774037
0000a0 69 21 c8 bc 69 f4 53 bc 71 0a 0f bd 7e ce a4 39
       -0.024429994 -0.01293669 -0.034922067 0.00031434366
0000b0 59 30 cc bb 0e e6 aa 3c f6 ae f4 bc 0a 81 9f 3b
       -0.0062313494 0.020861652 -0.029868584 0.0048676776
0000c0 57 da b2 bc cc 57 87 3c c8 58 d4 3c 30 70 0f bd
       -0.021832628 0.016521357 0.02592124 -0.0350191
0000d0 a3 5d 07 bd 3b de 1d bd c6 77 3a 3c 62 52 89 3c
       -0.033048283 -0.038542014 0.011381095 0.016762916
0000e0 fe 5c ca bc ef e5 a4 3c e4 ee 1c bd 14 82 66 3c
       -0.024702545 0.020129172 -0.03831376 0.014069099
0000f0 c3 84 14 bc 4a 6b 4b 3c 57 da 9c 3c bf 49 af 3c
       -0.009064856 0.012415716 0.019147081 0.02139747
000100 dc e3 0f 3d ef 6b 10 bb b7 61 05 3c 3e c0 02 bd
       0.035129413 -0.002203699 0.008140973 -0.031921618
000110 97 18 8c bb f7 82 47 bb 7e bd b8 bc 00 18 53 3d
       -0.0042753923 -0.0030443051 -0.022551294 0.05153656
000120 b9 05 10 bd b4 34 b8 3c 61 3a 2e bc d3 9e 79 3c
       -0.035161708 0.022486068 -0.010634036 0.015235621
000130 f8 b6 f2 3c fd a5 72 3c d8 8d ea bc e6 96 e9 bc
       0.029628262 0.0148100825 -0.02863209 -0.028514337
000140 4e 5d ef 3c 72 7d e8 bc 72 8c d2 3c 40 45 87 bc
       0.029219296 -0.02838013 0.025701735 -0.016512513
000150 0d 4b ed 3c 53 97 e6 bc f8 b4 b3 3c 67 4f 86 bc
       0.028966451 -0.028148329 0.021936879 -0.016395284
000160 65 f1 09 3d 18 11 31 3d 55 8d a0 bb c8 80 5d 3c
       0.033677477 0.043229192 -0.0048996606 0.013519473
000170 4c 15 0e 3d a7 9f 41 3c 7b 4c 93 3c ec a6 bb 3c
       0.03468828 0.011817849 0.017980805 0.022906743
000180 1a 27 95 3c fc 01 44 bc e6 25 b2 bc 97 be 0d 3c
       0.018207122 -0.011963364 -0.021746587 0.008651397
000190 cf 8a 3a bd 16 24 f0 3c b9 3c 93 3c 4d 54 f5 3c
       -0.045542534 0.029314082 0.01797329 0.029947424
0001a0 4a 68 53 bd f3 7b ff ba 8e 6c b3 bc 50 98 20 bc
       -0.05161313 -0.0019491896 -0.021902349 -0.009801939
0001b0 72 ea 12 3d 14 db ac 3c bb 37 9b bb 0d 0a af bc
       0.035868116 0.021100558 -0.004736868 -0.021367097
0001c0 35 bd b9 bc 9d cc 35 bc 71 16 11 3c 86 70 11 3d
       -0.022673229 -0.011096147 0.008855448 0.0355077
0001d0 e1 2a d3 bc 86 15 0a 3c eb 96 ff bc a8 5c 39 3d
       -0.025777282 0.008427983 -0.031199893 0.04525438
0001e0 8e e4 c5 3c 24 e2 aa 3c cb 5d a6 bc 27 10 f5 3c
       0.024156835 0.020859785 -0.020308396 0.029914929
0001f0 1d a5 d1 3c 5d 09 f2 bb 1a 6e 59 3c 96 ea 80 3c
       0.025591427 -0.00738637 0.013270879 0.01573686
000200 65 94 c8 3c 54 ba 7c bc ba 93 b3 3b dd ec 88 bc
       0.024484823 -0.015425283 0.005480257 -0.016714508
000210 fe 44 9c 3c 98 ca 6c bc 22 a8 04 3d 72 ff 67 3c
       0.019075867 -0.014452599 0.032386906 0.014160024
000220 d3 f6 46 bc ef 19 28 3d cf 8f 80 3c 45 e6 fa bc
       -0.012143808 0.041040357 0.015693573 -0.03062738
000230 83 e2 c9 bc 7b 4f b7 3c c0 e3 d5 bc c4 c9 5e bc
       -0.024644142 0.022376766 -0.026109576 -0.013597909
000240 13 5f b5 bb 3d 78 d2 bc df 6b 71 3c 3f 64 29 3b
       -0.0055350154 -0.0256921 0.014735191 0.0025847105
000250 8f 90 ad 3c cc 24 d5 3c 92 84 2b 3d 76 2b cf 3c
       0.021187095 0.026018523 0.041874476 0.025289278
000260 55 04 d6 3c ef d4 2b bd cf ae b8 bc 28 58 b6 bc
       0.026125113 -0.041951116 -0.022544293 -0.022258833
000270 b7 18 e2 39 33 a5 32 bd ee 6f d3 bc 0f 0b 73 3c
       0.00043124493 -0.043614578 -0.025810208 0.01483418
000280 64 9c a1 bc d4 3c a5 ba 5d d0 81 3c 0d 87 4a 3c
       -0.019727893 -0.0012606629 0.015846426 0.0123613
000290 02 31 0b bb 81 6c 45 3c 72 8e 05 3c 4c e3 c1 bc
       -0.0021238928 0.012049795 0.008151637 -0.023667954
0002a0 dd 49 c9 3c c9 ba 3b 3b 16 be 61 3b e1 41 02 3d
       0.024571354 0.0028645268 0.0034445575 0.03180111
0002b0 46 a7 15 3d d0 68 35 3c 53 69 77 3c aa 66 e0 3b
       0.036536478 0.0110723525 0.015100795 0.006848176
0002c0 cd 03 07 3d da cf 1f bd 7d 76 08 bd a8 f3 be bc
       0.03296261 -0.039016582 -0.033316124 -0.023309544
0002d0 cf 3e 8a 3c ba 9a 2b 3d e7 1e f6 bc 9b e2 45 bd
       0.016875653 0.041895606 -0.030044032 -0.04831181
0002e0 fe d3 20 3c e6 b5 2f bd 28 9d 1e bd 8e 53 f4 bc
       0.009816168 -0.04289808 -0.038724095 -0.029824998
0002f0 93 13 ed bc 63 72 23 3d a6 ff 16 bd b9 bb fe bc
       -0.028939998 0.03990401 -0.0368649 -0.031095373
000300 25 fb cc bb 76 13 e7 bc ef 37 ac 3b 2b 3e 3b bc
       -0.0062555247 -0.028207522 0.0052556912 -0.011428396
000310 ac 48 2a 3d 2c b3 05 3d 93 85 02 3c 64 79 e4 3a
       0.04157321 0.032641575 0.007966417 0.0017431197
000320 43 6f eb bc 66 a7 a6 bc c4 29 d8 bc 11 ba 67 bc
       -0.028739577 -0.020343494 -0.026387103 -0.014143483
000330 c5 42 b7 3c d2 95 f0 3b 0a 1e 3e 3c d6 a0 1d bd
       0.022370705 0.0073420787 0.011603842 -0.038483463
000340 a1 8e 30 bd 07 97 65 3c 79 1b f5 3b 0d 63 c6 3b
       -0.04310477 0.0140130585 0.0074800816 0.0060542882
000350 62 b7 cb 3c 38 0b 1e 3d 56 f4 89 3b 4d fe 1b bd
       0.024867717 0.038584918 0.0042100353 -0.038084317
000360 e9 8b 23 3d 86 b0 d1 bc 04 e5 91 3c bc 6e 11 bd
       0.03992835 -0.025596868 0.017809398 -0.035505995
000370 fb 73 c8 3c 3f e2 71 3b de db 06 bb 23 4e d6 3c
       0.024469366 0.0036908535 -0.0020577828 0.026160305
000380 06 16 f6 3c b2 8b bf 3c 2f 46 17 3d fe b3 d8 3b
       0.030039798 0.023382042 0.036932167 0.0066132536
000390 1f 99 83 bc 56 e9 eb ba f5 15 bf bb b6 86 50 bb
       -0.016064225 -0.0017998617 -0.005831475 -0.0031818575
0003a0 4c 3b e5 3b 59 72 9e bc b2 04 0a 3d e7 f7 3e 3c
       0.006995594 -0.019341635 0.033695884 0.011655784
0003b0 ac 87 2e bc 25 8b ee 3c 88 e7 12 bc 84 24 9f 3c
       -0.010652464 0.029119084 -0.008966334 0.019426592
0003c0 3d e9 61 3c 34 ab 0f 3c c9 f0 55 bb 5b 04 07 bd
       0.0137885185 0.008768845 -0.003264474 -0.032963138
0003d0 71 9d 94 bc f1 c1 9c bc 30 ad cb bc 23 45 d7 bc
       -0.01814148 -0.019135447 -0.024862856 -0.026278084
0003e0 61 14 bb 3c fa 5c 25 bd 7a 45 03 bd ae c8 0d bd
       0.022836866 -0.040371872 -0.03204868 -0.03461521
0003f0 3b 93 f2 bc 00 a2 f6 bc b3 ea 20 ba 8d 98 7a bb
       -0.02961122 -0.030106544 -0.00061384885 -0.00382379

generator.conv2.bn.weight f4 [64]
000000 18 6f 82 3f 00 ea 7a 3f 99 b9 7b 3f 2b 71 81 3f
       1.0190153 0.98013306 0.98330075 1.0112661
000010 2a 0a 80 3f c1 e6 80 3f bf 6d 7d 3f ac 51 81 3f
       1.0003102 1.007042 0.98995584 1.0103049
000020 e2 b1 7c 3f f8 c4 7f 3f 5e ad 7c 3f 17 ca 7d 3f
       0.9870893 0.99909925 0.9870204 0.9913649
000030 03 cb 78 3f 65 f5 81 3f 88 a0 7d 3f 25 01 7d 3f
       0.9718477 1.0153013 0.99073076 0.9882987
000040 d4 d4 7d 3f 15 86 7b 3f 03 5a 7b 3f 58 b8 79 3f
       0.99152875 0.9825147 0.9818422 0.9754691
000050 31 87 84 3f 4f fe 79 3f 93 09 7f 3f 35 bc 7b 3f
       1.0353757 0.9765367 0.99623984 0.98334056
000060 7c ae 7d 3f f6 d1 7a 3f 1c 1f 81 3f b2 8c 80 3f
       0.9909437 0.97976625 1.0087619 1.0042937
000070 b2 2d 82 3f 2e dc 7e 3f 87 d3 7f 3f 38 50 80 3f
       1.0170195 0.9955472 0.9993214 1.0024481
000080 f1 f5 80 3f f2 9c 81 3f 23 0c 7f 3f 40 95 7a 3f
       1.0075055 1.0126021 0.99627894 0.9788399
000090 3f 8e 79 3f dc 57 85 3f 56 ac 82 3f 95 6a 7a 3f
       0.97482675 1.0417438 1.0208843 0.9781888
0000a0 8a ce 7f 3f 18 44 7d 3f 27 1d 80 3f 25 6e 84 3f
       0.9992453 0.9893203 1.0008897 1.0346113
0000b0 f9 9f 7c 3f c7 ed 80 3f 4f e1 80 3f 29 2f 7c 3f
       0.986816 1.0072564 1.0068759 0.9850946
0000c0 4b 0b 83 3f a3 b6 83 3f 31 3a 7f 3f 9f 44 83 3f
       1.0237821 1.0290111 0.9969817 1.0255316
0000d0 71 6f 82 3f 21 55 7e 3f 85 c6 7e 3f 73 1b 82 3f
       1.0190259 0.99348646 0.99521667 1.0164627
0000e0 18 8a 83 3f 34 8a 82 3f 69 21 7e 3f 2e 7b 7d 3f
       1.0276518 1.0198426 0.9926973 0.9901608
0000f0 7d 70 82 3f 09 0b 7a 3f 49 19 7c 3f 7d b1 7e 3f
       1.0190579 0.9767309 0.9847608 0.99489576

generator.conv2.bn.bias f4 [64]
000000 a6 8e 41 bc 82 df 75 bc 27 98 00 bd b2 22 08 3b
       -0.011813795 -0.015006902 -0.031395104 0.0020772633
000010 d8 07 ca 3c f3 80 a9 bc 71 a0 e6 bc 7a 3a 37 bc
       0.024661943 -0.02069137 -0.028152676 -0.0111833755
000020 4b 38 92 bc a9 63 0a bd 94 02 bd bc 04 bb 08 bc
       -0.017849108 -0.03378645 -0.023072518 -0.008345369
000030 b9 7e 8c bc 10 7c b1 3b df 8e d1 bc 3a cb f7 bc
       -0.01715027 0.0054164007 -0.025580822 -0.030248273
000040 01 71 df 3b 03 c9 d5 bb fc 3a 68 bc 52 e6 b0 bc
       0.006818891 -0.0065242066 -0.014174219 -0.0215942
000050 b2 fe 2e bc 96 12 e6 bc 17 7f 32 3c ec 61 d4 bc
       -0.010680841 -0.028085034 0.010894558 -0.025925599
000060 da ec c4 bc 8a e3 e0 bb d8 6b d6 bb a4 41 62 bc
       -0.02403872 -0.0068630623 -0.0065436177 -0.013809595
000070 6e 55 cc bb 59 f2 75 3c ac 39 cf bb 72 4c b4 bb
       -0.00623577 0.015011393 -0.0063240137 -0.005502277
000080 5f 33 d6 bc 0d a2 a5 bc e5 a2 9a bc e6 6b da bb
       -0.026147543 -0.020218873 -0.018876502 -0.0066656945
000090 60 f6 f2 bc 6b bc 55 3b f3 ca f8 bc 6e a3 80 bc
       -0.029658496 0.0032613527 -0.030370211 -0.01570293
0000a0 d2 52 7a bc fb fb 07 bd d0 c4 0f bc 3b 42 40 bc
       -0.015278535 -0.03319929 -0.008774951 -0.011734541
0000b0 89 27 c3 bc 09 92 cf bc b6 26 0b 3c b4 13 d6 bc
       -0.023822563 -0.02533819 0.008493116 -0.026132442
0000c0 58 e4 95 bc 96 74 ab bc b7 19 4b 3c 9e 61 9f bb
       -0.01829736 -0.020929616 0.012396268 -0.004863932
0000d0 a7 bc 1c bc 32 fd 13 bd 3f cd fa bc 04 82 31 bb
       -0.009566463 -0.036130138 -0.030615447 -0.0027085552
0000e0 2d 7f 70 bc c2 a9 39 bc b1 73 bd bb 5b 4e 53 bc
       -0.014678759 -0.011331977 -0.0057816138 -0.012897099
0000f0 86 75 0f bc c5 1f 0f bc bb 66 d8 bc 4b 5c e7 bc
       -0.008756047 -0.008735602 -0.026416173 -0.02824225

generator.conv2.bn.running_mean f4 [64]
000000 af d0 15 bf 02 4e 29 3f 85 f3 cd be 9e c7 cf bf
       -0.5852155 0.66134655 -0.40224853 -1.6232793
000010 53 de 2c bf ab 7f 2f bf fa fd 6d 3b 41 dd 3f bf
       -0.6752674 -0.6855418 0.0036314712 -0.7494698
000020 d9 f8 c9 be 77 09 bc 3f 21 9b b6 3f ea 97 05 bf
       -0.39447668 1.4690388 1.4266092 -0.5218493
000030 b7 49 92 bf 60 d8 ff be bc e4 2b bf 58 97 3a bf
       -1.1428746 -0.4996977 -0.67145896 -0.7288718
000040 4e 44 36 3d 1a de cb be 29 14 c8 be db f3 6a 3e
       0.044498734 -0.39817888 -0.3907788 0.22944586
000050 56 8c ac be 7a fd a7 3f 9b b3 9f bd 05 4d d5 be
       -0.33700818 1.312423 -0.07797929 -0.41660324
000060 84 d1 7e be 39 8a 93 be ff 6a 5d bf 5b 2d 7a bf
       -0.24884611 -0.28816393 -0.8649139 -0.97725457
000070 4f 83 99 3d 3e db fb bd 50 39 8c 3e f3 28 94 3d
       0.07495748 -0.122976765 0.27387476 0.07234373
000080 3d 3c 15 3e 74 4f 79 bf 33 b3 99 3e 97 e7 8b bf
       0.1457376 -0.9738686 0.3001953 -1.0930051
000090 4d 05 1e be db a9 e4 bf f6 ae 81 3e 19 65 9d be
       -0.1543171 -1.7864336 0.25328797 -0.30741194
0000a0 0c 74 bb be ef f1 d7 be 1b 48 2b bf 55 40 f0 be
       -0.36611974 -0.42176768 -0.669069 -0.4692408
0000b0 b7 7f 01 bf 8d df 83 bd dc 12 fb be a5 a5 43 bd
       -0.505855 -0.06439123 -0.49037826 -0.047765393
0000c0 59 eb 3c 3d 38 e0 23 bf 64 eb ba be 02 0b 57 bf
       0.046122883 -0.64014006 -0.36507714 -0.8400117
0000d0 e3 7e d8 bf 70 0f 9e bd c5 f8 de be 2c fd 6a bf
       -1.6913723 -0.07717788 -0.4354917 -0.9179256
0000e0 64 38 b7 bf 44 49 c2 bf 7c 29 5b 3f 52 68 55 bf
       -1.4314084 -1.5178609 0.85610175 -0.83362305
0000f0 95 73 be be c8 6e cc 3f f1 f6 f4 3f 87 26 15 bf
       -0.37197557 1.5971308 1.913786 -0.58261913

generator.conv2.bn.running_var f4 [64]
000000 1a 0f 17 3f cb a1 27 3f 1a a0 17 3f b7 2e 47 3f
       0.5900742 0.6548125 0.5922867 0.77805656
000010 ff 43 ac 3e b2 bf bd 3e ad 86 46 3f 32 3e 19 3f
       0.33645627 0.37060314 0.7754925 0.5986053
000020 58 a2 d6 3e e1 d1 51 3f 03 cf 4c 3f 3d 27 b0 3e
       0.41920733 0.81960875 0.80003375 0.34404936
000030 07 0a 86 3f c5 a7 b4 3e 99 a8 aa 3e 29 dd 57 3f
       1.047181 0.35284248 0.33331755 0.8432184
000040 9d a4 d7 3e b8 f7 26 3f 30 59 a8 3e 82 52 65 3f
       0.42117777 0.6522174 0.32880545 0.8957902
000050 23 a3 84 3e 50 3d 67 3f 7d 3e 7a 3e b6 de bd 3e
       0.25905713 0.9032793 0.244379 0.37083977
000060 7d 43 30 3f 60 e5 8a 3e a4 5a 17 3f 39 45 23 3f
       0.6885298 0.27128124 0.5912268 0.637775
000070 c1 c3 c8 3e 0f d3 c2 3e 84 7d 16 3f 0b 46 32 3f
       0.39211848 0.3805165 0.5878527 0.6963813
000080 a3 f5 2b 3f c3 5c 40 3f 9b 85 48 3f ff 0c 2c 3f
       0.67171687 0.75141543 0.78328866 0.6720733
000090 a6 5d a9 3f 71 7a 5b 3f 2d 6d c1 3e 6c e2 32 3f
       1.3231704 0.85733706 0.37778607 0.6987674
0000a0 29 d5 49 3f 7e bf 53 3f b4 c3 15 3f a4 51 8c 3e
       0.7884088 0.8271407 0.58501744 0.27406037
0000b0 57 66 ac 3e 35 51 d9 3e fa 3f a0 3e 2f b4 fa 3e
       0.3367183 0.4244477 0.3129881 0.48965594
0000c0 bd 16 92 3e c2 4a 27 3f c9 f1 e3 3e cc 60 f8 3e
       0.28532973 0.65348446 0.44520405 0.4851135
0000d0 65 c3 6d 3f 5e 18 0c 3f 6c 51 00 3f 07 34 0f 3f
       0.92876273 0.5472468 0.5012424 0.5593876
0000e0 86 96 3e 3f f3 29 5f 3f eb 1e 44 3f 17 92 1f 3f
       0.7444843 0.87173384 0.7660968 0.6233229
0000f0 a3 26 b5 3e b2 10 17 3f b8 f3 7b 3f ea 4d 18 3f
       0.3538104 0.5900985 0.9841876 0.5949389

generator.conv3.conv.weight f4 [64, 64, 3, 3]
000000 e8 d2 1f bd 7c 6b b4 bc 33 db 64 bc 70 0d e8 3c
       -0.039019495 -0.022023909 -0.013968277 0.02832672
000010 d9 75 82 3c 86 14 f2 bc b8 0b 08 3c 4d fe e5 3c
       0.015925335 -0.029550802 0.008303575 0.028075362
000020 cf 82 b3 bc 36 0c b4 bc f8 cd c9 bb 4d 95 a1 3c
       -0.02191296 -0.021978479 -0.0061585866 0.019724512
000030 35 b9 3e 3c 49 37 27 3d b3 48 23 bc 3f 41 f6 3c
       0.0116408365 0.04082421 -0.009966063 0.030060409
000040 49 f5 fa bc 50 07 24 bd 7a d1 06 bc e4 02 12 bd
       -0.03063454 -0.040046036 -0.008228654 -0.035647288
000050 4e 2b 81 bb 8b e7 de b8 d9 8e 9d 3c 77 85 58 b9
       -0.00394193 -0.00010628913 0.019233154 -0.00020649085
000060 d8 19 43 bc 9d d9 02 bb 4d ff fb bc c1 d0 b6 3c
       -0.011908017 -0.0019966133 -0.030761385 0.022316338
000070 7e 77 db b9 69 fb eb bc c0 9c 48 bc 2c ae 55 bc
       -0.00041859964 -0.028806405 -0.012244403 -0.013042014
000080 68 6e a2 3c fd 54 2a bd 4f e1 a3 3c f2 7a a1 3c
       0.019828036 -0.041584957 0.020004896 0.019711945
000090 de ad 32 3d 29 e3 5a 3d 36 47 63 3c af f0 6c bd
       0.043622844 0.053439293 0.0138719585 -0.05784672
0000a0 a0 35 5f bc 56 01 b4 3c 39 ce 35 3c 9a 8d eb 3c
       -0.013623625 0.021973293 0.011096531 0.028754044
0000b0 ca 40 12 3d f6 35 f1 3c 4e 28 a0 b9 95 b9 d1 3c
       0.03570632 0.029444676 -0.00030547607 0.025601188
0000c0 e8 7b 18 bc 2a 99 52 3d fe 5a 2e bd ce 06 1a bb
       -0.009306885 0.0514156 -0.042567246 -0.002350259
0000d0 fe f3 13 bd 40 8a 6a bc fa 70 f1 3c c6 12 27 3d
       -0.03612136 -0.014315188 0.029472817 0.040789388
0000e0 ea a0 0c 3d 23 b9 57 bc 4c 0d 23 bd cc 1a f1 bb
       0.034333147 -0.013166699 -0.039807603 -0.0073579308
0000f0 ee a7 c2 3b 16 91 1c 3b 9a 9e 29 bc 3e 79 48 3d
       0.005940429 0.002389019 -0.010352755 0.04894375
000100 28 21 d3 bc 8c 22 93 bc 0b 74 04 3d 4c 0f eb 3b
       -0.025772646 -0.01796081 0.03233723 0.0071734544
000110 c7 97 47 3c 41 ac 06 bc 47 64 f4 3b d0 7c 60 3d
       0.012182183 -0.0082197795 0.007458243 0.05480653
000120 bf 86 ca 3c 36 2f a3 bb 50 a8 25 3d 69 72 90 bc
       0.024722455 -0.004979993 0.04044372 -0.01763268
000130 58 e0 fa 3b f0 79 6f bc 57 a5 cf 3c dc 45 27 3b
       0.0076561384 -0.0146164745 0.025347395 0.0025523817
000140 f4 ea 45 3d a3 88 32 bc 42 d5 08 bd 89 70 a7 3c
       0.048319772 -0.010896835 -0.033406503 0.020439403
000150 a6 1e ef bc 37 9d 2b 3d c2 50 1a 3b a8 a6 25 bc
       -0.029189419 0.04189798 0.002354667 -0.010110535
000160 de 26 6a 3b c3 26 18 bc 1d df 86 bc e5 91 7f 3c
       0.0035728733 -0.009286585 -0.01646381 0.015598749
000170 11 7f 12 3d ab ba 24 3c 29 cc ba bc f3 a1 97 3c
       0.03576571 0.010054271 -0.02280243 0.01850984
000180 e2 04 39 bd 29 bb 0c bd 6e 70 97 bc 20 5f 91 3c
       -0.045170672 -0.034358177 -0.018486228 0.017745554
000190 57 09 15 bd c4 61 4b bd 97 82 cd bc 60 16 a2 3c
       -0.03638586 -0.049653783 -0.025086684 0.01978606
0001a0 c6 c1 35 bc 3e db 01 3d cd f5 a0 3c 7d 69 8e bc
       -0.0110935625 0.031703226 0.019648457 -0.017384285
0001b0 0a ee 84 bc af a2 cf bc 01 d4 29 3c 76 1e 5c bb
       -0.016226787 -0.025346128 0.010365487 -0.0033587492
0001c0 57 76 cf bc d1 8c b5 3c a1 7c bf 3c 48 fd ee 3c
       -0.025324984 0.022161873 0.023374857 0.029173508
0001d0 96 ce 10 bd 8d fa 7f bc ca 9b 0f 3b 78 11 93 bc
       -0.035353266 -0.015623701 0.0021912926 -0.017952666
0001e0 0c f8 17 3d d1 18 c5 bc a1 78 ab bc aa 42 49 3c
       0.03710179 -0.024059685 -0.020931544 0.01228396
0001f0 60 45 a4 3b 65 87 ac bc 1f 57 1c 3d 3f f4 eb 3c
       0.005013153 -0.021060655 0.038169023 0.028802989
000200 77 83 01 bd 7b 9e 5e bd fc c4 18 bd 75 c3 fb bb
       -0.031619515 -0.054350358 -0.037297234 -0.0076832124
000210 67 b0 1c bb 04 df d7 bc 72 7b 6d 3b 3e b6 93 bc
       -0.0023908855 -0.02635146 0.003623691 -0.018031236
000220 e8 89 eb bc a8 f0 1e 3d 4a 0b 5b 3c 2f 58 cd 3b
       -0.028752282 0.038803726 0.013369391 0.006266616
000230 b0 d4 12 3c 20 65 b0 3b 7b 8c a9 3c de 11 0b 3c
       0.008961841 0.005383149 0.02069687 0.008488147
000240 39 5a 0d bc 10 43 b8 3c 52 39 df bc d6 22 dd bc
       -0.008627468 0.022492915 -0.027249012 -0.02699415
000250 ae 72 fe 3c b2 a4 46 bc 8a e8 58 3c e6 b5 15 bc
       0.031060543 -0.012124227 0.013239035 -0.009137606
000260 59 df 13 bd 83 18 a3 3c d7 28 75 bc 91 a1 ed bc
       -0.036101673 0.019909149 -0.01496335 -0.029007705
000270 f5 09 d4 bc 68 92 74 bc b5 c3 30 bc 79 cf ff 3c
       -0.025883654 -0.014927484 -0.010788848 0.03122686
000280 6f 87 ad bc 5e 61 29 3c 2a 3b 21 bd 3d 47 eb bc
       -0.021182744 0.010338156 -0.039363064 -0.028720492
000290 ed bd 4c bc a4 85 fa bc f1 7d 9a 3c f5 d2 19 3d
       -0.012496454 -0.030581303 0.018858882 0.0375547
0002a0 7f 1d 81 3c d3 8e fa bc b5 33 c1 ba 93 96 87 bb
       0.015761135 -0.030585682 -0.0014740141 -0.004137823
0002b0 56 dd c6 3a e9 8f 1c bd 6a fb 28 3d fb b9 20 bd
       0.0015172164 -0.03822318 0.041255392 -0.039239865
0002c0 1f e2 13 bd 18 4c 1c bc 5b f0 dd 3c 51 71 41 bd
       -0.036104318 -0.009539627 0.02709215 -0.047227208
0002d0 cf b1 c9 bc 06 e8 04 bd ab 55 80 3c 9b 5c 2e bd
       -0.024620919 -0.032447837 0.01566585 -0.042568784
0002e0 aa 32 9b bc 1c 70 bc bc f7 5b 21 bd e5 18 ea 3c
       -0.018945057 -0.023002677 -0.039394345 0.028576324
0002f0 8c 12 90 3c 67 e1 99 bc 5a c5 df 3c f5 1e 2e 3d
       0.017586969 -0.018784238 0.027315784 0.04250999
000300 29 ec 45 3b 55 df a5 3c fc c8 06 bd 9a 70 e7 bb
       0.0030200577 0.020248095 -0.032906517 -0.0070629837
000310 23 f5 fb bc d4 dd e2 3c a6 9f 9b 3b 07 c2 da 3c
       -0.030756539 0.027693667 0.004749256 0.026703848
000320 45 fd dc 3c 6b 1a 8b bc 85 e8 9e ba 18 aa 83 bb
       0.026976237 -0.01698037 -0.001212374 -0.0040180795
000330 88 73 77 3c 53 fc c2 bc d9 98 12 bd 00 88 cf 3b
       0.015103228 -0.023801958 -0.035790298 0.006333351
000340 54 4d 48 3c 3a 47 01 3d d0 b3 53 3c f8 04 47 bc
       0.012225468 0.031562068 0.012921289 -0.012147181
000350 71 a5 53 3c c5 b7 d5 3c a7 0c 82 3c 6c 28 96 3c
       0.012917862 0.026088605 0.015875174 0.018329822
000360 00 49 38 bc 7d b1 fa 3b a5 99 42 3b a7 87 17 bc
       -0.011247873 0.007650553 0.002969363 -0.009248651
000370 e7 3c a4 3b 24 71 20 bd 1a 16 51 3d 59 14 f0 bc
       0.005012143 -0.0391704 0.05104647 -0.029306578
000380 a4 1f d4 3c 6c 09 29 bc 71 3b 93 3c 32 22 96 bc
       0.025893994 -0.010317188 0.01797268 -0.018326852
000390 53 77 25 bd 38 92 d1 3c 51 ee 41 bd ec f5 0a 3c
       -0.040397 0.025582418 -0.047346417 0.008481484
0003a0 56 85 fd 3b a1 18 3c 3d 38 3b 7e 3c f4 75 19 3d
       0.007736842 0.045921925 0.015517049 0.037466004
0003b0 21 38 01 bd d4 41 ad bc 63 ef 12 bc 3a de ed 3c
       -0.03154767 -0.021149553 -0.008968207 0.02903663
0003c0 1a 04 eb bc 56 41 04 3d 75 03 28 3c ae ac 90 bc
       -0.02868848 0.03228887 0.0102547305 -0.017660465
0003d0 9b fe 06 3d d6 0b 94 3c a2 c4 95 3a ca 0f 13 bd
       0.032957654 0.01807205 0.0011426399 -0.03590373
0003e0 5c b6 a3 3c 3c 44 35 3c 86 2d b4 3c da 48 ee 3b
       0.019984417 0.011063632 0.021994364 0.007271868
0003f0 7c b8 09 bd 41 2b b4 bc 87 75 ce 3b ea 1c 1e bc
       -0.033623204 -0.021993281 0.0063006314 -0.009650448

generator.conv3.bn.weight f4 [64]
000000 ca 89 80 3f a7 5a 7b 3f e6 f4 7a 3f 81 ad 80 3f
       1.004205 0.981852 0.98029935 1.0052949
000010 c4 04 81 3f af 32 7c 3f 7f 40 80 3f 02 5b 79 3f
       1.0079579 0.9851484 1.0019683 0.9740449
000020 36 e3 80 3f 27 0a 7f 3f 52 1d 7e 3f 5a cb 80 3f
       1.0069339 0.99624866 0.9926349 1.0062058
000030 f1 01 7f 3f 7d 8f 80 3f b6 64 85 3f 61 1f 83 3f
       0.9961234 1.0043789 1.042136 1.0243951
000040 de 69 7c 3f 39 70 7e 3f 22 f4 7d 3f f6 a3 7f 3f
       0.9859904 0.9938999 0.9920064 0.9985956
000050 27 cb 80 3f cb d6 82 3f 9b a6 82 3f e7 54 7f 3f
       1.0061997 1.02218 1.0207094 0.99738926
000060 b1 6b 80 3f 76 f3 81 3f f4 44 81 3f 93 16 7d 3f
       1.0032865 1.0152423 1.0099168 0.9886257
000070 5c ed 7f 3f 41 3d 7c 3f 4e d8 82 3f 28 2f 81 3f
       0.99971557 0.98530966 1.0222261 1.0092516
000080 d2 4f 7e 3f d4 5e 7f 3f a2 5a 84 3f 3a bd 7f 3f
       0.99340546 0.9975407 1.0340159 0.9989811
000090 9f 83 78 3f 6b 81 7a 3f b8 a8 7e 3f e4 6a 79 3f
       0.9707584 0.97853726 0.99476194 0.9742873
0000a0 4e d4 7b 3f 81 53 7e 3f 6a dc 80 3f 0d 01 7d 3f
       0.98370826 0.99346167 1.0067265 0.9882973
0000b0 8a 60 7b 3f b7 15 80 3f be 06 80 3f 64 d5 7b 3f
       0.9819418 1.0006627 1.0002058 0.98372483
0000c0 93 5b 80 3f 07 1c 80 3f 77 d8 82 3f a3 b6 7f 3f
       1.0027946 1.0008553 1.022231 0.99888057
0000d0 84 12 79 3f d5 55 7d 3f 32 15 77 3f 4c 83 7a 3f
       0.9729388 0.98959094 0.96516716 0.97856593
0000e0 54 22 7f 3f 0b e4 80 3f e2 ac 7f 3f 37 c3 83 3f
       0.99661756 1.0069593 0.99873173 1.029395
0000f0 e1 60 83 3f 41 71 81 3f af 81 7e 3f ae 13 81 3f
       1.026394 1.0112687 0.9941663 1.0084131

generator.conv3.bn.bias f4 [64]
000000 fd a6 ca bc 13 a1 c0 bc 43 a6 bf bc 74 4d c4 bc
       -0.02473783 -0.023514306 -0.02339471 -0.023962714
000010 2f 33 fb bb 6d c1 21 bd 9f 8b fd bc 1a 78 f9 bc
       -0.0076660137 -0.039491106 -0.030950366 -0.030452777
000020 9d a4 da bc 51 71 0a bd c4 37 f4 bc 56 7b 86 ba
       -0.026689822 -0.033799473 -0.029811747 -0.0010260146
000030 ce e4 ef bc a2 d4 fe bc 48 35 94 bc a9 eb 7d bd
       -0.029283907 -0.03110725 -0.018091813 -0.06199232
000040 6f 3b 04 bd 45 d6 94 bc d5 d6 b1 bc 8b 82 21 bd
       -0.032283243 -0.018168578 -0.021708885 -0.039431136
000050 d9 ae 19 bd aa e8 93 bc 57 cc 8e bc b7 76 fa bc
       -0.037520263 -0.018055279 -0.017431421 -0.030574186
000060 4e ff 17 bd f6 c7 e5 bc 76 e2 52 bc fc ef 00 bd
       -0.037108712 -0.02804945 -0.012871375 -0.031478867
000070 d8 6d dc bc a7 90 29 bc b2 76 b4 bc 23 cd 26 bd
       -0.026907846 -0.010349429 -0.022029255 -0.040722977
000080 5c bd 28 bd 49 75 1a bd b3 40 b0 bc a8 26 07 bd
       -0.041196212 -0.037709508 -0.021515226 -0.03299585
000090 bf be ef bc 03 dd 69 bc 77 29 36 bc b4 06 12 bd
       -0.02926576 -0.014273885 -0.011118284 -0.035650924
0000a0 73 b3 2f bd b6 4a 14 bd e4 1b 09 bd 7b 98 f8 bb
       -0.042895745 -0.036204062 -0.033473864 -0.0075865365
0000b0 c4 7d e1 bc 51 dd 6c bc 93 fc 5e 39 65 e9 45 bd
       -0.02752579 -0.014457063 0.00021265661 -0.048318285
0000c0 6b cc 8c bc 66 dc 02 bd 1c d3 21 bd 0e e0 bd bc
       -0.017187318 -0.03194847 -0.03950797 -0.023178127
0000d0 bc a4 b2 bc 32 c6 d8 bc 00 bd b9 bc 22 0a d2 bc
       -0.021807067 -0.026461694 -0.02267313 -0.025639597
0000e0 bb 6d 81 bb 0d b4 cd bc 7c d7 fc bc 6f 73 40 bd
       -0.0039498485 -0.025110269 -0.03086447 -0.046985086
0000f0 fa 3c 1f bd e7 7d 20 bd 4a 75 4a bc 45 19 6f bc
       -0.03887651 -0.03918257 -0.012357065 -0.014593427

generator.conv3.bn.running_mean f4 [64]
000000 03 55 f3 be 47 b9 7f bf ca 9a 84 bf cd f1 f5 bd
       -0.47525796 -0.99892086 -1.0359738 -0.120090105
000010 a2 b2 52 3e 16 a6 8b 3e e8 69 6c bf ec 0c 13 bd
       0.20575956 0.2727515 -0.923491 -0.035900995
000020 cc c3 11 bf bf 9d 72 bf 19 6e 3e bf df 6b 29 bf
       -0.5693939 -0.9477195 -0.74386746 -0.66180223
000030 67 5b 5c 3f d9 53 68 bd 3d 59 73 be 38 35 4f bf
       0.8607697 -0.05672059 -0.2376451 -0.8094058
000040 b8 01 d1 be 93 71 73 bf cf e3 13 3f 2f 9d aa be
       -0.40821624 -0.95095176 0.57769483 -0.33323047
000050 4a ed 5c 3e f0 73 97 be 82 24 08 bf 04 b8 e7 be
       0.21574894 -0.2958064 -0.53180707 -0.4525758
000060 b5 49 86 3e b1 54 9f be 64 fa 09 bf 2d d8 72 3e
       0.2622811 -0.31119302 -0.5389769 0.23715277
000070 3a d0 9f 3e ee ac fe 3e bd 29 24 3e 95 7a 14 bf
       0.31213552 0.4974131 0.16031547 -0.57999545
000080 4b 58 87 3d 9d 66 28 bf a2 b8 b7 be 2b 12 49 bf
       0.066086374 -0.65781575 -0.3588305 -0.7854335
000090 66 26 b7 3e 1a d6 1c bf 7a fb 21 3f 57 44 72 3f
       0.35771483 -0.61264193 0.6327435 0.9463553
0000a0 2e e8 43 3f be f8 bf be 10 b3 8c be 77 79 af be
       0.76526153 -0.37494463 -0.27480364 -0.34272358
0000b0 7e c2 08 be c6 a2 94 be 00 69 8a be 51 aa f5 3d
       -0.13355443 -0.29030436 -0.27033234 0.11995376
0000c0 2b 21 4a 3f df 60 0c bf 83 87 2c 3d 8a 6b 18 be
       0.7895686 -0.54835314 0.04212142 -0.14884773
0000d0 2d 1e ba be c4 f1 b7 be 03 8f 24 bf 35 ab 7d bf
       -0.36351147 -0.3592664 -0.6428072 -0.99089366
0000e0 fa 9c 05 bf 6f e9 e5 be 65 c2 60 bf af ec 7c bf
       -0.5219265 -0.44904658 -0.8779662 -0.9879865
0000f0 4c 04 3b bf 64 b0 0b bf fe 6a 5a bf 4a c0 b9 be
       -0.7305343 -0.54566026 -0.8531951 -0.36279517

generator.conv3.bn.running_var f4 [64]
000000 cd 86 d2 3e 15 93 ba 3e c9 9f 0f 3f ba e1 11 3f
       0.4111847 0.3644034 0.5610319 0.56985056
000010 34 a6 b9 3e 25 51 c6 3e 61 42 db 3e 7a 61 40 3f
       0.36259615 0.38733783 0.4282408 0.7514874
000020 b1 5e 01 3f 81 b4 13 3f a0 14 bc 3e 76 2f 9d 3e
       0.5053511 0.576973 0.36734486 0.30700272
000030 de 63 06 3f d1 23 f5 3e 73 83 06 3f 2c 0f d4 3e
       0.52496135 0.47878888 0.52544326 0.41417825
000040 3e 09 bd 3e a5 e2 b4 3e 49 ee e7 3e 1d 33 97 3e
       0.36921114 0.35329166 0.45298985 0.29531184
000050 5e 76 d7 3e bd 1c dd 3e 87 a3 20 3f 96 54 04 3f
       0.42082494 0.43185988 0.6274952 0.5169157
000060 9f e8 ec 3e 9d 79 e0 3e 3f f0 25 3f 84 13 e1 3e
       0.46271226 0.43842784 0.6481971 0.43960202
000070 20 ee 95 3e 78 87 f6 3e 5a 07 03 3f 33 35 ce 3e
       0.29283237 0.4815023 0.5118309 0.40274963
000080 77 97 db 3e f0 99 ef 3e ce 9a d4 3e 2a 05 2f 3f
       0.42888996 0.46797132 0.41524357 0.68367255
000090 96 fa cb 3e 49 61 c7 3e ad 3f dd 3e af 74 85 3e
       0.3983962 0.3894141 0.43212643 0.26065585
0000a0 cb 9e cb 3e 9c 4a e5 3e 70 0f f3 3e 74 4d d2 3e
       0.39769587 0.44783485 0.47472715 0.41074717
0000b0 87 10 cc 3e 42 90 0d 3f 74 23 9f 3e bf 8e f2 3e
       0.3985636 0.55298245 0.31081736 0.47374532
0000c0 5c de ad 3e b4 7d c7 3e 6f a0 cd 3e 17 f9 23 3f
       0.3395871 0.3896309 0.40161464 0.64051956
0000d0 32 4e e8 3e 61 5b 22 3f 69 dd 9b 3e 13 41 b1 3e
       0.45372158 0.63420683 0.3044236 0.3461996
0000e0 da 50 fb 3e 10 90 ae 3e d9 db da 3e 83 cd 0d 3f
       0.49085122 0.34094286 0.42745855 0.5539171
0000f0 45 39 0a 3f b7 5b b9 3e 67 e0 fa 3e 52 71 ea 3e
       0.53993636 0.36202785 0.4899933 0.45789582

generator.conv4.conv.weight f4 [64, 64, 3, 3]
000000 2b 45 94 3c b8 ab 26 bd b5 8a 8e 3c 04 cb 4c 3c
       0.018099388 -0.040691108 0.017400125 0.012499575
000010 f3 3f 21 bd 9b f5 0e bd eb 8d aa ba 91 2e 4d bd
       -0.039367627 -0.034902196 -0.0013012266 -0.050093237
000020 b5 cc 08 bd b1 ff e1 3c 0f 05 9f ba 5c 56 a5 3c
       -0.03339835 0.027587743 -0.0012132245 0.02018278
000030 6e 95 91 3c 1e 4b f7 bc 63 ae 9c 3c 6b a9 cf 3c
       0.017771449 -0.030187186 0.019126123 0.02534934
000040 bb ca e1 3c da 50 61 bc 24 b5 3c 3c c1 af 8a bc
       0.02756249 -0.013752187 0.011517797 -0.01692951
000050 de 4b 08 3d 1d 0b c9 bc 63 c2 31 3c 5f 6b ad 3b
       0.033275478 -0.024541432 0.010849568 0.0052923406
000060 02 de 7a 3d ff 82 85 bc 95 ff b6 3b 1a 09 b9 bc
       0.06124688 -0.016297815 0.005584667 -0.022587348
000070 7e 3e 23 3d 39 54 75 bd 59 5c 43 3d bb 92 72 3c
       0.03985452 -0.059894774 0.04769549 0.014805491
000080 d4 e3 fd 3c 17 66 20 3c 83 bc 25 bc af bd da 3c
       0.030992426 0.009789965 -0.0101157455 0.026701776
000090 24 49 a8 bb cd 54 5a bc 05 c9 a7 3c 50 ed 18 3c
       -0.005135672 -0.013325882 0.020481596 0.009333923
0000a0 5d e5 22 bc 70 5f 22 3d 0a fa 45 3d ba c7 39 3d
       -0.00994238 0.039641798 0.04833416 0.04535649
0000b0 93 0e 2d 3d b4 07 ed bc 72 f6 8a 3c 6b 1b 16 3d
       0.042250227 -0.028934337 0.016963217 0.03664724
0000c0 e2 00 b5 3c 81 a2 29 bd 76 60 11 3c 90 2d 38 3d
       0.022095148 -0.04141474 0.008873096 0.044965327
0000d0 d9 75 24 3d cd 2e 7b 3c 2d f4 aa bc 92 05 ac 3c
       0.04015145 0.015330982 -0.020868385 0.02099875
0000e0 c5 38 22 3c ec c3 ae 3c b1 37 9e bc 75 6b 73 bc
       0.00990123 0.021333657 -0.019313665 -0.014857163
0000f0 71 92 15 bc 3f 7f 53 bc f0 2e 8e bc c3 11 93 3c
       -0.009129153 -0.012908756 -0.017356366 0.017952805
000100 e3 21 83 3b 4e 9e 9a bc 89 64 35 3c 9c 1f 59 bc
       0.0040018423 -0.018874314 0.011071333 -0.013252165
000110 a8 fc f3 bc 42 a9 cc bc b9 da 71 bc 90 6b 00 3d
       -0.029783562 -0.024983052 -0.01476162 0.03135258
000120 9a a6 f6 bc b8 43 3c 3c ac fd f9 bc b8 7a 8f bc
       -0.030108739 0.011490755 -0.030516468 -0.017514572
000130 f6 33 7f 3c 73 70 8e 3c 8c 62 de 3c 30 bc d3 3c
       0.015576353 0.017387604 0.0271466 0.02584657
000140 3b 2c de 3c 99 26 b0 bc 30 d5 7a 3c c3 5b 0b bd
       0.0271207 -0.02150278 0.015309617 -0.034023058
000150 87 70 17 bd 02 ed d7 3c f1 65 61 bc 92 bb b4 3c
       -0.03697255 0.026358131 -0.013757215 0.022062097
000160 9e 56 b7 3c 0b 15 f1 3c 99 db 42 3b 0b d6 a8 bc
       0.02238017 0.02942898 0.0029732941 -0.020609876
000170 b5 a2 5a 3d 6a b4 07 3d 5c 88 ed 3c 46 e7 fd bc
       0.053377826 0.03313104 0.028995685 -0.030994069
000180 aa 4f 98 3c e0 2e c1 bc 40 91 0b 3c 95 31 2a 3b
       0.018592674 -0.023581922 0.008518517 0.0025969495
000190 1e b7 9f ba f9 93 16 bb 08 5d 9d bc 51 04 81 3c
       -0.001218531 -0.0022976382 -0.0192094 0.015749129
0001a0 7d 9a 4b bc 31 56 62 bc 9d 84 f3 bb 3a 5a eb 3b
       -0.01242697 -0.013814495 -0.00743158 0.0071823867
0001b0 f4 fa c6 bb 40 0c 8d bc 42 d8 08 3d 46 fd 8f 3c
       -0.0060723964 -0.017217755 0.033409365 0.017576825
0001c0 44 95 ad 3b be be 0a bc 14 78 82 bc b5 b1 b4 3a
       0.005297335 -0.008468328 -0.015926398 0.0013785871
0001d0 f0 2a f2 bb ff 17 fb bc 45 d2 a3 bc 55 a6 aa bc
       -0.0073903725 -0.03065109 -0.019997725 -0.020831266
0001e0 b5 ef b5 3c 08 05 3c bb e3 34 f8 3b 60 db 7c bb
       0.022209028 -0.0028689522 0.007574664 -0.0038582906
0001f0 b3 73 50 3c 63 86 0f bc fd 01 37 3d ca 54 88 3c
       0.012722897 -0.008760068 0.04467963 0.016641993
000200 e0 40 04 3d a0 ab ad bc f7 b0 72 3c 25 59 26 3d
       0.032288432 -0.021200001 0.0148126995 0.04061236
000210 f3 e5 61 bc 7b c3 40 bd 27 29 c0 3c 90 4d 35 bd
       -0.013787734 -0.047061425 0.023457123 -0.044263422
000220 9a d6 1d 3c d0 8a c2 3c 2e 48 89 3c 10 fd b1 bc
       0.0096336845 0.023747832 0.01675805 -0.021727115
000230 77 49 6b 3c c5 6d 62 bc ae 12 18 bd 26 39 31 bd
       0.014360777 -0.013820116 -0.03712719 -0.04326739
000240 65 1d 3f bd 90 ee c5 bc b9 9b 60 bc df a3 e7 3c
       -0.046658892 -0.024161607 -0.013709002 0.028276382
000250 01 2a bd 3c 3f 3e ba 3c 0e d4 18 3a b6 66 05 bd
       0.023091318 0.02273476 0.00058299385 -0.032568656
000260 ae b1 09 3c 27 66 e1 3c f7 0a 9b bc 33 91 22 3d
       0.008404179 0.02751453 -0.018926127 0.039689254
000270 b4 b1 a1 bc 24 ee 92 3b 9b bf ac bb d2 3f 11 3d
       -0.019738056 0.004483955 -0.0052718646 0.035461254
000280 8d c0 07 bc 0d f4 36 3d 87 7d 06 bd ca 4c 5c 3c
       -0.008285654 0.04466634 -0.032834556 0.013446042
000290 cd f6 42 bd 2b 73 a8 3b 15 55 98 3c dd 38 4a bd
       -0.04759865 0.005140682 0.018595258 -0.049370635
0002a0 70 39 85 bc ce bd 58 bc d0 86 03 3c 58 bc 06 3c
       -0.01626274 -0.013228847 0.008027747 0.008223616
0002b0 fa 5d c3 bc 75 86 03 3d 3c 5c 86 bb a9 f4 c9 bc
       -0.023848522 0.03211065 -0.0041003507 -0.024652796
0002c0 cf a5 40 bd 6a 4a cc bb 83 f7 18 bd bf d9 0d bd
       -0.047033127 -0.006234457 -0.03734542 -0.034631487
0002d0 1d 20 25 3c 27 0b 25 bb 57 f8 ba bc 23 04 4b 3c
       0.010078457 -0.002518365 -0.022823496 0.012391123
0002e0 f1 21 2d bd 25 f3 b3 bc 71 5d 2b bd d6 bf 1e 3c
       -0.042268697 -0.021966526 -0.04183716 0.009689292
0002f0 0f 7b dc bb 0a 4a f9 3c 5b b4 05 bd 85 fe 5d 3d
       -0.006728537 0.030430812 -0.032642704 0.054197807
000300 97 7b 1e bd 8c d0 04 3d 34 22 0a bc a9 62 ba 3c
       -0.038692083 0.03242545 -0.008431006 0.022752123
000310 13 56 2d bc ff 82 24 bd e4 a8 02 bd dc 5b bf 3c
       -0.010579604 -0.04016399 -0.031899348 0.023359232
000320 b0 16 e3 3c b0 00 aa bc b9 ab 02 bd 67 70 a7 bc
       0.02772078 -0.020752281 -0.03190205 -0.02043934
000330 f9 f3 91 3c 2c b8 16 bc 03 19 a8 3b b2 8e f4 3c
       0.01781653 -0.009199183 0.0051299348 0.029853199
000340 d1 df 47 bc 5d d7 df 3c da 4d cf 39 11 a8 13 3c
       -0.012199358 0.027324373 0.0003954012 0.009012238
000350 4b 59 17 bd e8 dc 9a 3c 65 c5 eb ba 3d 29 c6 bc
       -0.03695039 0.018904164 -0.0017987905 -0.024189586
000360 d0 6b 13 bc 79 0f 1c bd 0d 89 21 3d 56 c2 5d 3c
       -0.0089978725 -0.038100693 0.039437342 0.013535103
000370 21 7a c7 3c cc fc 06 bd b7 6d 29 3d 9a 77 63 bc
       0.024350228 -0.03295593 0.041364398 -0.013883496
000380 54 a4 96 bc 88 1a 02 3c 06 c7 55 3d 1f e0 8d bc
       -0.018388905 0.007940896 0.052191757 -0.017318783
000390 00 c0 b4 3c 03 5a 89 bb 7b 77 03 3d e4 ff a4 3c
       0.022064209 -0.0041916384 0.032096367 0.02014155
0003a0 20 62 61 3c ce 50 fc 3a 1b 39 b4 3b c5 8c 1c bc
       0.013756305 0.0019250156 0.0054999716 -0.009555046
0003b0 39 02 b7 3c 8c e3 24 bc e8 bd 5b 3b ff bd 77 ba
       0.022339927 -0.010064017 0.003352994 -0.0009450614
0003c0 7c 35 d7 bb 85 10 94 bb ec 2b 6f 3a 3a 13 30 bc
       -0.006567655 -0.004518571 0.00091236713 -0.0107467715
0003d0 7a a9 b3 3c c6 e4 85 bc e3 61 2f bd c8 63 11 3d
       0.021931399 -0.01634444 -0.04281796 0.03549555
0003e0 7f cd af 3c 09 96 40 3d 8b 05 21 3d af 78 fa 3c
       0.021460293 0.047018085 0.039311927 0.030575125
0003f0 07 91 83 bc 6f c0 13 3d 36 9b f0 bc 62 f1 29 3d
       -0.016060365 0.03607219 -0.029370885 0.041489966
