dl/models/conv2d_long/checkpoint.ckpt (torch, 628851 bytes, 32 tensors)

generator.conv1.conv.weight f4 [64, 1, 3, 3]
00000000: e527 3a3e 84ab bf3d a84e 65be 0ba1 fcbc
00000010: 46b6 38be 4fba 733e 86eb 92bc 4ba8 5bbe
00000020: 30ce e7bd 1f0a 1a3e 3e10 59be ed8d 9cbd
00000030: 7409 a6bb 1b7d 873d 359f a93d ed0c ffbd
00000040: 78ca a43e a4cf 47be 7a98 8ebe f39b 3d3e
00000050: 4e88 7b3d c641 873e 7353 343e 2f0d 5fbd
00000060: cb93 32be 511d 743d 12b8 81be d686 85bd
00000070: 2f8b 2d3d 397c 92be af72 45be d6b2 4e3e
00000080: b0de ad3e 7ffc 9abd 887c 8a3e 44e6 81be
00000090: 34ce 8bbd 18e4 993e 0552 e53c 527f a23d
000000a0: 4949 11be 8517 69be 25e0 cabd a607 62be
000000b0: 9d56 923e a4c0 32be c59a 6e3e 20a7 953e
000000c0: d39a 5bbe dd5c 1a3d 8710 80be 64e3 93be
000000d0: 6b7a 55bc 7d1a a0be 3f7d 633e dd9e 53be
000000e0: f97b 0e3d 0391 20be 6169 9e3e c593 4b3d
000000f0: b0a7 9abe 1192 59be be9f 9abd 53f5 14be
00000100: 8354 9cbe f94d 0c3e 18dd 103e b9e0 463e
00000110: fa36 81be 802b 71be a68a be3c b36b 8d3e
00000120: b25a 6cbe 30fa 1a3e e0f9 183e ee43 abbe
00000130: ad93 3e3e 3065 d5bd 63d3 85be 5608 8f3e
00000140: af9c 8e3e 0443 40be 0c6f 993e 4c13 5e3e
00000150: 0b13 d2bd 99f9 bcbd c2e8 843e 13a6 953d
00000160: a936 88be 6ff0 5f3d 3c79 413e 5c87 01bb
00000170: f03a 83be c9a6 5d3e 7b77 cbbd f8b3 483e
00000180: 8511 57be d1ed 6dbe 7d8d 2e3e b52f 933e
00000190: e919 45be 482b 91bc 8d8f 76be d8d7 433e
000001a0: 4a80 fe3d dd0f 82bd 18c6 133b 3f23 c13d
000001b0: 2bab 993d d657 95be cd7d 923e 7bb2 833e
000001c0: 8301 9b3d ffa3 193e 8bd8 7b3e 1285 82be
000001d0: 61cd f33d 1bdf c93c cf31 1ebe 47a1 113e
000001e0: a584 adbe 8160 d5bd d485 86bc 9728 933e
000001f0: 9d36 3e3e 4402 343d 77a4 993e 6cf6 9cbe
00000200: 6ff6 25be 0dc2 353e d700 333c ac67 bdbd
00000210: 0e12 003e 0477 a43d f16e d1bd 9709 10bd
00000220: f1c9 81be 65ef 8f3e 86fa 5c3e 157b 893e
00000230: e7f3 b0bd 4bf8 9a3e a35c 82bc e069 79be
00000240: da08 a1bd f2b0 21be de2b 393e 73d1 7bbd
00000250: 8a3b ae3d 3f67 86bc 1ddb 7abc 0654 0c3e
00000260: 2fc6 81bd 7bf2 7a3e 6670 963e 4fed 81be
00000270: 54f7 943d b90b d5bd 586d 583e fcfa 7bbd
00000280: 1430 43bc cbaf 543e 9073 7f3e 70d6 91be
00000290: 54d1 1c3d 9cf7 5e3e 63f7 8a3e 1848 8cbd
000002a0: e4a5 9bbe 39bf 2a3d b65f 35be a6fe 8abd
000002b0: 0000 763e 7fa9 a5bd f368 e4bd 0cb6 97be
000002c0: 9025 a23e a86f 643e dc4d 81be 60bd 263d
000002d0: e1dd 3abe 62d6 85be 7ce5 0b3e 692e 163d
000002e0: 4c4d a0be 16ea 5c3e a829 78be 77bb 053e
000002f0: efe5 f83d 305a 8b3e b5bc 5b3d 95e0 c23d
00000300: a4d6 10be bec7 93bd e2c3 2cbe ba6c 383e
00000310: 5739 183e 0217 7bbe bd6e 833e 4408 433e
00000320: 1fa6 8ebe ae0e 443e 510a a6be 4eb1 383e
00000330: c537 f6bd 5e00 2a3e a061 92be 0b65 b5bc
00000340: c76f 02be 3102 4cbd 6bb0 973e ff77 233e
00000350: 9b1f 7b3e 76af 9d3c a33d eabb 9a9d 87bc
00000360: 35b9 313d 13a1 98be 43a3 743e 609f 2a3e
00000370: 2abc 46be 40ef 5fba 358b 11be 3dd1 0c3e
00000380: affa 2e3d c9d0 963e 4a06 24bd df66 9e3e
00000390: 4747 6dbe 900d be3d 22ec 15be 2322 913e
000003a0: c9a2 9fbe 0b8b 4cbe 658d ddbb c2a6 72bc
000003b0: f00c ae3d f0ad 4ebe 70c5 9c3e b4b0 04be
000003c0: 50e0 873d e974 5d3e c32e 0bbe a370 c1bd
000003d0: 927b 09be a139 a23e f21b 49be b67b 92be
000003e0: 453f d03c 27c1 a73e c523 363e ee2f 35be
000003f0: 689b 92be 8e3c 1f3e fdb3 9cbe 2e8c 953d
0.18179281 0.09358886 -0.22393286 -0.03083851 -0.18038282 0.2380154 -0.017934572 -0.21450917
-0.11318624 0.15042923 -0.21197602 -0.07644258 -0.005067045 0.06615659 0.082823195 -0.12453637
0.3218572 -0.19512802 -0.27850705 0.18516521 0.061409287 0.2641737 0.17609958 -0.054455932
-0.17439191 0.05959827 -0.25335747 -0.065198585 0.042369064 -0.286104 -0.1928203 0.20185408
0.3395896 -0.07567691 0.27048135 -0.2537099 -0.068264395 0.30056834 0.027993212 0.07934441
-0.14188112 -0.22762878 -0.099060334 -0.2207323 0.28581706 -0.17456299 0.23301227 0.2922907
-0.2144578 0.037686218 -0.2501261 -0.28884423 -0.013029675 -0.3127021 0.22215746 -0.2066607
0.0347862 -0.15680318 0.30939773 0.04970147 -0.3020606 -0.21247126 -0.0755 -0.14546709
-0.30533227 0.13701619 0.1414684 0.19421662 -0.25237256 -0.2355175 0.023259472 0.2762123
-0.23081473 0.15134501 0.1493907 -0.33450264 0.18611021 -0.104196906 -0.26137838 0.27936047
0.27853915 -0.18775564 0.29967535 0.21687049 -0.102575384 -0.092272945 0.2595883 0.07307067
-0.26604202 0.054672655 0.18893903 -0.0019764518 -0.25630903 0.21645655 -0.099348985 0.19599903
-0.21002777 -0.23235251 0.17046161 0.28747335 -0.19248165 -0.017720833 -0.24078198 0.19125307
0.12426813 -0.06350682 0.0022548493 0.09430551 0.07503351 -0.29168576 0.28611603 0.25722107
0.07568648 0.15003966 0.24594323 -0.2549215 0.11904407 0.024642518 -0.15448688 0.14221679
-0.33890262 -0.10418797 -0.016421236 0.28741905 0.18575521 0.043947473 0.3000829 -0.30656755
-0.16207288 0.17749806 0.010925493 -0.092482895 0.12506887 0.08030513 -0.102262385 -0.035165396
-0.25349382 0.2811233 0.21579942 0.26851717 -0.08640271 0.30267558 -0.015913313 -0.24356794
-0.078630164 -0.15790156 0.1808314 -0.061479043 0.0850745 -0.016406653 -0.01531103 0.13703927
-0.06336629 0.24506561 0.29382628 -0.25376365 0.072737366 -0.104026265 0.21135461 -0.061518654
-0.011913318 0.20770185 0.24946427 -0.28483915 0.03828557 0.21774143 0.27141866 -0.06849688
-0.30400002 0.04168627 -0.17712292 -0.067868516 0.24023438 -0.080889694 -0.1115283 -0.29631078
0.31669283 0.22308218 -0.25254714 0.040707946 -0.18248703 -0.26140124 0.1366176 0.036665354
-0.31308973 0.21573672 -0.2423464 0.13059793 0.12153231 0.27217245 0.053646762 0.09515492
-0.14144379 -0.07215832 -0.16871598 0.18010226 0.14865623 -0.24520496 0.25670424 0.19046122
-0.27861115 0.19146225 -0.32429746 0.18036386 -0.12022356 0.16601703 -0.28590107 -0.022142908
-0.12737952 -0.049806777 0.29626784 0.15963744 0.24523775 0.019248705 -0.007148461 -0.016554642
0.043389518 -0.2981039 0.23890404 0.16662359 -0.19407716 -0.0008542426 -0.1421326 0.13751693
0.04271954 0.29456165 -0.04004506 0.3093786 -0.23171721 0.092799306 -0.14640859 0.28346357
-0.31178883 -0.19974916 -0.0067612403 -0.014810266 0.084985614 -0.2018354 0.30619383 -0.12958032
0.06634581 0.21626629 -0.13592057 -0.09445312 -0.13426045 0.31684592 -0.19639567 -0.2861001
0.025420794 0.3276455 0.17787082 -0.17694065 -0.2863419 0.15550444 -0.3060607 0.07302128

generator.conv1.bn.weight f4 [64]
00000000: be2b 7b3f a1ac 7f3f ed21 843f 4046 803f
00000010: 17cf 803f 4dab 7e3f c241 7c3f c190 7c3f
00000020: 4e73 813f 4d9a 7e3f c701 803f a977 7b3f
00000030: 2036 7b3f 9907 7f3f d7f8 833f d58b 7a3f
00000040: 5a79 803f 5abd 7a3f 4348 823f a890 823f
00000050: 3f6b 7e3f 8417 7c3f 9595 813f 5e1e 7e3f
00000060: 97a0 813f f234 823f d89d 7e3f 51bb 813f
00000070: d013 823f 3e4e 833f 0559 7c3f 2998 813f
00000080: f9b5 7b3f f2da 7a3f d1cc 7b3f a69b 7c3f
00000090: 7ffc 7f3f 6e57 7f3f 42ac 7b3f d3cb 7c3f
000000a0: 3a4f 7d3f eb3b 803f 6e28 823f 6369 7d3f
000000b0: 1ba6 7c3f 69f5 7e3f 228a 7f3f 0169 813f
000000c0: 485a 823f cf35 803f 2237 7b3f f90e 833f
000000d0: 7b8d 833f 0fe5 7b3f e841 783f ae21 7d3f
000000e0: 7468 7b3f 20cb 7a3f 88ef 7a3f edc8 7e3f
000000f0: 8a82 813f 7581 7f3f 17bd 7c3f 44c5 793f
0.9811362 0.99872786 1.0322853 1.0021439 1.0063199 0.99480134 0.9853784 0.98658377
1.0113313 0.99454194 1.0000542 0.9822946 0.98129463 0.9962097 1.0310315 0.97869617
1.0037034 0.9794518 1.0178303 1.0200396 0.99382395 0.9847338 1.0123774 0.99265087
1.0127133 1.0172408 0.994596 1.013529 1.0162296 1.0258253 0.98573333 1.012456
0.98324543 0.97990334 0.983594 0.98675 0.99994653 0.9974278 0.9830972 0.9874851
0.98949015 1.0018286 1.0168588 0.9898893 0.98690957 0.99593216 0.9982015 1.011017
1.0183802 1.0016421 0.98131 1.0238944 1.0277551 0.9839639 0.96975565 0.98879516
0.9820626 0.97966194 0.98021746 0.9952534 1.0117962 0.9980691 0.9872603 0.9756663

generator.conv1.bn.bias f4 [64]
00000000: 42a4 bfbb 2b9e 433c 16f3 893c bf46 cf3b
00000010: 93e7 5cbb bd18 46bc 5986 b1bc 172e 003c
00000020: 4223 48bb 064d 04bc b9fa 56bc d6e9 afbb
00000030: 4404 bbbc 04d6 31bb 7367 c73c 662e d7bb
00000040: e0d0 0f3b 0838 a7bc 8145 00bc 8aab 89bc
00000050: 9014 79bc cf2a df3a 07a2 193c 9d03 17bc
00000060: 5284 74ba 9f4a 9c3c d3ab 67bb 18a0 0d3c
00000070: f964 c33c 6820 f23b cbac 26bc 8d2b b93c
00000080: c78b 2cbc 8b58 d3bc 840f 893b 310d 3cbc
00000090: 3a89 943a 4760 233c 8d0c 58bc de65 12bc
000000a0: bfb5 d3bc 3343 91bc 39cc 493c bb4d 40bb
000000b0: 039f 80bc 6fe2 a3bc 1a08 0fbc 2714 ce3c
000000c0: 4c7f 3f3c 5c9d 3f39 38ee c6bc 84bd 083d
000000d0: 6302 903b 4dce 6abc df0c f7bc 959d 29bc
000000e0: 9e73 87bc fbc9 a7bc ee37 afbc 1be2 ed3a
000000f0: 12ad 843b 6440 a8bb 7b81 d6bc 0aa5 7cbc
-0.0058484385 0.011939566 0.016839545 0.0063255723 -0.0033707365 -0.012090859 -0.021670507 0.007823489
-0.0030538593 -0.008075004 -0.0131213 -0.0053684516 -0.022829182 -0.002713562 0.02434132 -0.0065668104
0.0021944568 -0.02041246 -0.007829071 -0.016805429 -0.015202656 0.0017026308 0.009377009 -0.00921717
-0.00093275786 0.01907855 -0.0035350218 0.008644126 0.023851858 0.007389117 -0.010173033 0.022603774
-0.010531372 -0.025799057 0.004182758 -0.011477754 0.0011332401 0.009971685 -0.013186586 -0.00893542
-0.0258435 -0.017732238 0.012316757 -0.0029343206 -0.015700823 -0.020005433 -0.008729959 0.025156094
0.011688065 0.000182738 -0.024283513 0.03338386 0.004394816 -0.0143314125 -0.030157505 -0.010352512
-0.016534623 -0.020482054 -0.021388974 0.001814905 0.004048952 -0.005134629 -0.026184788 -0.015420208

generator.conv1.bn.running_mean f4 [64]
00000000: ac7c 9dbc 7f38 e039 8d0b a0ba fda0 f5ba
00000010: 2582 96bb 5fae 4fbd 4315 c8bc a2f8 48bc
00000020: 04c5 fb3b 3e5f 9b3c 7bbd d6ba 341a 5f3c
00000030: 8d4c 493d 4db0 a13b 458a 1a3b 91ab 023d
00000040: 683d 253a c108 343d 4bd0 78ba 70a1 943a
00000050: 8b3d d5bc 8cc9 113c 24f3 d5ba 40ce 153d
00000060: 774f 1ab9 92d7 873b 8b8e 563c a469 3fbb
00000070: 9452 2fbb f0dd 5339 d5af 25bd e439 92ba
00000080: 2340 8c3d 573f 743d 76d0 4d3d 974c 373d
00000090: 0d05 d13a 8f69 b93b 2b0c 833c c739 283c
000000a0: 05ad 21bd 6b68 edbc 3b92 68ba 32cc 2cbd
000000b0: f390 d83c 7ad7 d43c 2ef5 8bbc cc2d 00bb
000000c0: aa47 363b 8c0a 89b9 7fa5 32bd b670 e6ba
000000d0: e3f6 163b e339 423d c9e1 7dbd 3134 0d3d
000000e0: 3248 323d 4e31 3cbd 5901 28bd f32c 8ebc
000000f0: 83c8 8b3b 960a 36bc 8ae8 6ebd 2228 d23c
-0.019224487 0.00042766702 -0.0012210474 -0.0018739995 -0.004593151 -0.050703403 -0.0244242 -0.01226631
0.007683398 0.018966313 -0.0016383374 0.013617087 0.04914527 0.004934347 0.002358095 0.0319019
0.0006303401 0.04395366 -0.0009491487 0.0011339616 -0.026030323 0.00889815 -0.0016323072 0.03657365
-0.00014716187 0.004145571 0.013095508 -0.0029207254 -0.0026752101 0.00020205206 -0.04045089 -0.0011156169
0.068481706 0.059630718 0.050247632 0.044750776 0.001594694 0.0056583355 0.015997013 0.010267681
-0.039471645 -0.028980454 -0.00088718877 -0.042186923 0.026436305 0.025981653 -0.017084684 -0.0019558547
0.0027813711 -0.00026138534 -0.04361486 -0.0017581198 0.002303534 0.047418486 -0.061982904 0.0344736
0.043525882 -0.045945458 -0.04101691 -0.017355418 0.004265846 -0.011110922 -0.058327235 0.025653902

generator.conv1.bn.running_var f4 [64]
00000000: 02ad b33c f42d 663b 89e1 e73b df08 fe3b
00000010: 2a66 d13b 4e71 f83d eff1 063d 9ebb 543c
00000020: bd03 0d3d 4248 fb3c 9067 e83b 8400 2d3c
00000030: 549c c53d b8c7 173c c3bd a63c 3308 593d
00000040: b65b 243b 0ccd a83d 3578 173c 4b7d ad3b
00000050: 867d 463d 0697 653c 97ae 5d3c eabb 7b3d
00000060: b386 7b3b 56c6 833c 90dc 533c 138c 263c
00000070: 5dd2 253c a6a9 263c f673 b33d 5ccd 833b
00000080: 76aa 4a3e 6400 1b3e 8f11 f23d 8f37 c03d
00000090: cd53 193b 8414 aa3c e901 833c 5a30 3b3c
000000a0: 8de8 8a3d 88ab 563d 2294 383c 5f98 a23d
000000b0: 5c66 2f3d 6243 f83c a06b de3c 76a5 2b3c
000000c0: 20b7 f93c 8bae e13b 0cb9 b23d 28e0 063d
000000d0: 21c2 533c 22b9 d33d 9a6f 213e da7d 833d
000000e0: 40e8 ae3d 826f ac3d f1a8 a03d d2d7 4f3d
000000f0: f43b d73c a824 473c 1332 153e ba3e 0c3d
0.021933082 0.0035122605 0.0070764464 0.0077525224 0.0063903527 0.12130986 0.03294557 0.012984185
0.034427393 0.030674104 0.0070924237 0.010559205 0.09648958 0.009263925 0.020354157 0.052986335
0.0025079078 0.082422346 0.009244968 0.005294477 0.048459552 0.014013058 0.013530395 0.061458506
0.0038379848 0.016085785 0.012931004 0.010165232 0.010120955 0.010172283 0.08762352 0.0040222835
0.19791588 0.15136868 0.11819755 0.09385597 0.0023395896 0.020761736 0.015992122 0.011425102
0.06782637 0.05240968 0.011265786 0.07939219 0.042822227 0.030305568 0.027150929 0.010476461
0.030482829 0.006887262 0.08726701 0.032928616 0.012924702 0.10338046 0.15765229 0.06420489
0.08540392 0.08419706 0.07844723 0.05074293 0.026273705 0.012154736 0.14569883 0.03423951

generator.conv2.conv.weight f4 [64, 64, 3, 3]
00000000: ea19 8cbc 7e59 9bbc a4e6 52bc 593c e0bc
00000010: 1ee3 983c 5bab 82bc e8ce 703c 091c 003c
00000020: b0a2 c2bc 23cb 9cbc d32b a6bc b518 d5bc
00000030: ea84 10bd aeb1 f7bc 1252 683c 548c 063d
00000040: 1574 21bd 1723 c63c 00a8 16bd 1241 273d
00000050: 4e60 f5bc 82be 6cbc ef27 e1bc c18f f03c
00000060: c27a 6fbd 366a 55bd 6aa7 47bd f0c2 d43c
00000070: a3e7 b1bb 5120 a13b 2369 2dbd fdf6 26bd
00000080: 6d46 8f3c 7c9e f23a ae00 5bbb 1349 023d
00000090: b7a7 3fbd 6681 303d a696 053d c378 313c
000000a0: d7d8 e5bc b84a 19bc afd8 16bc a85d 7abb
000000b0: 576f d03c 60ea 8f3c bc0c aeba 5005 0c3d
000000c0: b54e 0d3d fe97 71bc 36c0 1fbd a50a 10bd
000000d0: c9bb c13c 54e1 4abc f6dc cbbc 79a5 1f3d
000000e0: 7440 39bc 5a70 0ebd f152 43bd ff94 48bc
000000f0: 5a15 d73c 2ac3 0cbd eafc 37bd 3337 f13c
00000100: dd67 433c 14b5 4cbc 4298 133d 4177 9a3c
00000110: 8fb8 86bb 1bf0 1c3c 4e2a 0c3c 190d 47bb
00000120: e63d bbbb 05b8 f63c 8b6e 203d 0c55 543b
00000130: 3308 88bc bb2e 873c f8c7 303c 9ca6 97bc
00000140: 8be2 0a3c 90df f83c 5428 c7bc b2fd c4bc
00000150: 7999 ba3c 101a 9c3c 0e74 b63c 0626 cc3c
00000160: bb39 b03c b5f5 173d f440 61bb 6034 1d3c
00000170: a429 b9bc 1a50 6b3c bccb 04bd b77b 053d
00000180: eba0 193b b8c5 93bc a568 83bc e131 0ebd
00000190: 9b2a 17bd b690 9938 77e2 883b c9ef c23c
000001a0: caf8 253c 35f9 273d c1a1 fc3b c0f9 193d
000001b0: 254e ec3b dafb 9cbb c0d6 b33c fcc9 183d
000001c0: e100 c73c a95e c1bc 4bf4 0dbd cde3 933c
000001d0: 45a4 213d a1fe 58bd ba9e 4a3c f3c9 a1bc
000001e0: e5ae f4bc 78fe 1cbd be7d 59bc 0558 8abb
000001f0: 847b 813b c5dd 22bd 8967 143d 5d18 0ebd
00000200: 8c28 923a 4499 0bbd 4cd4 2abc dd22 aa3c
00000210: e461 0c3c e670 a43c 0ede 25bd 8706 06bc
00000220: d8c0 ad3c d9e9 c8bc e704 0abd a030 fb3c
00000230: e5f9 e93c 8d10 d0ba 7105 a6bc f68d 19bd
00000240: 3cf5 15bc 5cb8 dcbb 2ccf 073d ba6d 28bd
00000250: b605 0c3c 630a 043c cb4e 07bc 37ba 41bb
00000260: a3c8 62bc 4460 fa38 b910 a5bc ec94 86bc
00000270: bad2 0a3d 7004 0a3d 067c eb3b 14ee 4fbc
00000280: 7698 f7bc 520e e3bc 8045 8c3c 75d0 5f3c
00000290: 2836 b8bc ed2e a2bb d833 a1bc 437e 0dbd
000002a0: d952 c0bc ea3d 59bd 79a9 233c 4ccb 3c3d
000002b0: b848 a8bc 69dd 1e3d fb07 8dbc b46b 113c
000002c0: 3449 d93c f8ef 90bc 4a73 ffbc a87d 95ba
000002d0: 8ef4 cfbc 7b61 b0bc c1b5 02bd e8d9 8a3c
000002e0: c1f7 dc3c d525 84bc d5fa 943c 14d9 4c3b
000002f0: d3b4 5c3b 65ec c6bc 323b 243c d052 14bd
00000300: 08c0 773c 307d 1cbd cfb7 6a3b 77bc a83b
00000310: 1ffe d3bc 0b71 2fbd 5ab9 443c 52d8 bc3c
00000320: 21ae e2bc 92d3 bdbc 6759 d23c b751 dc3b
00000330: 6104 193c 0fcd 6dbc 6b7c e6bc 86d6 06bd
00000340: f186 50b9 f0bf d13c a0e7 a63c 1362 663c
00000350: 438c 69bc 8291 38bd 58f7 453b 8c4b 22bd
00000360: a1bb 123d 313d 1abc 7637 1f3c 89a9 b03b
00000370: b5f1 033d a14c 0bbd e7e0 003c 9963 f13c
00000380: 3f12 da3c 61f7 9d3c 688a 443c d52d 363a
00000390: 2bde 97bc 89cb 11bd 61a5 aa3a 89a0 09bd
000003a0: e5e1 81bd 7b16 c3bc f2fd b8bc 011b 813b
000003b0: 6797 8bbc 2d32 1abb 8a78 1dba 9cef 3abd
000003c0: 131c debc 8ba7 05bd 399c 303b eea3 68bc
000003d0: cae9 2abd a5ba edbc c222 6abc 457f 2e3b
000003e0: 38b8 bcbc f583 81bc f59d 82ba 1af9 d43c
000003f0: 8fb4 873c cba1 1d3c 7395 1b3d 0c3f 413c
-0.0171022 -0.018963572 -0.012872372 -0.027372526 0.018662985 -0.01595085 0.014697768 0.007819184
-0.023759216 -0.019139832 -0.020284569 -0.026012758 -0.035283007 -0.030236091 0.014179723 0.03284867
-0.039417345 0.024186654 -0.03678131 0.04083354 -0.029953148 -0.0144497175 -0.027484862 0.029365422
-0.05846668 -0.052103244 -0.048743643 0.02597186 -0.0054292246 0.0049171825 -0.042336594 -0.04076289
0.017489636 0.0018510367 -0.0033417153 0.03180797 -0.046790805 0.043092154 0.032614373 0.0108320145
-0.028057499 -0.009356193 -0.009206935 -0.0038202796 0.025443716 0.017567813 -0.0013278942 0.034184754
0.03449889 -0.01474571 -0.039001666 -0.0351664 0.023649113 -0.012382824 -0.024885636 0.038976166
-0.011306871 -0.034775116 -0.04768652 -0.012242555 0.026255298 -0.03436581 -0.044918932 0.029445266
0.011926618 -0.012494344 0.036033876 0.018855693 -0.0041113566 0.00957873 0.008555008 -0.0030372797
-0.005714166 0.030117044 0.039167922 0.0032399325 -0.016605472 0.016501775 0.010789864 -0.018512063
0.008476864 0.03038004 -0.024311222 -0.024046753 0.02277826 0.019055396 0.022272136 0.024920475
0.021511903 0.03709956 -0.003437099 0.009595007 -0.022602864 0.014362359 -0.03242086 0.032588687
0.0023441862 -0.018038616 -0.01604111 -0.034715537 -0.036905866 7.322563e-05 0.0041773873 0.02379598
0.010130117 0.041009147 0.0077097123 0.037591696 0.007211464 -0.0047907652 0.021952987 0.037302002
0.024292411 -0.023604708 -0.034656804 0.01805296 0.0394633 -0.052977208 0.012366945 -0.019749617
-0.029868552 -0.038328618 -0.013274608 -0.0042219185 0.003951492 -0.039762277 0.03623155 -0.034691203
0.0011151 -0.034081712 -0.010426592 0.020768577 0.008568261 0.020073365 -0.04049497 -0.008180267
0.02121012 -0.02452557 -0.03369608 0.030662835 0.028561542 -0.0015874073 -0.020266267 -0.0374889
-0.009152707 -0.0067358445 0.03315656 -0.04112027 0.0085462835 0.008059117 -0.008258532 -0.0029560456
-0.013841781 0.0001193886 -0.020149576 -0.016428433 0.03389237 0.03369564 0.0071864156 -0.01269104
-0.030224066 -0.02771679 0.017122984 0.01366054 -0.022486761 -0.0049494416 -0.019678041 -0.03454424
-0.023477005 -0.05303756 0.009989136 0.046092317 -0.020542488 0.038785372 -0.01721572 0.008875776
0.026524164 -0.017692551 -0.031182904 -0.0011405246 -0.025385167 -0.021530857 -0.031911615 0.016949609
0.026973607 -0.016131321 0.018186012 0.0031257318 0.0033677116 -0.024282644 0.010023879 -0.03621179
0.015121467 -0.038205326 0.0035815125 0.00514942 -0.02587801 -0.042832416 0.012007082 0.023052368
-0.027670922 -0.023172174 0.025677396 0.0067236084 0.009339423 -0.014514222 -0.028135499 -0.03291943
-0.00019886695 0.025604218 0.02037412 0.014061469 -0.014254632 -0.045060642 0.0030207243 -0.03962283
0.035823468 -0.009414003 0.009717813 0.005391304 0.03221293 -0.034008626 0.007866121 0.029466437
0.026620029 0.019282999 0.011995889 0.00069495785 -0.018538555 -0.035594497 0.0013019257 -0.033600364
-0.06341914 -0.02381443 -0.022582028 0.0039399867 -0.017039968 -0.0023528442 -0.00060070364 -0.045638666
-0.027112996 -0.032630485 0.0026948585 -0.01419924 -0.041726865 -0.029019663 -0.0142905135 0.0026626152
-0.023037061 -0.015809992 -0.0009965288 0.025997687 0.01656559 0.009621094 0.037984323 0.011794817

generator.conv2.bn.weight f4 [64]
00000000: 532e 7f3f 51bf 843f 38f5 7d3f 9413 813f
00000010: 6edc 833f 7e9b 823f 3e1d 793f 77c0 813f
00000020: 139d 7e3f 1f25 7f3f bc49 7f3f 2dd4 803f
00000030: 16fe 773f 1f6b 803f 5a01 813f 2173 803f
00000040: 8c1c 863f 03e9 843f 6ad5 7d3f 209b 7c3f
00000050: 5d68 7c3f beba 7a3f 003c 7a3f 8b98 823f
00000060: c693 7e3f 4e82 823f a378 7c3f 3e1b 7d3f
00000070: 65f5 7d3f 6484 813f 6700 7b3f 964c 7b3f
00000080: 3d6b 7e3f 4f4b 803f 99bb 823f dc32 7e3f
00000090: 971f 7f3f 9a30 7e3f 610b 833f f3fa 803f
000000a0: e92f 783f 5978 833f defa 7e3f 6428 7f3f
000000b0: 4dd0 823f 1450 7d3f 9cbb 783f 5625 823f
000000c0: 1f6e 7f3f 9f5b 7a3f 85b1 7c3f 9df4 813f
000000d0: 2d4b 803f 1b02 7a3f 2a2a 7a3f 949e 7e3f
000000e0: 128a 803f 0446 813f 62e6 7d3f f42e 863f
000000f0: 63d0 7c3f 88eb 7d3f 2a76 7d3f 89e4 803f
0.9968006 1.0370885 0.992023 1.00841 1.0301645 1.0203702 0.97310245 1.0136861
0.99458426 0.9966602 0.99721885 1.0064751 0.9687208 1.0032691 1.0078537 1.0035135
1.0477462 1.038361 0.9915377 0.986742 0.98596746 0.97941196 0.977478 1.0202802
0.99444234 1.0196016 0.9862158 0.98869693 0.9920257 1.0118527 0.9804749 0.98163736
0.9938238 1.0022982 1.02135 0.99296355 0.9965758 0.9929291 1.0237848 1.0076584
0.96948105 1.0271102 0.9960154 0.99671006 1.0219818 0.98950315 0.9716127 1.0167644
0.99777406 0.9779605 0.98708373 1.0152775 1.0022942 0.9765946 0.9772059 0.9946072
1.0042136 1.0099492 0.9917966 1.0483079 0.9875547 0.9918752 0.9900843 1.0069743

generator.conv2.bn.bias f4 [64]
00000000: 0aba abbc 7eef e5bb ed83 67bc a1ca 9ab9
00000010: b89a 05bc 4561 b6bb 4c98 bbbb 79d7 013c
00000020: ed48 cdbc 7ee1 18bc 11dc debb cbdb ec3b
00000030: 4772 d5bc ed57 e63a f26d 96bb e260 8e38
00000040: 6024 9dbc 23fc 973b da52 563a 1ce0 2cbd
00000050: 8639 57bc 7014 adbc 8960 abbc 7226 a03b
00000060: b145 0b3b 87c7 d83c 190b f0bb bfbf 2bbc
00000070: 04f5 86bc 4fa9 043c 1ea0 99bc 50ec bdbc
00000080: a5ca 0fbc 103e e23a b711 e33a d718 e53a
00000090: c1cd 8cbc 1010 333c b917 35bc cbb6 b13b
000000a0: 1e26 0fbd 3fc8 c43c c664 6bbc 5d9e 0c39
000000b0: bb4a fdbb f8a2 fdb9 fe76 b4bc 543f bc3c
000000c0: 7c9e 8ebc 5027 b9bb 146a 6cba c4b0 59bc
000000d0: 2db5 c4bc 4c06 00bd 4d33 98bc 90b3 3ebc
000000e0: 70d2 fc3b 6c5d 31bc 25c1 433a cd89 33bc
000000f0: 3b8b 04bd 3bc4 56bc 0df8 44bc 9d00 e1bb
-0.020962734 -0.007017075 -0.014130575 -0.0002952414 -0.008154564 -0.0055657947 -0.0057249423 0.007924908
-0.025059188 -0.009331105 -0.0068011363 0.00722835 -0.026055468 0.0017573811 -0.004590743 6.7891335e-05
-0.019182384 0.0046382113 0.0008175798 -0.042205915 -0.013136273 -0.02112791 -0.020920055 0.0048873955
0.0021251256 0.02646233 -0.0073255417 -0.010482728 -0.016474254 0.008097007 -0.018753108 -0.023183972
-0.008776342 0.0017260928 0.0017324005 0.0017478716 -0.017187955 0.010929123 -0.011053019 0.005423402
-0.03494846 0.024021266 -0.014367288 0.00013410435 -0.007729856 -0.00048377342 -0.022029396 0.022979416
-0.017409556 -0.0056504384 -0.00090184924 -0.013286773 -0.024012173 -0.031256005 -0.01857915 -0.011639491
0.007715516 -0.010825496 0.00074674404 -0.010958147 -0.032359343 -0.013108308 -0.012022031 -0.006866528

generator.conv2.bn.running_mean f4 [64]
00000000: 9927 50bf b038 afbf 3992 203f 59c3 1cbf
00000010: 4f36 57bf a3c1 ecbe 29cd 7f3f c434 89be
00000020: c23a 82bf 76df 273f b74b cbbf dc68 95be
00000030: 9d8b 43bf 25cd b6be ac67 89be 3917 d0be
00000040: f659 13bf 7286 ffbe 9dd7 80be 631f 0b3f
00000050: 155f 553e 9c54 fb3d b2b7 30be 09cf 7abf
00000060: 055d 3a3f 0118 b3be fae9 503e a280 68be
00000070: f4a7 96be 5e05 94bf 2a76 febe 8d6e 50bf
00000080: 7655 fdbe e0a1 893f b12f 053d 9f9d 72be
00000090: 0718 8e3e fb13 1f3f 4a83 2bbf b3af 8d3e
000000a0: ef15 0440 682d 18bf 8d7a 80bc 63cd 47bf
000000b0: 85db b0bf 585e a93d 48b1 4cbe 42cc bebe
000000c0: 1117 10bf 8b37 543e 4e53 64bf 65ea 31bf
000000d0: a218 f73d 1e5e 54bf 399f 8c3e 0528 12bf
000000e0: 49a3 e1be 4bd5 a3bd 3e08 873e cd30 5fbf
000000f0: e96c 993f 9b83 b53e 23c6 89bf 7b66 50be
-0.8131042 -1.3689175 0.6272312 -0.61235577 -0.84067243 -0.46241483 0.99922425 -0.2679807
-1.0174181 0.6557535 -1.5882481 -0.29181564 -0.7638491 -0.35703388 -0.26836908 -0.40642717
-0.57559144 -0.4990726 -0.251645 0.5434477 0.20837052 0.12271997 -0.17257574 -0.9797216
0.72798187 -0.3497925 0.20401755 -0.2270532 -0.29425013 -1.1564138 -0.49699527 -0.8141869
-0.49479264 1.0752525 0.032516185 -0.2369294 0.27752706 0.6213986 -0.66997206 0.2767311
2.0638387 -0.59444284 -0.015683437 -0.7804777 -1.3816992 0.08269948 -0.19989502 -0.3726521
-0.56285197 0.20724313 -0.8918961 -0.6949828 0.12065245 -0.8295611 0.27465227 -0.57092315
-0.4406989 -0.07999667 0.26373476 -0.8718384 1.1986362 0.3545197 -1.0763592 -0.20351593

generator.conv2.bn.running_var f4 [64]
00000000: 356c 033f 8f14 313f bab0 c23e 2a39 c33e
00000010: 264f 0d3f b767 d23e 6d97 fd3e 3cf3 653e
00000020: 9bdf 1e3f 564c 3c3f 6cc2 1a3f b2f6 943e
00000030: dc90 a03f aabb c53e dba2 a33e 0a46 0b3f
00000040: 504b f33e 6031 8a3e b570 883e 6ee0 293f
00000050: 0929 c53e 6306 873f 6967 863e 5168 163f
00000060: 4a28 ec3e 7c75 bb3e 871c 1b3f 1b2d 773f
00000070: 562a 893f 2a37 043f cb14 313f 8070 903f
00000080: dca2 903e 46c4 013f 3e93 bf3e aa3a e93e
00000090: e999 bd3e d896 083f aff9 833e 4922 853e
000000a0: 0e8f 813f 18f6 923e d477 333f fc31 bb3e
000000b0: ab7c 343f 2b05 1b3f 5aaa 0a3f 9259 493e
000000c0: 463f d73e 5e9a a03e 616c b73e 7916 103f
000000d0: 865d 083f f3a5 af3f 71d7 0c3f d7d6 253f
000000e0: a070 a23e 5cea c33e 9139 ef3e 73c8 ee3e
000000f0: 1a51 1f3f adf5 373f 415a 083f ef86 083f
0.51336986 0.69171995 0.38025457 0.3812955 0.55198896 0.41094753 0.4952959 0.22456068
0.62059945 0.7355398 0.60452914 0.29094464 1.2544208 0.3861974 0.31960186 0.54403746
0.47518396 0.26990795 0.2664849 0.6635808 0.3850787 1.0548824 0.2625077 0.58752924
0.46124488 0.3661307 0.60590404 0.965532 1.0716045 0.51646674 0.6917235 1.1284332
0.28249252 0.50690114 0.37417024 0.4555257 0.37031487 0.5335517 0.2577643 0.2600272
1.0121782 0.2870338 0.7010472 0.36561573 0.7050273 0.6055476 0.54166186 0.19663075
0.4204046 0.31367773 0.35824874 0.5628429 0.53267705 1.3722519 0.5501624 0.64780945
0.3172655 0.3826474 0.46723607 0.46637306 0.62233126 0.71859246 0.53262717 0.5333089

generator.conv3.conv.weight f4 [64, 64, 3, 3]
00000000: 06e9 faba 0326 9ebc 902e 25bd 60a6 233c
00000010: 59ef ecbc 7282 81bc 5f48 1bbc 351d 3ebc
00000020: 6639 90bc 4d8c 373c 37c9 923c 6042 d13c
00000030: bcc7 0cbd f54f abbc 5475 193d f41b e73c
00000040: 3ed0 383c abc6 21bd fea4 73bc 54a4 04bd
00000050: 8fe6 31bd 40bf 89bc 0f31 ab3c 6020 1bbd
00000060: eccf dfbc f980 8abc b09e 8dbc 0aec d2bc
00000070: 9eb4 b1bc 2221 25bb 9eaf 713c b04c 76bc
00000080: 9843 86bc efba 513c 19e9 843c faf3 b33c
00000090: 61ea c7bc dd3c 90bc 7154 84bd bf0e e43c
000000a0: 8373 1ebd 7832 71bd 19df 743c b843 d03c
000000b0: cd03 e93a 7860 16bd e043 14bd e62b 593b
000000c0: 7800 803c ac25 793c f3d2 803b 1c11 9f3c
000000d0: 9fb2 e23c 93a8 163d 2497 24bd de33 c3bb
000000e0: 5b6f aabc 9ab8 08bd 79de e4bc be54 cabc
000000f0: 453c 0e3c 3d9d cdbc 1109 583c 42e8 943c
00000100: 3a0c 67bc 11cf 7cbc a8ca 513c 5c55 e5bc
00000110: fa06 c6bc 6a2a 57bc cba5 22bd 0f49 17bd
00000120: d3e2 263d 98fc 343d be02 79bc 1257 973c
00000130: 6300 d93c 1790 053b 90ff 883c 60e4 db3c
00000140: dc23 dd3c fa25 44bc 8f07 823b fc51 ae3c
00000150: 0d7c 05bd 90a6 7e3b 51ce 40bd abc7 cabc
00000160: 7a25 04bd 3123 d93c 675d 13bc a2a5 df3b
00000170: 98e5 02bc 8c3c 1cbd b561 033d 7ae6 493d
00000180: c749 35bd 1a4d 0abb 644a 1c3c 6377 1a3d
00000190: 4e2c 803c 0b2b b13c cf44 cebb 5546 8abc
000001a0: d6bb aabc 3cc6 183c dbe5 e1bc ea06 1e3d
000001b0: dc94 e2bc a9c6 cf3c dbff 983c a7c3 8c3c
000001c0: 5626 80bc 60b8 0b3d 4e3e 33bd 51bb 933c
000001d0: 2015 583d 165c a93c 548e 2b3d 0ca5 9ebc
000001e0: 4859 053d 6a50 933c 6c0c fa3c 0599 58bc
000001f0: 57c3 e5bc 7fd6 2cbc 8a7d 633c d2e3 28bd
00000200: a7d3 d63c cddc bf3b c291 653c 5e76 173d
00000210: 31e5 edbc 1da8 bbbb 129a 963c ba4b 94bc
00000220: dc3d 08bc 5932 4cbc 078b 94bb 9c1a 133c
00000230: 943a 113d 0697 6d3c 8c72 6eba b7a0 12bc
00000240: aa1c 2dbd 1a62 d2bc df00 e23c dd35 cc3c
00000250: 7c79 323c 0e29 153d 2f83 2b3d 7b7d dabc
00000260: 20e1 0ebd 8b72 013d 051a 3a3c cf68 533c
00000270: 977f 783c 9bf9 95bc 85e5 e53c e5a9 5f3c
00000280: 0b86 e33c 868d 2fbd 80ad 8dbc 1ec9 ee3b
00000290: b110 28bc 00cf 203d 5238 d7bb 884a a1bc
000002a0: dff8 b13c e48c 1d3d 6607 f8bc 2001 0e3d
000002b0: 9b22 94bc 71c2 433a 9a02 aa3c c70e b5bb
000002c0: 93a1 debc 31e6 da3a 03d4 c0bc 08f1 4c3c
000002d0: 539a 5e3c 725c 253b c8a7 1ebc 24b0 5a3b
000002e0: 386c 4c3c 0681 a13c 71dd ac3a 33e1 123d
000002f0: a5bc db3c fbcd 6dbc 5133 95bc 3701 45bc
00000300: 6370 34bd b37c 30bd c964 ea3b b97d 0dbd
00000310: 7761 e83b 5116 86bc 5370 383c 07ed 97bc
00000320: 0c5c 18bd 0926 6c3c 8433 203d 68bf 00ba
00000330: 0e1c 3c3d 1798 233d de88 cd3c 41ea b33c
00000340: f7f7 beba 99bb 013d 509d c93c 5e41 cdbc
00000350: 3005 b83c cf07 86bc fbce 8aba 9581 b43b
00000360: 0a14 833c 84e5 96bc 7a5b b3bc 8d01 b3bc
00000370: f25e 28bd 6560 093c 7f20 6d3c a627 d2bc
00000380: 6f60 de3c 6813 893c 5fbc a1bb f6d0 183d
00000390: e37c 8a3c b3b1 e9bb bf29 a3bb 6445 94bc
000003a0: 1342 40bd 6cb7 8e39 8684 793c 139f 10bd
000003b0: b872 f33c 3b1c a43c 2eac b0bc e9bb 053d
000003c0: 347f a9bc 00ab 23bc f7fc e1bc d679 383c
000003d0: 76d0 14bd 7ad2 233d 0b0b 35bc 74d6 7abc
000003e0: 46a5 f23c 04eb 2b3c ce8c fc3b 12bf 2abd
000003f0: f02c 1c3c eb52 973b 49e1 943c 697e c83c
-0.0019142933 -0.019305235 -0.04032761 0.009988397 -0.028922724 -0.015809271 -0.009477704 -0.011603643
-0.017605495 0.011202884 0.017918212 0.025544345 -0.03437017 -0.02091215 0.03746541 0.028211571
0.011280118 -0.039496105 -0.01487088 -0.032383278 -0.04343277 -0.016814828 0.020897416 -0.037872672
-0.027320825 -0.016907202 -0.017287582 -0.025747318 -0.02169257 -0.002519675 0.014751343 -0.015032932
-0.016389653 0.012800916 0.01622443 0.021966923 -0.024403753 -0.017607147 -0.064614184 0.027839063
-0.03868438 -0.05888602 0.014945769 0.025422916 0.0017777622 -0.036713094 -0.036197543 0.0033137738
0.015625224 0.015206736 0.003931397 0.019417338 0.027673064 0.03678186 -0.0401832 -0.005957111
-0.020805052 -0.033379175 -0.027938114 -0.024698611 0.008681362 -0.025099391 0.013185755 0.018177155
-0.014102036 -0.015430228 0.012804665 -0.027994804 -0.024173249 -0.013132671 -0.039708894 -0.03693491
0.04074366 0.044186205 -0.015198408 0.018474136 0.026489442 0.0020380074 0.016723424 0.026842296
0.026994638 -0.011971945 0.003968186 0.021279328 -0.032589007 0.0038856603 -0.04707176 -0.024753412
-0.032262303 0.026506038 -0.008994437 0.006825165 -0.00798931 -0.03814368 0.032075603 0.049292065
-0.044259813 -0.0021103085 0.0095392205 0.037711512 0.015646126 0.02162697 -0.0062948237 -0.01687924
-0.02084152 0.0093246065 -0.027575424 0.038580813 -0.027658872 0.025363283 0.018676689 0.017183138
-0.01564328 0.03411138 -0.04376059 0.018033655 0.05275452 0.020673793 0.04188378 -0.01936581
0.03255585 0.01798268 0.030523501 -0.013220076 -0.028047247 -0.010549187 0.013884911 -0.04123289
0.02622397 0.005855179 0.014011802 0.036978118 -0.029039951 -0.005726828 0.018384013 -0.018102515
-0.00831553 -0.012463176 -0.004533175 0.008978512 0.035456255 0.014501339 -0.00090960483 -0.00894945
-0.042263664 -0.025681544 0.027588306 0.024928028 0.010893222 0.036416106 0.041873153 -0.026671162
-0.034882665 0.031603377 0.011358743 0.012903406 0.015167139 -0.018307498 0.028063545 0.013651346
0.027773878 -0.042859577 -0.017294645 0.0072871586 -0.010257886 0.03925991 -0.006567993 -0.01968886
0.021725116 0.038464442 -0.030276965 0.03466904 -0.018082907 0.00074676337 0.020753194 -0.0055254432
-0.027176654 0.0016700682 -0.023538595 0.012508638 0.013586598 0.0025232104 -0.009683557 0.0033369148
0.012476973 0.019714843 0.0013188553 0.035859298 0.026823351 -0.014514442 -0.018212946 -0.012024215
-0.044052493 -0.043087672 0.007153128 -0.034543727 0.007091697 -0.016368063 0.011257249 -0.01854564
-0.037197158 0.014413365 0.03911163 -0.0004911334 0.045925193 0.039939966 0.025089677 0.021962287
-0.0014569749 0.031673048 0.024611145 -0.025055584 0.022463411 -0.016361145 -0.001059025 0.0055086114
0.016000766 -0.018419988 -0.021894205 -0.021851325 -0.041106172 0.008384799 0.01447308 -0.025653671
0.027145592 0.016732886 -0.0049357857 0.037308656 0.016905254 -0.007131779 -0.0049793418 -0.018099494
-0.046938013 0.0002722101 0.01522935 -0.035307955 0.029717788 0.020032993 -0.021566477 0.03264991
-0.020690538 -0.0099895 -0.027586443 0.011259517 -0.036331616 0.039995648 -0.011049996 -0.015309919
0.029619824 0.010493044 0.007707215 -0.041686125 0.009532198 0.004618039 0.01817383 0.02447434

generator.conv3.bn.weight f4 [64]
00000000: 1d8b 803f 8012 803f fe01 803f fc01 803f
00000010: 92cf 793f 5a13 813f 6cde 7b3f a0e7 783f
00000020: 0e97 7a3f 4c3b 7d3f 979b 813f 0f79 7a3f
00000030: e449 813f f24a 7c3f edfc 7d3f 3beb 7c3f
00000040: 1505 833f 99a1 7e3f b686 823f 3de6 833f
00000050: 2999 7d3f 13c4 7d3f 9991 7d3f ea93 7d3f
00000060: 9a08 7f3f e441 7d3f 9b75 7f3f 5452 833f
00000070: 8577 7f3f 9fc7 813f a392 843f c728 803f
00000080: 1935 7e3f d331 813f 8983 813f a4fe 7f3f
00000090: c6ae 803f 6361 7b3f 4c01 813f 3565 813f
000000a0: ad62 7d3f 4e6c 813f e113 7c3f 235f 813f
000000b0: fe52 813f 7d5c 803f a72f 7b3f 9733 823f
000000c0: 036d 7f3f 979a 7c3f 2dd6 803f d38b 7b3f
000000d0: 33f4 823f 50d2 7a3f d9dc 803f 776b 813f
000000e0: 3728 7e3f 3b92 7e3f 6baa 7d3f bcc3 803f
000000f0: b6b6 803f d1bf 7c3f 5a54 7c3f b431 833f
1.0042454 1.0005646 1.0000608 1.0000606 0.9758235 1.0084031 0.98386264 0.9722843
0.9788674 0.98918605 1.0125607 0.9784097 1.0100675 0.9855186 0.9921406 0.98796433
1.0235926 0.9946533 1.019736 1.0304638 0.9906183 0.9912731 0.9905029 0.99053824
0.996225 0.98928666 0.99788827 1.02595 0.9979175 1.0139045 1.035725 1.0012444
0.9929977 1.009333 1.0118266 0.99997926 1.0053337 0.98195475 1.0078521 1.0109011
0.9897869 1.0111177 0.9846783 1.0107158 1.0103452 1.0028225 0.98119587 1.0171994
0.99775714 0.98673385 1.0065361 0.9826023 1.0230774 0.9797716 1.0067397 1.0110921
0.99280113 0.9944188 0.9908816 1.0059733 1.0055759 0.9873019 0.9856621 1.0249543

generator.conv3.bn.bias f4 [64]
00000000: 3917 5abb 843a 18bc 3616 9e3a 2cf6 20bc
00000010: 4594 dcbc c898 70bc f930 1abc e515 22bb
00000020: c03e 09bc e32f 50bb c5ff 85bc a9b1 85bc
00000030: 6810 a9bc 6b34 f6bc 0449 b4bc 7395 9cbc
00000040: 0657 24bc 3d4e a2bc 12a8 ccbc 45c6 b4bc
00000050: 7779 bcbc 208e 8bbc 0167 43bd d3a9 27bc
00000060: 92d7 7cbc ade0 efbb a55c 39bb c81c 3dbc
00000070: 4c2e 9539 79d4 16bc d045 09bd 8d50 d6bb
00000080: f600 cbbc 03e3 e3bc 566d 92bc 4923 62bc
00000090: 5114 58bc 415f 00bc f53e c4bb d8f3 5cbc
000000a0: 5861 adbc 64fa 25bc 6923 8ebc 23e9 b9bc
000000b0: 0ce3 12bc c90f dcb9 3534 42bc 2310 32bd
000000c0: e432 a3bc a3e9 60bc 1ada 84bc b65a 9bbc
000000d0: aa2b 50bc 2559 c9bc f8e7 833b a910 bfbc
000000e0: 8cc3 92bc 1df3 6cbc e94b 053c ca0b 1fbc
000000f0: 7dd7 35bc 8054 acbc 5c6e 97bc 60eb 63bc
-0.0033278002 -0.009291295 0.0012061063 -0.009824317 -0.02692617 -0.014684863 -0.00941109 -0.0024732288
-0.008376777 -0.0031766824 -0.016357312 -0.016320067 -0.020637706 -0.030054292 -0.022007473 -0.019114232
-0.010030514 -0.019812698 -0.024982486 -0.022067199 -0.023007138 -0.017035544 -0.047705654 -0.01023336
-0.015432255 -0.0073204846 -0.002828398 -0.0115425065 0.00028453988 -0.009205931 -0.033513844 -0.006540364
-0.024780732 -0.027818209 -0.017874401 -0.013802358 -0.013188438 -0.00783521 -0.0059889504 -0.013485871
-0.021164581 -0.010130499 -0.01735087 -0.022694176 -0.008965265 -0.0004197343 -0.011853267 -0.04347242
-0.019921727 -0.013727578 -0.01621728 -0.018964153 -0.012705723 -0.02457864 0.0040254556 -0.023323374
-0.01791551 -0.01446226 0.008135774 -0.009707401 -0.01109874 -0.021036386 -0.01848524 -0.013911098

generator.conv3.bn.running_mean f4 [64]
00000000: 1813 3d3f f3ae cfbf 3565 34bf ee2a bdbe
00000010: e483 eb3c e56a 1ebf dfdb d53e 9e22 b93d
00000020: dcd1 70bd 429a 2f3f 9570 0bbf 786c 9dbe
00000030: 41dc 24bf 229d fcbe 0822 b23e 81d1 a9bf
00000040: f77f 473e d8d6 9cbe e8ae 04bf 9116 c83e
00000050: eb10 64be a830 5bbf 41da e73e 4b80 4dbe
00000060: 798d 42be 3973 7a3f b679 8fbf b0ed 92bf
00000070: f6e7 28bf 6f3b 64bf ae37 4abe db26 b73e
00000080: 08b4 9f3d ce4b 1bbf efe8 9c3f 4eb0 3a3b
00000090: c3ea 5dbf ad7a 16bf 6deb ce3c 2359 ccbb
000000a0: 601a 9dbf 1c3e 98bf a958 3abf 1f5e 283f
000000b0: 53e7 433d d082 80be e649 88be 4ac6 b6be
000000c0: 9d72 06be 0e78 b13d 752f 3c3e 58e7 97bf
000000d0: 0b79 1ebf bc00 bbbf 3a59 44bf 6b54 84bf
000000e0: 9142 963e 3b85 b8be 349e bb3e 38c6 b9bf
000000f0: 0738 593f b555 07bf 698d c7be 6dd6 993e
0.7385726 -1.6225265 -0.7046693 -0.36946815 0.028749414 -0.6188186 0.4176931 0.09039806
-0.058793887 0.68594754 -0.5446866 -0.30746818 -0.6439858 -0.49338633 0.3479159 -1.326706
0.19482408 -0.30632663 -0.51829386 0.39079717 -0.22272079 -0.8562112 0.45283702 -0.20068471
-0.1899928 0.97832066 -1.1209018 -1.1478786 -0.65978944 -0.8915319 -0.19747803 0.35771832
0.0779801 -0.60662544 1.2258586 0.0028486433 -0.8668634 -0.5878094 0.025258744 -0.006236212
-1.2273674 -1.1893954 -0.72791535 0.6576862 0.04782803 -0.25099802 -0.2661888 -0.35698158
-0.13129659 0.08665477 0.18377478 -1.1867476 -0.61903447 -1.4609599 -0.7669865 -1.0338262
0.2934766 -0.36039147 0.36644137 -1.4513617 0.84851116 -0.52865154 -0.38975075 0.30046406

generator.conv3.bn.running_var f4 [64]
00000000: a111 ed3e 33a0 1f3f 24ce 013f 5d66 a83e
00000010: 4ccc c43e 9fb7 0f3f 1dc4 d13e 43de f83e
00000020: 5f55 ce3e 5a68 fd3e 4763 d53e d975 fa3e
00000030: aed6 043f 08c3 113f 7b9b e73e ea58 173f
00000040: b30b 0f3f 1f6a 083f 3769 d13e 5975 133f
00000050: 3bb2 123f db78 fe3e 7f26 c13e d155 9a3e
00000060: 376a bb3e 172c 073f 4dfb 483f 7466 0c3f
00000070: 0ca8 f23e f979 023f e3db 8b3e 14f6 dc3e
00000080: 8c6a 3f3f bac6 083f 3981 c23e 8e17 cc3e
00000090: f1e9 0f3f 9296 163f a45c 993e 12c5 f23e
000000a0: 3fa1 273f 02b9 253f aa32 1e3f 6f8d c03e
000000b0: d3e2 a43e aea1 2a3f 004c ac3e a010 be3e
000000c0: 106e a93e a4cb db3e 9a2d d73e 1ad6 233f
000000d0: 1e7b d93e 01dd 4e3f 8025 e43e 1857 c43e
000000e0: 8f3e f23e ca96 0a3f b815 b93e f118 e93e
000000f0: eec5 f83e e903 ce3e 7752 d03e f373 013f
0.46302512 0.6235382 0.5070517 0.32890597 0.38437116 0.5613956 0.40969935 0.48607072
0.40299508 0.49493676 0.41677305 0.48918036 0.51890075 0.5693822 0.4523581 0.5912005
0.55877227 0.5328693 0.40900585 0.57600933 0.5730321 0.4970158 0.37724683 0.30143598
0.36604473 0.5280165 0.78508455 0.5484383 0.47393835 0.50967366 0.27316198 0.43156493
0.7477195 0.5342823 0.37989214 0.3986172 0.5621634 0.588235 0.29953492 0.47415978
0.65480417 0.64735425 0.6179606 0.37607905 0.32204303 0.66652954 0.33651733 0.3712206
0.33091784 0.42928803 0.4202698 0.6399857 0.42476743 0.80805975 0.4455986 0.38347697
0.47313353 0.54136336 0.36149383 0.4552684 0.48588508 0.40237358 0.40687916 0.5056755

generator.conv4.conv.weight f4 [64, 64, 3, 3]
00000000: 16ad 233d 2e3a 07bb 31b3 f23b 8cec 5c3d
00000010: bc74 873c c1d6 ae3c ab24 1b3d 120d e5bc
00000020: 8042 c3bc 1534 883c 69f3 f33c 7fca 873c
00000030: 6a33 afbc e2df 573c 4114 eabc d896 11bc
00000040: a61c b9bc f2ae 0f3c 3134 8e3b 048d e4bb
00000050: d7f3 95bc f250 31bb 6f79 b2bc 515e 1ebd
00000060: f5eb debc 5f83 9c3b 5193 21bd 08cf f03c
00000070: ad40 c33c 9d45 283c 4ef4 e63b 1b50 2abd
00000080: e158 143d 2d88 6d3c bbca 23bd 2c78 933c
00000090: d308 25bd 25d9 353c 70b5 e0bb 2a58 a73c
000000a0: d5b5 f03b 6f44 fabc d883 58bb c1ef 11bd
000000b0: 3b9c a53c 50a0 a2bc 1023 a53c baa8 893c
000000c0: 01d5 cbbc 948d 45bc 5489 bf3c 6d57 f4bc
000000d0: 4ab4 04bd eec3 ac3c 237f 643c 5a5f 25bd
000000e0: c0cb e2bc c3e7 273c e047 07bd 809c 17bd
000000f0: 417c c23c 3308 76bc 905d 8f3a 6334 b63c
00000100: edc6 e43b 43d2 f43a 1614 123d bfc1 f9bb
00000110: 77f1 023d 7ee8 38bc 4894 6d3c c2f4 03bd
00000120: a8f3 273b 11a9 08bd 3b2a 35bd 2817 d73c
00000130: ef6a d1bc 64a8 1a3c 183e 8dbb 8b68 353c
00000140: 96ad 9e3b 0cc0 f9bc 5b1e cebb 4771 193c
00000150: 2882 4bbb 3276 9a3c a352 09bd 7f5d 19bd
00000160: 9aa7 53bc dfec 323c 7f0d a03b 6910 0c3d
00000170: feee 9cbc 02e4 2e3d 86c0 4bbb efd7 19bd
00000180: 6df3 a83b 4576 60bc 8c72 c83c b0c2 f93c
00000190: afaf c53c b7a4 123a 7332 4d3d 0d55 b73b
000001a0: 350f 21bc e372 4b3c 4cd7 7dbc 62c9 46bd
000001b0: adaf 9abc aa7c f63c 89dd 773c f278 573c
000001c0: 0089 ed3c 2b71 22bd 0d8f 9abc 2182 d5bb
000001d0: 9b4d ffbc bf54 b83a 5066 ac3c eed4 28bb
000001e0: 69ea 603c f38e c7bc 6d32 0c3b 542f 62bc
000001f0: f599 f93b 31bd 053d 0364 00bd d95b d2bc
00000200: 33c2 3abb 688f c6bb 96e3 d7bc 0f05 eabc
00000210: 4404 b7bc 8848 a63b b4c3 8a3c 55a0 973c
00000220: b51b 8e3c 0322 85bc 7997 0f3d 4f63 763c
00000230: 6dca f5bc e03e 26bd d686 a13c a913 02bd
00000240: f076 5a3c c970 5d3b cd22 133d d539 05bd
00000250: ae52 debc 3427 e03c 4ca0 82bc b118 f2bc
00000260: 4c07 4cb9 d680 d1bb 98b6 08bd 2728 e33c
00000270: 5a5f f23c d7c6 02bd 8dd6 1abc 0ccf 3fbb
00000280: b68f 343d 18d1 0fbd 3602 973c b630 d1bc
00000290: 86ae bd3c 3e52 c4bb 5689 fdbb b538 21bd
000002a0: f34d 0e3d 0403 4dbc 6c21 d9bc 0352 1ebc
000002b0: 1466 d6bc 2dd6 423b b517 f2bb 2f31 8dbc
000002c0: 866c 923b e9c6 2fbd 3e01 e5bc 7064 273a
000002d0: 04d4 64bc c2cf 443c ce56 243d 6559 fc3c
000002e0: b868 b9bc 7102 c9bb 4317 303c eaa7 90bc
000002f0: 8fca 7abc c661 a73a 75b0 8fbc dea6 00bd
00000300: a6cf bf3b 947c 2e3c df70 febb 3af5 dd3b
00000310: 4877 e83c d1b7 8e3c 1615 ebbc cc81 183c
00000320: 724e 82bc 546b 27bd 4ec5 343b fd33 27bd
00000330: 279d d0bc 270b 9e3c 3807 a43b 134a dabc
00000340: 8e70 c63a 476e 26bd 8482 b1b9 bf37 e7bb
00000350: 88d9 9b3c 7674 5f3d 529c 053d 6516 1ebd
00000360: fae7 1d3c cd16 edbc a159 95bc 00d7 edbc
00000370: cb94 0dbd 6cde fe3c 40e3 093c cd22 1cbd
00000380: b0f5 d8bc b579 e4bc b74d 50bc 6d6e b7bc
00000390: aa75 1b3d 289a 15bd a868 5e3c 0dfc a9bc
000003a0: b921 23bc 38a1 7d3c 501c 613c 1a1b be3c
000003b0: 79ec 383d 5ce6 33bd b323 c5bb b4c6 3cbd
000003c0: 022b f4bc d9b4 8d3c d88e 68bd af3f bbbc
000003d0: 5442 8cbc cdec 623c a82f f7bc c239 163b
000003e0: 290b e438 462b 46bd 078e f93b bbe8 04bd
000003f0: a7ca 693c 844a 553d 2786 81bc 5410 05bd
0.03995999 -0.0020634043 0.007406615 0.053936526 0.016535155 0.021342637 0.037876766 -0.027960334
-0.02383542 0.016626397 0.029779153 0.01657605 -0.02138682 0.013175936 -0.028574111 -0.008886062
-0.022596668 0.008769738 0.004339718 -0.006974818 -0.018304748 -0.0027056304 -0.02178642 -0.038664166
-0.027212122 0.004776403 -0.039447132 0.029395595 0.02383455 0.010270503 0.0070481664 -0.0415803
0.036217574 0.014497799 -0.03998826 0.018001638 -0.04029162 0.011099135 -0.0068575665 0.020427782
0.007345895 -0.03055021 -0.003303757 -0.035629038 0.020216098 -0.019851834 0.02015832 0.016804088
-0.024881842 -0.012057681 0.023380913 -0.029826844 -0.0323985 0.02108952 0.013946327 -0.040374137
-0.027685046 0.010248127 -0.03302753 -0.037014484 0.02374089 -0.015016603 0.0010937918 0.022241777
0.0069817216 0.0018678386 0.035663687 -0.0076219733 0.03196856 -0.011285899 0.014500685 -0.03221584
0.0025627408 -0.03336436 -0.044229727 0.026256159 -0.025563685 0.0094395615 -0.0043103807 0.011072288
0.0048424704 -0.030487083 -0.0062902397 0.009365386 -0.003105292 0.018855188 -0.033526074 -0.03744268
-0.012918377 0.010920732 0.0048844214 0.034195337 -0.01915693 0.042697914 -0.0031090095 -0.037559446
0.0051559717 -0.013700073 0.024468683 0.030488342 0.024131624 0.00055940024 0.05009694 0.0055948556
-0.009830286 0.012417528 -0.015493225 -0.048531897 -0.018882597 0.030088741 0.015128502 0.013151394
0.02899599 -0.039658707 -0.01886704 -0.0065157567 -0.031164935 0.0014063342 0.02104488 -0.0025761682
0.013727763 -0.024360156 0.002139236 -0.013805229 0.00761723 0.03265113 -0.03134538 -0.025678562
-0.00284971 -0.006059576 -0.026353639 -0.028566865 -0.022340901 0.0050745644 0.016939022 0.01850907
0.017347196 -0.01625157 0.035056565 0.015038325 -0.03000375 -0.040587306 0.019717615 -0.03175703
0.013334021 0.003378915 0.03592186 -0.032525856 -0.027139034 0.027362444 -0.015945576 -0.02955279
-0.00019457674 -0.0063935323 -0.03337726 0.027729107 0.029586483 -0.03192791 -0.009450567 -0.0029267697
0.044082366 -0.035111517 0.018433671 -0.025535922 0.023154508 -0.0059912493 -0.007737319 -0.03936072
0.034742307 -0.012512926 -0.026505195 -0.009663108 -0.026171722 0.002972971 -0.00738808 -0.017235367
0.0044685034 -0.042914305 -0.027954694 0.0006385511 -0.013966564 0.012012424 0.040121846 0.030804345
-0.022632942 -0.0061343242 0.0107477335 -0.017658193 -0.015307083 0.0012770228 -0.017540196 -0.031409137
0.005853611 0.010649819 -0.00776492 0.006773618 0.02837719 0.017421635 -0.028696578 0.00930829
-0.015906546 -0.04087384 0.0027583423 -0.040821064 -0.025465561 0.019292427 0.0050057434 -0.02664665
0.0015139745 -0.040632512 -0.00033857313 -0.007056206 0.019024625 0.054554425 0.03261978 -0.038595576
0.009637827 -0.028941536 -0.018231215 -0.029033184 -0.03456573 0.031111918 0.008415997 -0.038119126
-0.02648434 -0.027890066 -0.012713841 -0.022391522 0.03795401 -0.036523968 0.013574757 -0.02075007
-0.009956771 0.015480332 0.01373966 0.023206282 0.045147393 -0.04392086 -0.0060162186 -0.046087936
-0.029805664 0.017298149 -0.05677685 -0.022857515 -0.017121471 0.013850403 -0.030174091 0.002292261
0.00010873966 -0.048381113 0.007615808 -0.03244851 0.0142695075 0.052073017 -0.01581104 -0.032486275

generator.conv4.bn.weight f4 [64]
00000000: d2db 7d3f 6ada 7d3f 74b4 7f3f 3ce5 7f3f
00000010: d25c 803f 40f3 803f ad3e 7c3f 5292 7e3f
00000020: 8c8d 7d3f 03ac 7a3f cc4b 803f 3957 843f
00000030: eda9 7c3f c314 7d3f 957f 813f b99d 7e3f
00000040: 1a78 813f e9c5 803f 8016 7a3f 48df 803f
00000050: cf9c 7a3f c56e 7d3f 0fdd 7d3f ae81 7b3f
00000060: c9e4 833f 8da7 7c3f 52f4 7c3f 68e2 813f
00000070: aa56 7d3f 29ad 7c3f 5dd7 803f 5958 883f
00000080: 3de0 7f3f 0a99 823f b3f9 803f bdff 7c3f
00000090: c205 813f 147f 7a3f 2d38 7f3f 4733 813f
000000a0: a794 813f 40e6 813f cbb2 793f 2a28 7f3f
000000b0: 1975 803f 4180 7d3f 8498 7a3f 2452 793f
000000c0: c45b 7b3f c145 7e3f 9688 803f d747 803f
000000d0: c349 7d3f ecd7 803f 29bb 7f3f b5aa 813f
000000e0: 99f4 7e3f 5d1e 7e3f 5a7c 803f c3c6 843f
000000f0: be3e 7b3f 2e6c 7d3f ef0c 823f cc7b 803f
0.99163544 0.991614 0.99884725 0.9995916 1.0028327 1.0074234 0.98533136 0.9944202
0.9904411 0.9791872 1.0023131 1.0339118 0.98696786 0.98859805 1.011706 0.99459416
1.0114777 1.0060397 0.9769058 1.006814 0.9789552 0.98997146 0.99165434 0.9824475
1.0304195 0.9869316 0.98810303 1.0147219 0.98960364 0.9870172 1.0065724 1.0651962
0.99951535 1.0202954 1.0076202 0.98827726 1.0079882 0.97850156 0.9969509 1.0093774
1.012349 1.0148392 0.9753844 0.9967066 1.0035735 0.99023825 0.9788897 0.9739096
0.981869 0.99325186 1.0041683 1.0021924 0.98940676 1.0065894 0.9989496 1.0130221
0.99591976 0.9926508 1.0037949 1.0373157 0.9814261 0.98993194 1.0160197 1.003778

generator.conv4.bn.bias f4 [64]
00000000: c1fa 04bc 2652 aabc c63a 0d3c ed79 2dbc
00000010: d079 2c3c 0414 74bc dfda 18bc 7885 47bc
00000020: 950e 5bbb 91dd bfbc 1f6a 99bc 3650 a4bc
00000030: b3b8 5dbc 0954 aebb 51a9 1fbb c835 02bd
00000040: c2e0 17bb 07da 66bc 0b3b acbc 744e c0bb
00000050: e5ad 86bc 6f67 5ebc e5c3 1d39 a144 9dbc
00000060: e069 aabc 14e8 8ebc 6c42 70bc 086d 2e3a
00000070: 4660 d6bb ed3e 94bb 38ac d43b e05c 25bd
00000080: 4606 85bc 7cdf d3bc f204 acbc 1049 a9bc
00000090: 074e 96ba 6655 8cbc 0cb0 ebba fc6b cfbb
000000a0: 2f01 aebb a41f 0aba a673 ebbb bf33 4abb
000000b0: c934 49bb f456 33bb ce76 fcbb a031 99bc
000000c0: baf0 27bc 7d9d 55bc 1116 f1bb e69d debc
000000d0: 72b3 80bc 24d7 bdbb 9e88 81bc 68de c6bb
000000e0: f7ac bcbc 9069 c5bb baf5 48bb af43 f4bc
000000f0: c62f 8ebc e277 bb3b 3e4d 81bc cb9c 01bd
-0.008116425 -0.020791125 0.00861997 -0.010588151 0.010527089 -0.01489735 -0.009329527 -0.0121778175
-0.003342544 -0.02342108 -0.01872736 -0.020057779 -0.013532805 -0.0053200764 -0.0024362395 -0.03178957
-0.0023174738 -0.014090068 -0.021024248 -0.0058687273 -0.016440341 -0.013574465 0.00015045663 -0.019197764
-0.020802438 -0.017444648 -0.014664274 0.000665382 -0.0065422384 -0.004524103 0.0064902566 -0.040371776
-0.016238343 -0.025863402 -0.020998452 -0.020664722 -0.0011467346 -0.017130565 -0.0017981543 -0.0063300114
-0.0053101997 -0.0005268997 -0.007185417 -0.0030853597 -0.0030701628 -0.002736506 -0.0077045923 -0.01870042
-0.010250265 -0.013038036 -0.007357367 -0.027174901 -0.015710566 -0.005793469 -0.015812214 -0.0060689934
-0.023031695 -0.006024547 -0.0030664043 -0.02981743 -0.017356765 0.0057210783 -0.015783902 -0.03164367

generator.conv4.bn.running_mean f4 [64]
00000000: 360e 81bf 408e 1b3e 12e7 103f d322 94be
00000010: 3ae8 f1be e858 00bd 9e71 5a3f bc85 0fbf
00000020: 0ed6 efbe 1fa0 f13e aeec c13e dc15 b0be
00000030: daff 15bd d7f4 5e3e 15bd a6be 57ee 063e
00000040: 603c 7b3f 8f18 ca3e 3077 fcbd 2387 683d
00000050: 5467 173f 5697 263f 2517 103f fb32 6c3e
00000060: f52f 51bf 24c7 8b3f ef92 2bbe 2bc8 91be
00000070: 8893 e9be 2f9e 99be 5167 6cbf 9794 a2be
00000080: 9f4d 8cbe 0a7c 4ebe 4846 173e 6b79 efbe
00000090: d98b 1f3f 2c62 55be 4769 863f 1921 06be
000000a0: 7c1f 45bf d42b 32be 94ac 64bf ab46 473f
000000b0: 13e3 b23e 289d 363f e99c d7be 4189 423f
000000c0: f28b dc3e ef9e e53e 7945 6abc 5347 2e3f
000000d0: 462f eebd 1363 23bf 3ab6 59bf 9917 2e3e
000000e0: fc6a 9a3e 497f 34bf 6e55 91be 9b7f 873d
000000f0: 2e07 6cbe e2b5 4cbb 2dcd e6bd bc77 94be
-1.0082462 0.15190983 0.56602585 -0.2893282 -0.47247487 -0.031334788 0.85329616 -0.5606344
-0.46842998 0.47192475 0.37875885 -0.34391677 -0.036620952 0.21773086 -0.32566133 0.13176857
0.98139 0.39471862 -0.12327421 0.0567695 0.5914204 0.6507467 0.56285316 0.23066323
-0.817138 1.0920148 -0.1675527 -0.2847303 -0.4562037 -0.30003497 -0.9234515 -0.3175399
-0.2740297 -0.20164505 0.14772904 -0.46772322 0.62322766 -0.20838231 1.0500878 -0.13098563
-0.77001166 -0.17399532 -0.89325833 0.77842206 0.3493887 0.7133355 -0.421119 0.7599068
0.4307552 0.4484782 -0.01429879 0.6807758 -0.116301104 -0.6382305 -0.8504368 0.1700119
0.30159748 -0.7050672 -0.2838549 0.06616136 -0.23049614 -0.003123634 -0.11269603 -0.289976

generator.conv4.bn.running_var f4 [64]
00000000: db92 f43e 47f9 0b3f 1209 bf3e 968b a13e
00000010: be8e 8d3e 7448 b73e b507 aa3e 32b3 c63e
00000020: b1a2 ca3e 61d8 bf3e c770 af3e 35e6 743e
00000030: 90e4 b63e cf01 253f 8b8d a73e 0bb6 b93e
00000040: 095c 963e f071 ac3e 4685 b03e 82e3 a13e
00000050: 5f56 e93e 56a6 e73e 84bc d73e 2680 033f
00000060: 4e4c ba3e 896f 9d3e 2b0a c23e 0787 e13e
00000070: 918e d13e 09d2 b83e 8360 c13e e684 933e
00000080: 46ea 843e b271 9f3e b447 b03e 99ed e73e
00000090: 9b33 a03e 21b5 a23e daf9 073f cb3d 903e
000000a0: a64b 923e 7cb6 c43e 73c8 213f dbcc b33e
000000b0: d4b5 a63e daf4 f13e 916f 9f3e 49be 003f
000000c0: 939e a13e 02a0 cf3e 2895 d33e 8aa8 9c3e
000000d0: f23d c63e e438 8d3e 7820 c73e 472c a23e
000000e0: 0560 b33e c6df b93e 2bff f63e 1837 9d3e
000000f0: 2e98 f53e 40a4 f23e f2cc 0b3f b318 a83e
0.47768292 0.5467724 0.37311608 0.31551808 0.27647966 0.35797465 0.33209005 0.3880859
0.3957725 0.37469772 0.3426573 0.23915942 0.35721254 0.64455885 0.32725176 0.362717
0.29367092 0.33680677 0.3447668 0.31618887 0.45573708 0.45244092 0.42136014 0.51367414
0.3638634 0.30749157 0.37898383 0.4404833 0.40929082 0.36097744 0.37768945 0.2881233
0.25959986 0.3114143 0.34429705 0.4529846 0.31289372 0.31778815 0.5311562 0.28172144
0.2857334 0.38420475 0.63196486 0.3511723 0.325606 0.4725712 0.31139806 0.5029035
0.31566295 0.40551764 0.41324735 0.30597335 0.38719136 0.27582467 0.3889196 0.31674406
0.35034195 0.36303538 0.48241553 0.30706096 0.47967666 0.47390938 0.54609597 0.32831344
