dl/models/conv2d_pool_incre_depth_thinner/checkpoint.ckpt (torch, 528727 bytes, 22 tensors)

generator.conv1.conv.weight f4 [16, 1, 3, 3]
000000 25 68 48 be 07 81 a1 be af aa 86 3e d3 7f 9d 3e
       -0.19570978 -0.31543753 0.26302096 0.30761585
000010 a5 ba f3 bc 86 69 8a 3e 51 e9 78 be 58 3b 39 3e
       -0.029752085 0.27033633 -0.24307753 0.18089044
000020 a0 7d 29 3e 74 1b b3 bd e1 11 a4 3e 45 44 81 be
       0.16551828 -0.08745471 0.3204489 -0.25247398
000030 a6 54 ee bd b2 05 81 be c1 05 d5 3d e1 f3 0b 3d
       -0.11637239 -0.25199658 0.10401488 0.034168128
000040 e8 7d 78 be 9b 41 9e bc ab 47 78 bc 19 7d 8d 3d
       -0.2426678 -0.019318393 -0.015153806 0.06908626
000050 2d b1 69 3e eb dc 90 3e 0b 1a 58 be 6b ce 22 be
       0.22821493 0.28293547 -0.21103685 -0.15899055
000060 f2 98 a5 3c 92 da 0c 3e bf f0 32 3e d4 bf 5f 3e
       0.020214532 0.13755253 0.1747465 0.2185052
000070 bf 64 85 be 46 9e bf bc 6a 16 58 3e 49 69 f0 bd
       -0.26053426 -0.0233909 0.211023 -0.117388315
000080 7f 9b 2f bd a3 59 43 be ad a9 0c bd f0 b7 86 3e
       -0.042872902 -0.19077162 -0.034341503 0.26312208
000090 b1 ba 23 be 6b e7 7e 3e 2a 29 ad 3d 91 80 16 be
       -0.15989186 0.24892966 0.08455117 -0.14697482
0000a0 41 9e 83 3e d8 6a 32 be 88 39 38 be e8 ab c9 3d
       0.25706676 -0.1742357 -0.17990696 0.09847242
0000b0 b7 78 88 be 15 41 44 3d b5 bb 87 3e 8e 83 03 be
       -0.26654598 0.04791363 0.26510397 -0.12843153
0000c0 01 26 15 3e 23 69 ae bd 13 c6 9d 3e 26 d7 fb bc
       0.14565279 -0.08516147 0.3081518 -0.03074224
0000d0 6a 97 ae be fe 65 ed bd 4e 1e a0 bd fe 05 3b be
       -0.34099895 -0.11591719 -0.0781828 -0.18264005
0000e0 88 18 09 bd 58 78 9e 3e bb f8 ab bd 95 5c 30 be
       -0.03347066 0.3095119 -0.08397051 -0.17222817
0000f0 0a 87 12 be 55 3d ae 3e ee c3 86 be 46 5f 31 3d
       -0.14309326 0.34031168 -0.26321357 0.04330375
000100 ac 72 e6 bd ac ac 9f bd 28 a0 cd bd 15 f3 43 be
       -0.11252341 -0.077966064 -0.10040313 -0.19135697
000110 02 c9 c2 bd a6 eb 8c 3e e3 91 12 bc 34 7d 31 3b
       -0.095109954 0.27523535 -0.008945915 0.0027082684
000120 fa 4b a6 3c d7 36 ae bd 27 8e 85 be 57 8a 86 3c
       0.0202999 -0.085065536 -0.26085016 0.016423387
000130 54 bb ad 3d 13 d7 41 be 31 a5 8f 3e 2c 6e 80 3e
       0.08482996 -0.189297 0.2805572 0.25084054
000140 05 8e 77 3e bd 62 96 be a4 e6 f2 3d 4d 0c fc bd
       0.2417527 -0.29372206 0.118603975 -0.12307034
000150 d0 d4 a1 be 4e 2a 5f be 73 d4 a9 be 93 1a 5a 3d
       -0.31607676 -0.21793482 -0.33169898 0.053248
000160 92 84 8f be b1 bc 9a 3d 31 94 21 3e 9a a4 99 be
       -0.2803083 0.07555521 0.15779187 -0.30008394
000170 4e 10 8d 3c 9c 09 3f 3e f4 d6 33 3d d5 93 70 be
       0.017219689 0.1865601 0.043906167 -0.23493893
000180 aa ed 78 be cb ae 6c 3e 45 07 19 3e 45 b8 51 3e
       -0.24309412 0.23113553 0.1494418 0.2048045
000190 f4 22 95 bd f4 64 a9 bc dd b9 ad bd e7 52 83 be
       -0.072820574 -0.020678021 -0.08482716 -0.25649187
0001a0 31 15 b8 3d e3 29 0d be 4f ff 79 be bd a5 1c 3e
       0.08988417 -0.1378551 -0.24413799 0.15297599
0001b0 76 32 3f 3e 14 5a 18 be 17 f9 80 bd 26 89 2b bc
       0.18671593 -0.14878112 -0.0629751 -0.01046971
0001c0 54 e6 91 3e 1b f9 6f be 45 7b 00 3e 54 02 6c 3e
       0.2849604 -0.2343487 0.12547024 0.23047763
0001d0 af b4 a1 be 45 06 36 bd 26 03 9e 3e 8a bb 1c 3d
       -0.31583163 -0.044439573 0.30861777 0.03826479
0001e0 f4 f5 01 3e 8f 74 b0 ba 46 0c 71 bd 47 f4 79 be
       0.1269148 -0.0013462472 -0.058849595 -0.2440959
0001f0 ba a8 2d 3e 6a 3c 83 3e 9e 1a 70 be 09 9b ec bd
       0.16958895 0.2563203 -0.23447654 -0.11553008
000200 59 23 4b be 8c 86 7f 3e 87 75 9b 3e e0 5d b0 3e
       -0.19837703 0.2495367 0.30363104 0.3444662
000210 7c 9f 2a be 86 10 31 be 36 76 3a be 41 a0 10 be
       -0.16662401 -0.1729146 -0.18209156 -0.14123632
000220 3d 81 a3 be d0 35 b7 bd e3 b5 14 be bd 20 8f 3e
       -0.31934538 -0.08945811 -0.1452251 0.27954665
000230 b3 9d b8 bd fe a3 00 bd f5 57 49 3e 0d d5 a2 3e
       -0.09014454 -0.031406395 0.19662459 0.3180317

generator.conv1.bn.weight f4 [16]
000000 51 4b 7f 3f f1 fa 7d 3f 81 98 7d 3f 71 bb 7b 3f
       0.997243 0.9921103 0.9906083 0.9833289
000010 fd 95 7f 3f 3d 13 81 3f be d8 7d 3f e4 18 81 3f
       0.9983824 1.0083996 0.9915885 1.0085721
000020 38 39 80 3f a8 2a 7d 3f da 41 80 3f b9 7a 7f 3f
       1.0017462 0.98893213 1.0020096 0.99796635
000030 6f d6 81 3f 81 1c 7e 3f 75 52 82 3f 27 8a 80 3f
       1.0143565 0.99262244 1.0181414 1.0042161

generator.conv1.bn.bias f4 [16]
000000 b8 63 02 3b f0 93 2b bc 66 51 a7 bb 64 47 ec bc
       0.0019895863 -0.010472283 -0.005106139 -0.028842635
000010 19 f0 94 3c 57 89 1b 3d d9 6f ab 3a ff d6 ad 3c
       0.018180894 0.037972774 0.0013079598 0.021220682
000020 69 e7 f3 3c 35 b7 6d bc 62 f7 8a 3d aa 18 e4 bb
       0.02977343 -0.014509012 0.06785466 -0.006960948
000030 bf 5a 0e 3d b4 d9 99 bc 2a 71 bb 3c 11 10 84 3d
       0.03475451 -0.018780567 0.02288111 0.06448377

generator.conv1.bn.running_mean f4 [16]
000000 5b 15 23 3c b0 23 4c bc 47 15 5e 3c f0 dd a9 3a
       0.009953822 -0.01245968 0.013554878 0.0012959819
000010 00 b9 e5 bb 9d 12 fa 3a 4b 67 03 bc cb 74 c3 bb
       -0.007010579 0.0019079034 -0.008020232 -0.0059648505
000020 40 17 0b 3c 8d 2a 04 bd 2b 85 48 39 4f 4d 04 bc
       0.00848943 -0.032267142 0.00019123095 -0.008075072
000030 db f0 4c 3a ce 37 57 3c 43 36 aa bb cd ae ab ba
       0.00078178727 0.0131358635 -0.005194457 -0.0013098359

generator.conv1.bn.running_var f4 [16]
000000 5f 3b 5e 3d d5 68 7a 3d 20 b6 70 3d bc 32 ab 3b
       0.05425584 0.061135132 0.058767438 0.005224554
000010 02 63 a1 3c b5 ad 3d 3c 9c 47 ea 3c 44 77 ce 3c
       0.01970053 0.0115770595 0.0285986 0.025203355
000020 60 b8 57 3d ac f4 c7 3e 22 47 ad 3b d9 3a 2a 3d
       0.052666068 0.39053857 0.0052880207 0.041560028
000030 f2 a9 a0 3c 03 d5 97 3d 11 18 59 3c 16 af b6 3c
       0.019612286 0.07413676 0.013250367 0.022300284

generator.conv2.conv.weight f4 [32, 16, 3, 3]
000000 d9 f0 ab 3c d5 9e 32 3d 57 2d 7d 3c fd 81 2c b9
       0.020988869 0.043608505 0.015452704 -0.00016451623
000010 9e 93 52 bd 94 2a db 3c ad a6 3c 3c 1b c3 79 3c
       -0.05141031 0.026753701 0.011514348 0.015244271
000020 d1 c7 69 3d cf a0 57 bd 01 fe 58 bd aa 61 cd 3c
       0.057075325 -0.052643593 -0.052976612 0.025070984
000030 ec 99 0d bd 5f 55 54 bd 4e ff 96 3d 59 c0 af bd
       -0.03457062 -0.05183923 0.07372914 -0.08581609
000040 30 5e a7 3d 99 cf a7 3c de b1 80 bd 8a ef bb 3c
       0.08172262 0.020484732 -0.062839255 0.02294137
000050 80 a8 64 bd 93 5d 78 3d 25 ea 40 3d f7 6b 18 bd
       -0.055824757 0.060636114 0.047098298 -0.03721234
000060 6c 19 d4 3b 89 77 76 bd 47 aa 8f 3d d4 fa 1e bc
       0.006472757 -0.06017259 0.070149 -0.009703357
000070 41 c1 9d bd 12 8d 84 bd 08 f5 87 bd 1a 15 9a bd
       -0.07702876 -0.064722195 -0.06638533 -0.07523556
000080 a1 1d 5f 3d e0 e8 21 bd 9d 6c 7f bd c7 66 05 b9
       0.054471616 -0.039528728 -0.06235944 -0.00012722156
000090 10 4d 9f bd a0 a9 1d 3d 34 28 6d 3c 20 0f 4f 3c
       -0.077783704 0.038491845 0.014474917 0.012637883
0000a0 49 57 f6 3b 7b 50 26 bd 2c b4 6a bb 4c d5 05 3d
       0.0075177294 -0.040604096 -0.0035812957 0.03267412
0000b0 a3 f0 3a bd ab 0f 81 bd f7 42 86 bd 0b 41 fe bc
       -0.045639645 -0.063018166 -0.06555741 -0.031036874
0000c0 11 ea 36 bc 1a e8 4c bd 38 0f 45 3d 45 b1 7e bd
       -0.011164204 -0.050026037 0.048110217 -0.062180776
0000d0 d2 12 d8 3c 5a 80 b3 bc 6d 08 34 bc 5d 2a 66 3d
       0.026376162 -0.021911789 -0.010988337 0.056192745
0000e0 fe dc 7a bd 1b 12 b1 bb 2d df 7e bd 9b 0b 16 bd
       -0.06124591 -0.0054037697 -0.062224556 -0.03663216
0000f0 7a ac 3f bc 08 35 2d 3d f4 0b 41 bc 64 57 1c 3c
       -0.011698836 0.042286903 -0.011782635 0.00954232
000100 f9 26 4b bd 3c b0 d2 bc 15 90 85 bd 30 8b 78 bd
       -0.049597714 -0.0257188 -0.06521622 -0.060679615
000110 17 db 0f bc 92 8b 9e 3b d0 37 9e 3b f3 10 46 3d
       -0.008780262 0.0048384154 0.0048284307 0.048356008
000120 30 5f 8b bd 30 e5 43 3d ad 01 95 3c 4f e2 54 bb
       -0.06805265 0.047825992 0.018189276 -0.0032483523
000130 6e 56 9f bc 2b 4f d1 bc 4c 79 b9 bc 69 76 6d bd
       -0.019450393 -0.025550446 -0.022640847 -0.057974253
000140 c6 32 d8 3c 92 89 78 3d 6c de 99 3d 6a c2 61 bc
       0.026391398 0.060678072 0.07513127 -0.013779262
000150 19 2b 7b 3d 88 1c f5 3a 2b 55 3f 3c 8b 83 01 3d
       0.061320398 0.001870052 0.0116780205 0.03161959
000160 20 10 f3 bc fa 6b 8e 3c 87 87 b0 bc 1d 15 bc bd
       -0.029670775 0.017385472 -0.021549 -0.091837145
000170 bc 6d a2 bd 3d 36 bc bd 6b 0e 11 bd 2f ee 96 bd
       -0.079310864 -0.09190033 -0.03541414 -0.07369649
000180 8b 3d d9 bd 03 ee 20 3d a9 a4 3b 3d a5 48 cd 3c
       -0.106074415 0.039289486 0.04581133 0.025059054
000190 31 ef f4 bc c8 90 00 bd 7d d1 a5 3a fb d1 a2 3d
       -0.029899212 -0.031388074 0.0012650933 0.07950207
0001a0 a2 d7 19 bd 8f 15 b7 bc ac ae 20 bc 8f 27 00 bc
       -0.03755916 -0.022349147 -0.00980727 -0.0078219315
0001b0 ef 5b ac bc 3a cc d4 3c 4a 1f 00 3d fb 33 b5 3d
       -0.021039931 0.025976289 0.03127984 0.08847805
0001c0 3e 8d b5 bc 1a 28 3a 3d 33 87 35 3d 72 1f 40 3d
       -0.022162076 0.0454484 0.04431839 0.04690499
0001d0 4d e2 2d 3d e0 7a a9 3c 7c bd 63 bd 88 aa 8c 3d
       0.042452145 0.020688474 -0.05560063 0.06868464
0001e0 dd 35 f9 3c a6 4d 89 bc 59 da a4 3d 3f 0b 6f bd
       0.030421192 -0.016760658 0.08049459 -0.058360334
0001f0 78 7d 33 bd 97 c3 9e 3b ea f6 84 bd c2 5b 21 3d
       -0.04382083 0.0048450935 -0.064924076 0.039394148
000200 5e 45 02 3d 6f a0 d3 3c 86 c6 2c bd 90 2b 4e 3d
       0.031804435 0.025833337 -0.042181514 0.050334513
000210 8a 00 a8 bd 52 56 14 3c 4f ac 07 3d 9a 4f 7c 3b
       -0.08203228 0.0090537835 0.03312331 0.0038499595
000220 d4 9d e2 3d 14 17 84 3d c0 02 a6 3d e1 5a 98 3c
       0.110652596 0.06449714 0.08105993 0.018598022
000230 00 87 27 bd da 05 84 bd aa ea ca bd 80 a7 9f 3d
       -0.04090023 -0.064464286 -0.0990804 0.0779562
000240 9c eb a7 3c 76 f4 28 3d aa e8 00 3d 66 c9 08 bd
       0.02049809 0.04124876 0.031471886 -0.033395194
000250 76 b8 b0 bd 60 b5 b0 bd 58 2c b7 3d 08 fc 56 bd
       -0.08628933 -0.086283445 0.08944005 -0.05248645
000260 76 c4 0a bd 6b f8 28 3c 8a 91 69 bc 42 66 8f 3d
       -0.033878766 0.010313134 -0.014255891 0.07001926
000270 d8 42 96 3c 25 51 22 3d 4e 78 10 bd 9f f8 66 3d
       0.01834242 0.039628167 -0.03527098 0.056389447
000280 9a 23 5b bb 4e e6 3b bd 18 60 d2 bd 14 b5 c8 bd
       -0.0033437968 -0.045873933 -0.10272235 -0.09800163
000290 a0 95 3c 3d 9b bc 29 3d 88 d1 9f bd 63 d0 48 3d
       0.04604113 0.041439634 -0.07803637 0.049026858
0002a0 cb 35 08 3d f6 85 af 3d fe 8d 05 3d f7 b8 83 3c
       0.033254426 0.08570473 0.032606117 0.016079409
0002b0 9b e6 b7 bd b3 91 60 3d c1 ae a0 bd 64 70 94 3b
       -0.089795314 0.05482645 -0.07845832 0.0045299996
0002c0 60 85 0f bd c6 78 5c bd fa 09 86 3c 80 b4 97 3d
       -0.035039306 -0.053826116 0.01636218 0.074074745
0002d0 a3 65 96 bd 55 15 a6 3c 20 7b 94 3d d9 ce 04 bd
       -0.073436044 0.020273844 0.07250047 -0.032423828
0002e0 cd 21 ba bd bc c3 27 bc 4d 52 c8 bb b4 43 4d 3d
       -0.09088478 -0.010239538 -0.0061133266 0.050113395
0002f0 c9 b8 75 bd 39 25 32 3d 6e 2e af bd 16 13 a2 bd
       -0.059990678 0.04349253 -0.08553778 -0.079137966
000300 b6 e3 a9 bc 96 58 83 bc fc 25 ab 3a 77 b7 87 3d
       -0.020738464 -0.016033452 0.0013057585 0.0662679
000310 a6 d4 e5 bc dc 32 3b bc 9e 71 16 bd 1f 3c ad 3c
       -0.0280555 -0.0114257 -0.036729448 0.021146832
000320 e5 49 1f 3d 8a a9 6b 3d 73 0e 9a 3d 64 7b b8 3d
       0.03888883 0.057534732 0.07522287 0.0900791
000330 c3 d6 80 3d 72 31 18 3d e3 fb 5b bd 91 e0 b8 bc
       0.062909625 0.03715653 -0.053707015 -0.02256802
000340 50 df 78 bc 7a c8 63 bd f2 e0 e0 bc ef 2e af 3d
       -0.015189961 -0.05561111 -0.027451012 0.08553874
000350 40 e5 80 3d ef 9c 69 bd 2c bc 47 3d 65 6c df bc
       0.06293726 -0.05703443 0.04876344 -0.027273366
000360 5c 6a c1 bb c2 ca ae bc 4d 6f 42 bd f5 30 1b bd
       -0.0059025716 -0.021336917 -0.047469426 -0.037888486
000370 36 e1 a1 bd ca 95 af bc f3 a7 8f 3c 10 df 3b 3c
       -0.07904284 -0.02143373 0.01753614 0.011466756
000380 8b 66 7d bc e1 aa 9b bd f3 18 0f 3d f7 66 84 3d
       -0.015466343 -0.07600952 0.034935903 0.064649515
000390 16 8d 19 3d 26 5b bf bd da a0 4d bd d1 8c 7a 3d
       0.037488066 -0.09343557 -0.050202228 0.06116945
0003a0 16 0d 8e bd 9e d4 9a bc 74 9c f1 3c 0e 60 5a 3d
       -0.0693609 -0.018900212 0.029493548 0.05331426
0003b0 32 f3 9a 3d 8d b0 24 3c a2 b3 15 bd 98 19 3f bd
       0.07565917 0.010051859 -0.036548264 -0.046655267
0003c0 03 65 8c 3c 70 95 4e bc 00 16 55 bc 3d 07 7b 3c
       0.01713801 -0.012608871 -0.0130057335 0.01532155
0003d0 0b e5 90 bd f3 2a 4c bc 26 4d 61 3d 51 cd 8c bd
       -0.070749365 -0.012461412 0.055005215 -0.068750985
0003e0 be 41 7f 3d de 2f f6 3c 6d a7 5e bd 2b 4e 08 bd
       0.062318556 0.030052122 -0.05435889 -0.03327767
0003f0 ee 17 0a 3d 28 cd b9 bc 14 15 a8 bd 7d d6 12 3d
       0.033714227 -0.022680834 -0.08207145 0.035849083

generator.conv2.bn.weight f4 [32]
000000 a0 45 88 3f 50 ec 79 3f 79 3e 7e 3f 62 18 88 3f
       1.0646248 0.9762621 0.99314076 1.0632441
000010 9a 77 80 3f 81 bb 7d 3f 3b 84 7b 3f 1d 2d 80 3f
       1.00365 0.99114233 0.9824864 1.0013767
000020 67 63 7e 3f 74 81 81 3f 3f d5 79 3f 9f a5 76 3f
       0.99370426 1.0117631 0.9759101 0.9634647
000030 f5 88 7d 3f 45 d1 84 3f 32 e6 84 3f 9e 50 7d 3f
       0.99037105 1.0376364 1.038275 0.9895114
000040 0c b0 83 3f 62 93 83 3f 52 59 7b 3f 92 bb 86 3f
       1.02881 1.0279353 0.98183167 1.0525992
000050 91 73 78 3f 26 86 7e 3f bd 74 7a 3f be b4 7f 3f
       0.9705134 0.99423444 0.9783438 0.99885166
000060 3b f5 81 3f 45 fa 79 3f 23 87 75 3f a8 f0 76 3f
       1.0152963 0.97647506 0.9590933 0.9646096
000070 bf 36 7a 3f 29 e6 81 3f b3 67 83 3f 34 a7 7c 3f
       0.97739786 1.0148364 1.0266021 0.9869263

generator.conv2.bn.bias f4 [32]
000000 b9 05 cc bc 7b 1d 8b bb 48 b0 0c 3d 94 6b b6 bc
       -0.024905073 -0.0042454577 0.034347802 -0.022268094
000010 a6 a1 54 3b 40 67 fc 3b 74 e9 14 bc 64 1f 1d 3d
       0.0032444983 0.007702738 -0.009088863 0.038360015
000020 75 50 00 bb 23 b0 ce bb 3a ad cd 3c f3 c6 ad bc
       -0.0019579206 -0.006307618 0.025107015 -0.02121303
000030 f5 a7 76 3b 68 21 64 bc c5 f6 da bb 65 c6 bb bc
       0.0037636731 -0.01392398 -0.0066822493 -0.02292175
000040 7e 41 ae ba 7c 10 8c b9 41 7c 0e bc 17 3e 9c bb
       -0.0013294665 -0.00026715163 -0.008696617 -0.004768144
000050 25 a7 02 3d 1b 4c 95 3b fc 81 34 bc fc 12 f5 3a
       0.031897683 0.0045561916 -0.011017319 0.0018697674
000060 84 58 50 bd a2 90 f8 3c 6d 55 39 3c b0 be c8 bc
       -0.050865665 0.030342404 0.011311871 -0.02450499
000070 16 38 f9 3c db 1d 0d 3c 70 54 32 bc 9e 50 32 3c
       0.030422252 0.008613075 -0.010884389 0.010883478

generator.conv2.bn.running_mean f4 [32]
000000 a4 aa 03 bf f0 d2 6b be 91 d3 1d 3f 04 7c 49 bf
       -0.5143225 -0.23029685 0.6165095 -0.7870486
000010 df 6b 14 3e 77 a0 32 be 71 88 49 3f ff db bd bc
       0.14494275 -0.17444025 0.7872382 -0.023176191
000020 dc 45 f4 be 75 d4 32 bf e4 6c 09 be ba 8e de be
       -0.47709548 -0.69855434 -0.13420445 -0.43468267
000030 31 fa 41 3f 99 81 ed be 6e a4 6a 3d 25 8d 29 3f
       0.75772387 -0.46387938 0.05728572 0.66230994
000040 2b 84 f6 be 79 2a 10 be 99 99 54 3e 25 29 65 be
       -0.4814771 -0.14078702 0.20761718 -0.22378977
000050 e1 90 e2 bd 2f 12 6b be 24 4e 78 3f 76 79 8e be
       -0.1106279 -0.22956155 0.96994233 -0.27827042
000060 40 22 33 bd 54 cd 80 3e 7d 3e 26 3c db 10 34 be
       -0.043733835 0.25156653 0.010146734 -0.17584555
000070 5a d7 3c 3d d4 e9 33 be 07 c7 26 bd 35 e9 13 3f
       0.046103813 -0.17569667 -0.04071715 0.5777772

generator.conv2.bn.running_var f4 [32]
000000 d1 4e a1 3e 05 6f ca 3e 29 2d 73 3e 74 91 c9 3e
       0.31505445 0.39537826 0.23747696 0.39368784
000010 d8 06 92 3e ee 86 21 3e 72 df c4 3f 20 62 05 3e
       0.28520846 0.15774128 1.538069 0.13025713
000020 7c ca 58 3e e5 26 75 3e d4 f3 82 3e fb df c7 3f
       0.21170992 0.23940618 0.2557665 1.5615228
000030 b3 9c f8 3e 30 ee 5d 3e 03 4c 9e 3e af e9 40 3e
       0.48557052 0.21672893 0.30917367 0.18839143
000040 2d 5b b6 3e 6b ea 19 3e 30 0b 3c 3e ae 8d 7b 3e
       0.35616437 0.1503083 0.18363643 0.24565765
000050 30 ae 32 3e 8e d4 ac 3e cf d2 94 3e 3e 9b 5d 3e
       0.1744926 0.33755916 0.29067084 0.21641251
000060 ae 34 30 3e 9a 57 29 3e 38 f2 21 3e 24 b3 65 3f
       0.17207596 0.16537324 0.15815055 0.8972647
000070 63 1e 4a 3e d5 8b 61 3e 61 24 82 3e 61 9c 8d 3e
       0.19738154 0.22025998 0.2541838 0.2765837

generator.conv3.conv.weight f4 [64, 32, 3, 3]
000000 e2 50 af bc 01 aa ed bc a9 24 6e 3d a1 a4 44 3c
       -0.021400873 -0.029011728 0.05814043 0.012002141
000010 32 b6 08 3d fc 7b 69 bb 43 7f 42 3d 5f 4b 0e bd
       0.03337688 -0.003562688 0.047484647 -0.03473985
000020 21 d1 5a bd 7b 32 3b 3d a3 34 2a 3d cc a1 31 3d
       -0.053422097 0.04570244 0.041554105 0.043367192
000030 2b ab 99 3c 3c 41 35 3c b8 06 13 bd 96 5d 7a 3d
       0.018758377 0.011062916 -0.03589508 0.061124407
000040 73 d1 06 3d e4 0a 40 bd 84 8f ad bc 9e 5d 14 bd
       0.03291459 -0.046885386 -0.021186598 -0.036222093
000050 8d 76 5e bc 41 b0 a7 bc 1e 40 27 3d c2 f3 5f bd
       -0.013578069 -0.020469787 0.04083263 -0.054675825
000060 27 19 9e 3b 7b 3d 2c 3d eb dc 3e bc d8 b0 98 bb
       0.0048247757 0.04205082 -0.011649351 -0.0046597533
000070 a5 cd 69 3d 9b fc de bc fe f3 c0 bc 16 50 e5 bc
       0.057080884 -0.027220061 -0.023553845 -0.02799229
000080 9b 80 9f bc dd ad 9e 3c 2e 40 63 3c c4 3f 32 3d
       -0.019470504 0.019370014 0.013870282 0.043517843
000090 20 17 99 bc 74 c4 eb bc 98 f8 4e bd 15 ac 1f bd
       -0.018687785 -0.0287802 -0.050530046 -0.03898247
0000a0 cb e3 50 3d c2 1c df bc fe c8 2c bc f8 c9 0a 3d
       0.05099849 -0.027235392 -0.010545967 0.03388402
0000b0 9e 12 07 bc 57 e2 a6 bc 09 02 d6 3a 68 a8 1e bd
       -0.008244185 -0.0203716 0.0016327511 -0.038734823
0000c0 c9 30 28 3c e7 7c 35 bd 62 66 ed bc 15 e6 0c 3d
       0.010265538 -0.04430857 -0.028979484 0.03439911
0000d0 2d 5c 67 3b ee 3e 3a 3b 1e e2 1b bc cc 19 99 ba
       0.0035302744 0.0028418857 -0.00951436 -0.0011680662
0000e0 48 aa 42 bc ed d9 db 3c 0e b8 9a 3b c2 26 36 3d
       -0.0118814185 0.026837314 0.004721648 0.044470556
0000f0 70 f0 05 3d 6b 0b b2 bc 36 59 33 3d 4b 4b 9a 3b
       0.032700002 -0.02173396 0.04378625 0.0047086827
000100 3f 57 51 bd 30 17 f3 bc 56 bc 31 3a f9 18 03 3d
       -0.051108595 -0.029674143 0.00067800784 0.032006238
000110 87 a1 2e 3d f7 2a 85 3c 5d ef 80 3d ab b6 de 3c
       0.042634513 0.016255839 0.06295655 0.027186712
000120 9b 2e bd 3c ae 04 74 3c 56 3b 33 bd 3b 8b 0e bd
       0.023093512 0.014893694 -0.04375776 -0.03480075
000130 2f cd 9f 3c ad 62 af ba b1 a8 af bc fb 2a 31 3d
       0.019507019 -0.0013380848 -0.021442743 0.04325388
000140 79 56 de bc e4 2e ea bb 5d c6 1d 3d de 78 69 3d
       -0.027140843 -0.007146703 0.038519252 0.057000034
000150 f7 db 7b bc 57 ee fb 3c ad 05 86 3d 4f 1e 53 bd
       -0.015372268 0.030753298 0.06544051 -0.051542576
000160 ad fc 20 bb 95 67 5d 3d f6 b0 87 bc 9f 53 62 3c
       -0.002456467 0.05405386 -0.016563874 0.013813882
000170 7d b2 f1 3c 4a 91 ed bb 7c d8 08 3d aa 3e 85 3c
       0.029504055 -0.007249986 0.03340958 0.016265232
000180 1e 50 0e 3c d8 0c 0f 3d af f3 56 3c e7 54 f8 3c
       0.008686094 0.034924358 0.013119622 0.030313922
000190 8c 90 bb 39 99 74 81 3d 94 63 ea bc 06 31 c6 3c
       0.00035775115 0.06321067 -0.028611936 0.024193298
0001a0 9a 46 3d bc 4f 7f ae bc da 2a cb bc 22 85 71 bd
       -0.011552477 -0.02130094 -0.024800707 -0.058964856
0001b0 44 05 25 bd 7d fc 00 3d 50 68 01 3d 20 87 a3 bc
       -0.040288225 0.03149079 0.03159362 -0.019961894
0001c0 a4 90 13 3d e5 46 33 bd d6 42 35 3d cc 1a 2a 3c
       0.036026612 -0.043768782 0.044253193 0.010382365
0001d0 73 a3 fc 3c 25 0e 31 bc 36 71 81 bd 86 c9 80 bc
       0.030839657 -0.010806595 -0.063204214 -0.015721094
0001e0 c6 25 55 bc 6f 69 aa 3c fc e8 5a 3d a0 c3 6c 3d
       -0.013009494 0.020802228 0.053444847 0.05780375
0001f0 2a 4f 35 3d 6c f2 13 bd 7b 62 cf 3c ad ad 01 3d
       0.04426495 -0.036119863 0.025315514 0.03165977
000200 d2 8f bb 3c df 5d ab 3c 11 5b 12 39 59 3b 95 bc
       0.022895727 0.020918785 0.0001395757 -0.018216776
000210 38 43 eb 3c 94 d3 2d bd aa 9b 14 3d e1 fd 4f bd
       0.028718576 -0.042438105 0.036281265 -0.050779227
000220 d1 2e 29 bd eb d8 16 bd 8a 95 a1 3c 38 fb 6f 3a
       -0.041304413 -0.036827963 0.019724626 0.0009154561
000230 94 ad 47 3d 6d 11 8a bc f4 12 df 3c 2d a7 1e 3c
       0.04874952 -0.016854012 0.027230717 0.0096834125
000240 f2 45 74 3d 0e d8 ae bc d2 b2 e8 bb 1d 0b 27 b9
       0.059637018 -0.021343257 -0.007101395 -0.00015930501
000250 04 2d 01 3d e9 43 b1 3c de d7 ad ba 4d ee 25 bd
       0.03153707 0.021638827 -0.0013263186 -0.040510464
000260 04 4c d7 bc 69 8c 8f bc d3 8b 87 3c a3 ca 50 3d
       -0.026281364 -0.017523007 0.016546166 0.0509745
000270 76 60 b9 bc b6 a5 eb bc 2d 18 a7 bd 67 bd 1f bd
       -0.022629004 -0.02876554 -0.08158908 -0.038998988
000280 db d7 56 3b 77 41 04 bd 9a cd 7c bb c3 8c 29 3d
       0.0032782468 -0.032288995 -0.0038574697 0.041394006
000290 2c 9f b0 3c 8f 69 03 bd db 60 2e bd b5 88 0f 3c
       0.021560274 -0.03208309 -0.042572837 0.008760621
0002a0 64 bb c2 bc d4 26 1a bd 48 5b 22 bd 7d 23 15 3c
       -0.023770995 -0.037634686 -0.039637834 0.009102699
0002b0 d1 2e fd bc 78 bc 91 3c d3 8c 46 3d 60 5e 88 bd
       -0.030906113 0.017790064 0.048474144 -0.066586256
0002c0 ad 98 83 3c c3 aa 9e bd 55 84 e6 bc c2 3c d3 3c
       0.016064012 -0.07747414 -0.028139273 0.025785808
0002d0 54 df 53 bd fb f5 56 bb 45 4c d6 3c 57 8f 49 bd
       -0.051726654 -0.0032800424 0.026159415 -0.049208965
0002e0 3d c2 d2 3c 09 f6 25 bd 5a fb 11 3c 78 ba c6 bc
       0.025727386 -0.04051784 0.008910025 -0.024258837
0002f0 89 be 4a bd 1f e1 c3 bc b9 b3 e7 3b c9 60 77 3d
       -0.049498115 -0.023911057 0.007070985 0.060395036
000300 90 98 58 bc 26 05 ca bc 85 7f e0 3b 7f f6 56 bc
       -0.0132199675 -0.024660658 0.006851139 -0.013120293
000310 3d 98 c4 bc 6c 4b e8 bc e6 5e 07 bb 8d b5 b0 3c
       -0.023998374 -0.028356276 -0.002065593 0.021570945
000320 76 6a aa bb 79 13 11 3d 72 39 4d 3d 99 38 a4 bc
       -0.0052006794 0.03541896 0.050103612 -0.02004652
000330 ca 8b 69 3d 14 68 0e bd c5 54 34 3b 8a 99 78 bd
       0.05701808 -0.034767225 0.0027516347 -0.0606933
000340 36 bf 8c bc 15 de 81 3d 04 e2 98 bc b6 51 32 3d
       -0.01718102 0.06341187 -0.01866246 0.043534957
000350 8d 8d 25 3d fb e9 26 bd 30 15 90 bc d3 c2 ca bc
       0.040418196 -0.040750485 -0.017588228 -0.024751103
000360 39 41 33 bd 40 28 c7 bc cc 54 a2 bb 76 40 a0 3c
       -0.043763373 -0.024311185 -0.004953956 0.019561987
000370 ee 6b b9 3c cf 17 4d bd 9a 6a ac bc 35 e3 95 bd
       0.022634473 -0.050071534 -0.021046925 -0.07318727
000380 81 f2 95 3c 64 e5 0b 3d d5 b9 42 3c 7b f8 3e bd
       0.018304111 0.03415431 0.011885126 -0.04662369
000390 c4 73 3b 3d ed fa 13 3d cb a0 6b 3b 75 e1 9e 3c
       0.0457647 0.036127973 0.0035953994 0.019394616
0003a0 67 e0 bf bc 84 81 07 bd d1 74 29 bb 78 83 41 bd
       -0.023422433 -0.0330825 -0.0025856982 -0.04724452
0003b0 fa dd e9 3c 17 e5 72 3c 41 a2 80 3c 67 79 49 3c
       0.02854823 0.014825127 0.015702369 0.012297011
0003c0 21 f4 22 bd 1c 97 9c 3c ee 4b 50 bb 37 e7 1f bd
       -0.0397836 0.019115023 -0.003178354 -0.039038863
0003d0 9e df 09 3d c8 c3 71 3d fe c4 bb bc c8 65 27 bc
       0.033660524 0.059024602 -0.022921082 -0.010217138
0003e0 15 a7 45 3d 93 74 e7 3b 67 05 e3 bc 3e e6 43 bd
       0.048255045 0.0070634573 -0.027712537 -0.047826998
0003f0 d3 51 43 3a 30 20 8b 3d 72 5c a0 3c 17 47 0e bc
       0.00074508524 0.06793249 0.019575331 -0.008683941

generator.conv3.bn.weight f4 [64]
000000 d4 bb 78 3f ff b4 81 3f c9 d2 80 3f f1 76 7b 3f
       0.971616 1.0133361 1.0064327 0.98228365
000010 07 59 7b 3f 5c e3 7e 3f df 88 7e 3f 28 7c 80 3f
       0.9818272 0.9956567 0.994276 1.003789
000020 90 68 81 3f 1e 78 7f 3f ed 8f 80 3f fa f4 7f 3f
       1.0110035 0.9979266 1.0043923 0.9998318
000030 40 87 83 3f a7 00 80 3f ae 57 7c 3f 23 fd 7a 3f
       1.027565 1.0000199 0.9857129 0.98042506
000040 ef 8d 80 3f 48 0a 7a 3f 59 93 7d 3f 0b 8e 7f 3f
       1.0043315 0.9767194 0.9905296 0.99826115
000050 8b 4e 80 3f 25 1f 80 3f 0a 51 81 3f 93 82 7f 3f
       1.002397 1.0009505 1.0102856 0.99808615
000060 0d 6d 7a 3f e4 b0 82 3f d2 b4 7e 3f 1e 15 80 3f
       0.9782265 1.0210233 0.9949466 1.0006444
000070 33 b5 81 3f 6b c0 7c 3f 25 3a 87 3f 04 98 81 3f
       1.0133423 0.98731107 1.0564619 1.0124516
000080 ca 15 82 3f b4 29 7b 3f 05 d8 81 3f d5 30 7e 3f
       1.01629 0.9811051 1.0144049 0.9929326
000090 32 55 84 3f ab a7 7e 3f 93 77 7d 3f 36 15 82 3f
       1.03385 0.9947459 0.9901058 1.0162723
0000a0 b4 3a 7e 3f c7 64 7d 3f fd 29 7c 3f 4e 69 80 3f
       0.99308324 0.989819 0.9850157 1.0032136
0000b0 11 e3 81 3f 2e a3 80 3f f2 1c 7c 3f cd 31 81 3f
       1.014742 1.0049798 0.9848167 1.0093323
0000c0 ac 66 82 3f 16 fa 81 3f bf bc 7c 3f 2a 0f 7c 3f
       1.0187583 1.0154445 0.98725504 0.9846064
0000d0 93 43 7f 3f 54 76 7c 3f 19 85 7a 3f 5b 40 83 3f
       0.99712485 0.98618054 0.9785934 1.0254015
0000e0 04 c9 7d 3f 7c c5 7e 3f 5f 24 80 3f 92 34 7d 3f
       0.9913485 0.9952009 1.00111 0.9890834
0000f0 ca 00 81 3f bd 24 7e 3f 74 08 7d 3f 97 e8 7f 3f
       1.0078366 0.9927481 0.98841023 0.9996428

generator.conv3.bn.bias f4 [64]
000000 fe 04 38 bd 4f 2d a0 bb 7d c8 15 bd f1 7b ce bc
       -0.044926636 -0.0048882137 -0.036568154 -0.025205584
000010 a5 02 b1 bc f4 1f 96 bc a1 8c d5 bc 51 4b 91 bc
       -0.021607706 -0.018325783 -0.026068034 -0.017736109
000020 2c 5f 56 bd 3a b3 a5 bc ae c0 4f bd 21 0f fa bc
       -0.052336857 -0.020227063 -0.050720863 -0.030524792
000030 88 11 89 bd 79 12 ed 3b 1a 5e 13 bd 38 f1 0d bd
       -0.06692797 0.007234868 -0.035978414 -0.034653872
000040 14 7d 67 bd 04 46 07 bd 12 f1 06 bd 8f 24 68 bd
       -0.05651577 -0.033025756 -0.032944746 -0.05667549
000050 8a 2a fc bc e5 c7 1f bd b9 d7 34 3b de 3a 5a bd
       -0.030782003 -0.039008994 0.00275944 -0.053278796
000060 0a 23 10 bd c6 5c 39 bd 95 e9 b7 bc 73 5d c2 bc
       -0.035189666 -0.04525449 -0.022450248 -0.0237262
000070 6a 5c bb bc bb 1b f8 bc 0f 98 3f bd d9 48 43 bd
       -0.022871215 -0.03028666 -0.046775874 -0.047676895
000080 13 58 0c bd db 81 bb bc 1f 39 00 bd 0d f8 fd bc
       -0.03426368 -0.022889068 -0.031304475 -0.031002069
000090 c0 46 94 bd d6 03 09 bd e9 3c 9f bc de c9 83 bc
       -0.07240057 -0.033450924 -0.019438224 -0.016087469
0000a0 a2 c3 89 bd 95 08 43 bd 25 76 42 3b 44 2e 37 bd
       -0.06726767 -0.047615606 0.002967247 -0.044721857
0000b0 22 e8 7d bd c5 94 06 bd 5c 72 15 bd 0e b4 1b bd
       -0.061988957 -0.03285672 -0.036486015 -0.03801351
0000c0 26 14 1e bd 0b d8 46 bc 30 13 1b bd 51 4a fe bc
       -0.038593434 -0.01213647 -0.037860096 -0.031041296
0000d0 39 67 14 bd e2 0a f1 bc d2 44 f2 bc 77 46 bc bc
       -0.036231253 -0.029424135 -0.029573832 -0.022982819
0000e0 3f 03 d0 3b f4 5f aa bc 5b 65 2b bd 4e f6 d6 bc
       0.006348043 -0.020797707 -0.041844707 -0.026240494
0000f0 f2 14 a2 bc cf b9 16 bd c6 07 53 bd eb 05 d8 bc
       -0.019785378 -0.036798295 -0.051521085 -0.02637001

generator.conv3.bn.running_mean f4 [64]
000000 eb b6 19 3e ba 8a 9c 3d f4 f1 08 bf a8 29 5e bf
       0.15011184 0.076436475 -0.5349419 -0.8678231
000010 30 19 38 3f d0 43 cd bf 23 0f 9b be 8c 3d 66 bf
       0.71913433 -1.603632 -0.30284986 -0.89937663
000020 7a 38 da 3d 54 10 34 bf 45 6e be be 4b 84 19 bf
       0.10655303 -0.70337415 -0.37193504 -0.5996749
000030 4f 46 d2 be 1f 5b 90 be bb 90 85 be 51 b6 8b bb
       -0.41069266 -0.2819452 -0.26086983 -0.004263677
000040 7e c1 7f be e8 d4 a7 be 88 7b 1d 3e c4 2d 8a be
       -0.24976155 -0.32779622 0.15379155 -0.2698804
000050 6c 9c 4b bf 95 c5 4f be 47 bb 25 be 09 7a 95 be
       -0.79535556 -0.20290215 -0.16184722 -0.29194668
000060 cc 70 39 3e f0 1c 54 be 09 12 e3 3d d7 27 b2 3c
       0.18109435 -0.20714164 0.11087424 0.021747513
000070 9e 75 40 bf 98 b0 d7 bc 25 40 25 bf 08 d7 82 be
       -0.7517947 -0.026329324 -0.64551 -0.2555468
000080 87 d3 4a be dd cd 17 bf e6 8d e8 be 8f fd 76 3e
       -0.19807254 -0.592985 -0.4542076 0.24120162
000090 3d 6a 83 be d8 80 9a be 94 f4 87 3e fc 36 4d bf
       -0.2566699 -0.30176425 0.26553786 -0.80162024
0000a0 e9 55 1d 3f 38 bf fb 3c 14 6a a5 3e b3 bc 10 bf
       0.61459213 0.030730829 0.32307494 -0.5653793
0000b0 55 57 15 bf aa 78 da bd 67 24 0a bd 4b af 9c be
       -0.58336383 -0.10667546 -0.033726122 -0.30602488
0000c0 48 f1 59 bf c3 5e ad be 84 bb f4 bd 17 73 79 bb
       -0.8513379 -0.3386136 -0.11949828 -0.0038062984
0000d0 eb d0 22 bf b1 23 6e be 67 94 83 be a4 64 89 bf
       -0.63600034 -0.23255803 -0.2569916 -1.0733838
0000e0 98 6a 73 3c f9 e1 18 bf d1 57 17 bf 52 40 97 3e
       0.014856957 -0.59719807 -0.5911837 0.2954126
0000f0 2e 0f dc be 35 45 9c bc b2 00 e7 3c 02 9d 49 be
       -0.4298033 -0.01907597 0.028198574 -0.196888

generator.conv3.bn.running_var f4 [64]
000000 06 79 a4 3e 1c 79 8f 3e 28 e0 a6 3e 5b ea bb 3e
       0.32123584 0.28022087 0.32592893 0.36702237
000010 23 60 05 3f 9a 7c 71 3f 8a 74 a5 3e 15 b2 0b 3f
       0.5209982 0.9433075 0.32315475 0.54568607
000020 ea af e8 3e 1c e3 b2 3e f5 a7 1e 3f e6 fe be 3e
       0.45446712 0.34938896 0.6197503 0.37303847
000030 80 dc d0 3e 39 c3 f5 3e a0 87 b4 3e 7e ff c5 3e
       0.40793228 0.48000506 0.35259724 0.38671488
000040 20 8a 9e 3e e9 b9 b0 3e 96 b6 98 3e 86 3b a9 3e
       0.30964756 0.34516838 0.29826802 0.33053225
000050 e5 8b 12 3f d5 8b b7 3e 89 7e be 3e 9a a1 df 3e
       0.5724471 0.3584887 0.37205914 0.4367798
000060 7d 31 ca 3e d8 a5 8f 3e e7 ff b2 3e 7d 27 83 3e
       0.39490882 0.28056216 0.34960863 0.25616065
000070 ed d2 b4 3e ac 76 cc 3e 94 be ad 3e c5 b8 ec 3e
       0.35317174 0.3993429 0.33934462 0.46234718
000080 70 d9 bb 3e d7 4a 03 3f 3f 9a a0 3e 8d 1f c4 3e
       0.3668933 0.5128607 0.3136768 0.3830532
000090 c2 44 b5 3e 55 11 e3 3e a2 67 9a 3e 41 9c d0 3e
       0.3540402 0.4434916 0.3015719 0.40744212
0000a0 ed 11 00 3f 97 91 f7 3e 0d d7 d6 3e 06 78 ba 3e
       0.5002735 0.48353264 0.41960946 0.36419696
0000b0 90 bd c6 3e a1 52 c1 3e 52 26 72 3e a8 c4 b7 3e
       0.388165 0.37758353 0.2364743 0.35892224
0000c0 0c 92 b9 3e cc 6b d2 3e 68 20 ec 3e 98 b8 76 3e
       0.36244237 0.41097867 0.46118474 0.24093854
0000d0 37 32 ee 3e 2f e4 20 3f 2e 09 85 3e b3 e8 f8 3e
       0.46522686 0.6284818 0.25983566 0.48615035
0000e0 e0 85 b7 3e f1 74 f0 3e 46 97 e7 3e 6f ae 7d 3e
       0.35844326 0.4696422 0.452326 0.24773572
0000f0 38 06 bc 3e 02 be 9a 3e f5 39 95 3e 73 f6 d6 3e
       0.36723495 0.3022309 0.2914578 0.419849

generator.conv4.conv.weight f4 [128, 64, 3, 3]
000000 07 af 2c 3d 53 6b d6 bc 4d e0 e0 bc 20 bc 16 bd
       0.042159107 -0.026174223 -0.027450705 -0.036800504
000010 47 84 24 bd db 9d 17 3d 96 b0 b3 39 7a 27 be bc
       -0.040165212 0.037015777 0.00034273107 -0.023212183
000020 59 a9 17 bd 0d b8 11 bd 1e 37 d9 bc 34 9d b8 3c
       -0.037026737 -0.035575915 -0.02651554 0.022535898
000030 9c 96 94 3a 5b 47 ae 3b 70 53 0a 3d 91 aa fd ba
       0.0011336389 0.005318565 0.03377098 -0.0019353201
000040 11 d6 cb 3c 35 9b a7 bb e6 33 29 bc c0 33 b1 bb
       0.024882348 -0.0051149377 -0.010327315 -0.0054077804
000050 2c e0 0f bd a5 9a 0e 3b 90 b9 c6 3c cd c0 5f 3c
       -0.035125896 0.0021759656 0.024258405 0.013656807
000060 35 a6 66 b8 10 d1 04 3d 14 f4 b5 3c 49 86 13 3d
       -5.4991066e-05 0.03242594 0.022211112 0.036016736
000070 c8 cf 25 bd e3 cd a9 3b 83 95 41 3d f0 4e 34 bd
       -0.04048136 0.0051820143 0.047261726 -0.044020593
000080 ff 2e 69 bd d4 b8 d4 bc 0e 5e 11 bd f7 64 34 bc
       -0.056929585 -0.02596704 -0.03549009 -0.0110104
000090 82 93 73 3b 5e 78 4c bc 44 94 f5 bc 5a 6b fd 3c
       0.003716678 -0.01247987 -0.029977925 0.030934978
0000a0 52 f6 15 3c f9 ff f6 3c a0 ef f1 3c dc d8 d4 3c
       0.009152966 0.030151354 0.029533207 0.025982313
0000b0 9a e1 8a 39 1d 0b f8 3b f5 6d 15 3d b3 c2 5c bc
       0.00026489497 0.007569684 0.036481816 -0.013474154
0000c0 f2 1b a0 bb 23 7b 7c bb 88 37 ee bc ce 68 09 bc
       -0.004886144 -0.0038525544 -0.029079214 -0.008386804
0000d0 e2 2f 14 3d 9e 12 bb bc f2 9f 28 3d 2e 7d 8d bc
       0.036178477 -0.022836026 0.04116816 -0.017271604
0000e0 88 2e e8 3b bd c8 46 bc e1 34 4e bc ea 92 13 bd
       0.007085625 -0.012132821 -0.0125858495 -0.03602878
0000f0 b0 bb eb 3c 64 1b 0f bd 63 6f d5 3c f0 da 83 bc
       0.02877602 -0.03493823 0.02605409 -0.016095608
000100 a5 17 a1 3b 44 1e a8 bc f3 31 93 3b 8d 7d 96 3c
       0.0049161487 -0.020522244 0.0044920384 0.018370414
000110 0c 7c d2 3c f4 71 5e bc ff 0d 4a bc e7 88 33 bd
       0.025693916 -0.013576973 -0.0123324385 -0.043831732
000120 c4 c6 16 bd b4 e2 e1 bb a5 57 13 3c 69 bd e7 bc
       -0.03681065 -0.00689348 0.008993064 -0.02828856
000130 ae 32 4e 3c 76 52 e9 ba 4d 39 f6 bc b3 bd 82 3c
       0.012585325 -0.0017801065 -0.03005662 0.015959596
000140 b4 ed 14 3c bd a6 12 3c 15 04 20 bc 44 ad 97 bb
       0.009089876 0.008950886 -0.009766598 -0.004628809
000150 19 aa 02 bc 5e 72 f8 bc 9a 27 7b 3c bd b4 09 3c
       -0.007975125 -0.030327972 0.015329266 0.008404908
000160 89 51 fa 3c b5 81 e7 bc 7e 56 27 3d 49 8d 11 3a
       0.030556457 -0.028260091 0.04085397 0.0005552364
000170 11 fe a1 3b 07 70 31 3c e6 98 05 3d 4e e3 be bc
       0.004943617 0.010829932 0.03261652 -0.023301747
000180 ee 96 d1 3c 3b e7 96 bc b2 e5 fd 3c 4e 18 11 3d
       0.025584664 -0.018420806 0.030993316 0.03542357
000190 2b 45 8b bc fe 80 f2 bb bb 92 5d bc c9 78 8d bc
       -0.017000755 -0.007400631 -0.013523753 -0.017269509
0001a0 24 d0 30 3d 8a 6f c1 3c 1f d5 8e bc 05 e3 0c 3d
       0.04316725 0.023612756 -0.017435608 0.03439619
0001b0 b1 24 2c 3b f5 fa a8 3b 45 00 d0 bc 80 af 67 bc
       0.0026266987 0.0051568695 -0.025390754 -0.014140964
0001c0 d1 df 1b bd 12 50 25 b9 af 50 6d 3c 42 7d 23 bc
       -0.038055245 -0.00015765455 0.0144845685 -0.009978594
0001d0 4c f3 33 bd 6b 68 2c bd 93 8f 91 3c 84 84 0e bd
       -0.043933198 -0.04209177 0.017768657 -0.034794345
0001e0 e2 f3 07 bc d2 90 4d bc 2d 0c be bc 1e 2a bd bc
       -0.008297892 -0.012546735 -0.023199165 -0.023091372
0001f0 8a 88 8c 3a de 82 c5 bb 20 4f c6 bc 00 6a 10 bd
       0.0010721844 -0.0060275635 -0.024207652 -0.03525734
000200 11 48 bc 3c 92 23 07 bd ff 08 3c 3c c7 5c 04 bd
       0.022983583 -0.032992907 0.011476754 -0.032315042
000210 ee 1f 89 bb eb f2 60 3c ae 83 eb bc 27 c1 05 bc
       -0.0041847145 0.013729791 -0.028749313 -0.008163727
000220 6e 23 96 ba 66 38 c6 bc 47 07 16 bd e6 34 14 bc
       -0.0011454651 -0.024196815 -0.036628034 -0.009045815
000230 de 18 b1 bc fb 89 0b 3d 10 26 9d 3c 10 7e c8 3c
       -0.021618303 0.034067135 0.019183189 0.024474174
000240 e6 1d fe bc 98 f1 3b 3d a8 08 b3 3c b9 a2 2f bb
       -0.031020116 0.0458847 0.021854714 -0.002679987
000250 9a 82 f0 bc 55 25 d3 bc db ae 85 3d 56 66 6e 3d
       -0.02935915 -0.025774637 0.06527492 0.058203064
000260 ac 40 22 3c af b3 47 3c 6d c2 b4 bc 0c ef 5a bb
       0.009903114 0.012188836 -0.022065366 -0.0033406643
000270 57 f7 44 bd e4 92 e2 bc ea 79 46 bd ac 86 4e bd
       -0.048087444 -0.027657934 -0.04845611 -0.0504214
000280 6b c9 b9 bc 3c 47 8c 3c 75 c4 14 3d 69 7d af 3c
       -0.022679051 0.017123811 0.03632017 0.021422105
000290 f3 25 c7 b9 ff 44 0d 3d a2 d5 6d bc 40 2b 05 bd
       -0.00037984512 0.034489628 -0.014516266 -0.03251195
0002a0 35 68 94 bc 5c 3b 26 3c 36 0f 22 ba 75 f4 f7 bb
       -0.018116096 0.010145988 -0.0006182076 -0.0075669833
0002b0 cf f6 2f bd 93 a3 50 bd fa 3f 1a 3d 65 7b 95 bb
       -0.042959984 -0.050937247 0.03765867 -0.004561829
0002c0 f3 f8 fc bb 1d e6 2e ba 95 68 ee 3c fd dc f0 3c
       -0.0077201067 -0.0006671863 0.029102603 0.02940225
0002d0 3b cc 1c 3d 4a bc 47 bc 55 0c 0c 3d 63 e2 35 39
       0.038280707 -0.012190888 0.03419145 0.00017345841
0002e0 17 aa 66 ba 12 8f 1a bd a5 0c e2 3b fe f3 fc bc
       -0.0008799149 -0.0377341 0.00689848 -0.030878063
0002f0 1d 67 3a bd 54 18 7c bc dd 68 12 3b f8 4a 30 bd
       -0.045508493 -0.01538666 0.0022340335 -0.043040246
000300 dd 5d 53 3c 25 ed 9f 3c 64 43 9c bb 84 3d ca 3c
       0.012900797 0.019522259 -0.004768776 0.024687536
000310 27 4d 08 bd 9d 3e b1 bc b4 cb 14 3c 99 b5 ee bc
       -0.033276703 -0.021636302 0.00908177 -0.029139327
000320 29 60 1a bd e2 d4 64 bd 0c e4 5b bd 94 a3 64 bc
       -0.03768936 -0.055867083 -0.05368428 -0.013955016
000330 74 47 1b 3d d0 d7 a9 3c d2 21 77 3a 2d 5c d9 ba
       0.03790994 0.02073279 0.0009427342 -0.0016583257
000340 78 56 fc 3a 19 c0 60 3c 5f 8c d9 3c be b9 1b bd
       0.0019251844 0.013717675 0.026556192 -0.038018934
000350 2f e8 08 3d 1a 01 b2 3b 78 b1 05 bc 3b c3 52 bd
       0.033424553 0.00543226 -0.008159988 -0.051455718
000360 2a 75 07 bd 57 db 17 bb 57 72 bf 3c 9a d4 eb 3c
       -0.03307072 -0.0023171508 0.023369951 0.0287879
000370 50 64 2a bd 80 38 fa bc 46 2d e2 39 b3 5b cc bc
       -0.04159957 -0.03054452 0.0004313981 -0.02494607
000380 c7 b7 40 bb 80 ad d8 3b 3c f1 ad bc e3 be 06 bd
       -0.0029406415 0.0066124797 -0.021233194 -0.032896888
000390 3c d7 41 bc 24 f1 4a 3d 02 3e 9a 3a 9c a2 a4 bc
       -0.011831101 0.049546376 0.0011767747 -0.02009707
0003a0 d5 02 e6 bc 84 b9 56 3c 09 1b 3e 3c 08 81 e9 3b
       -0.028077522 0.013105754 0.011603125 0.0071259774
0003b0 79 7e 42 bd 60 4b 05 3d fa 98 59 bc 41 b8 b4 3c
       -0.047483895 0.032542586 -0.013281101 0.022060515
0003c0 51 a3 a4 3c d5 95 cd 3c 90 52 15 bd bf 5e d8 3c
       0.020097407 0.02509586 -0.03645569 0.026412366
0003d0 94 a6 33 3c b5 f7 8c 3b 8e cd eb 3c 66 77 96 3b
       0.010965008 0.00430199 0.02878454 0.00459187
0003e0 3d c0 40 3d 05 51 e7 bc ed 63 5d bd cd 06 08 bd
       0.047058333 -0.028236875 -0.054050375 -0.03320961
0003f0 fa d7 de 3b 99 3e 73 bc 43 47 8e bc 33 74 16 bd
       0.0068006488 -0.014846467 -0.017367965 -0.03673191

generator.conv4.bn.weight f4 [128]
000000 be 17 80 3f fb bc 7c 3f 9e 25 80 3f 59 39 80 3f
       1.0007246 0.9872586 1.001148 1.0017501
000010 6d 70 7d 3f 48 8f 7f 3f 4e 87 80 3f af 93 7c 3f
       0.98999673 0.99828005 1.0041292 0.9866285
000020 f6 1e 80 3f 14 b0 7d 3f 80 55 82 3f f9 c0 81 3f
       1.0009449 0.990968 1.0182343 1.0137016
000030 e1 98 83 3f 6f f8 7f 3f 13 6a 7e 3f 78 42 81 3f
       1.028103 0.99988455 0.99380606 1.009841
000040 07 f3 7d 3f c1 b5 7e 3f 57 fd 7d 3f 4e 6e 82 3f
       0.99198955 0.99496084 0.9921469 1.0189912
000050 c9 26 7d 3f c0 9b 7f 3f 00 c0 7f 3f f9 c9 7d 3f
       0.98887306 0.9984703 0.99902344 0.9913631
000060 ed 39 7a 3f 33 65 80 3f 87 f8 7e 3f 51 2e 83 3f
       0.9774464 1.0030884 0.9959797 1.024851
000070 e0 a4 7f 3f 4c 25 7c 3f 90 0a 7b 3f ee e4 7e 3f
       0.99860954 0.9849441 0.9806299 0.9956807
000080 78 bc 7a 3f fe 94 7b 3f 50 95 7e 3f 48 17 80 3f
       0.9794383 0.9827422 0.9944658 1.0007105
000090 49 63 7e 3f 07 a6 81 3f 19 b6 81 3f 94 5b 7e 3f
       0.9937025 1.0128793 1.0133697 0.9935849
0000a0 a3 98 80 3f 04 ad 7f 3f d6 e6 7f 3f 96 05 80 3f
       1.0046581 0.99873376 0.999616 1.0001705
0000b0 c7 5c 7e 3f 54 fd 82 3f e3 8d 80 3f fa 60 81 3f
       0.99360317 1.023356 1.00433 1.010772
0000c0 ba bc 75 3f 86 6d 82 3f f3 1c 7d 3f f0 ff 7c 3f
       0.959911 1.0189674 0.988723 0.9882803
0000d0 91 97 7d 3f 4a 79 7d 3f 13 60 81 3f 16 25 7a 3f
       0.99059397 0.990132 1.0107445 0.9771284
0000e0 18 c6 81 3f 4f 4f 80 3f 61 0a 7e 3f 4b f0 7f 3f
       1.0138578 1.0024203 0.99234587 0.9997603
0000f0 25 1c 7c 3f 79 2c 81 3f a4 d2 7e 3f f4 23 80 3f
       0.98480445 1.0091697 0.9954016 1.0010972
000100 d4 c2 7e 3f 47 5d 82 3f fe 8c 80 3f 4b 84 7e 3f
       0.99516034 1.0184716 1.0043027 0.99420613
000110 ff 45 7e 3f f1 79 7e 3f 3c f2 7d 3f 3f 10 7f 3f
       0.99325556 0.9940482 0.99197745 0.99634165
000120 2d 96 7a 3f c6 f1 79 3f 0b b6 7e 3f cd 36 7a 3f
       0.978854 0.9763454 0.99496526 0.9773987
000130 65 82 82 3f 66 73 7c 3f ad bc 82 3f cf ab 81 3f
       1.0196043 0.98613584 1.0213829 1.0130557
000140 0b d5 81 3f 74 a1 7d 3f 12 e8 7f 3f 41 87 80 3f
       1.014314 0.9907448 0.99963486 1.0041276
000150 ec b5 84 3f d1 13 82 3f 00 97 7e 3f ca cc 7b 3f
       1.0368018 1.0162297 0.9944916 0.9835936
000160 17 0a 80 3f c3 03 84 3f fa 59 82 3f c4 0d 7f 3f
       1.0003079 1.0313648 1.0183709 0.9963038
000170 d7 ad 7b 3f 2c cf 7f 3f 37 cf 7f 3f cc 70 7d 3f
       0.98312134 0.99925494 0.9992556 0.9900024
000180 05 aa 80 3f fb 02 80 3f 45 d1 7b 3f c1 be 7d 3f
       1.0051886 1.000091 0.98366195 0.9911919
000190 1c 3c 7d 3f 39 e0 82 3f 38 6c 80 3f 3c f9 7c 3f
       0.98919845 1.0224677 1.0033026 0.988178
0001a0 c0 1c 7d 3f ca 40 7f 3f f8 59 80 3f cd 30 80 3f
       0.98871994 0.99708235 1.0027456 1.0014893
0001b0 ab 3a 7e 3f 39 fa 7d 3f 76 8c 7f 3f 67 65 83 3f
       0.9930827 0.99209934 0.998237 1.026532
0001c0 3c 36 7e 3f 71 c5 7f 3f 4c 99 80 3f f7 03 81 3f
       0.99301505 0.99910647 1.0046782 1.0079335
0001d0 cf 7a 80 3f eb ff 7d 3f 19 67 7c 3f 38 b3 80 3f
       1.0037478 0.99218625 0.98594815 1.0054693
0001e0 c2 ca 78 3f b7 1b 80 3f f2 e4 7c 3f ef fc 80 3f
       0.97184384 1.0008458 0.9878684 1.0077189
0001f0 92 fb 81 3f 56 ed 80 3f 95 74 80 3f 29 89 81 3f
       1.0154898 1.0072429 1.0035578 1.0119983

generator.conv4.bn.bias f4 [128]
000000 78 17 1f bd 35 56 18 bd 67 2e d2 bc 65 9c ec bc
       -0.03884074 -0.03719159 -0.025656892 -0.028883168
000010 64 9a a4 bc 32 30 60 bc 22 ad 97 bc eb 99 32 bd
       -0.02009315 -0.013683366 -0.018515173 -0.04360382
000020 1a f9 bf bc 08 29 14 bd 13 00 b3 bc fa 47 d9 bc
       -0.02343421 -0.036171943 -0.021850621 -0.026523579
000030 ce 3c 44 bd e3 92 9a bc c8 af 11 bd 33 39 cf bc
       -0.04790955 -0.01886887 -0.03556803 -0.02529583
000040 aa 5b a8 bc 47 ac 0b bd c0 a6 22 bd 70 e9 ef bc
       -0.020551521 -0.034099843 -0.039709806 -0.029286116
000050 de 2a a7 bc d9 58 b8 bc b5 7a 07 bd ad b5 e6 bc
       -0.020406183 -0.022503303 -0.033076007 -0.028162802
000060 93 16 12 bd 6e 79 ec bc d2 5a a5 bc b9 0a dc bc
       -0.03566606 -0.028866496 -0.020184908 -0.026860582
000070 ac 47 cc bc 36 8e 14 bd 51 a0 b5 bc c1 43 f1 bc
       -0.02493652 -0.036268435 -0.022171171 -0.029451253
000080 c0 9b 15 bd 54 32 cc bc 55 55 1a bd fd bb 9e bc
       -0.036525488 -0.024926342 -0.037679035 -0.01937675
000090 c6 b0 39 bd 10 87 2d bd ee 83 ef bc a7 da c5 bc
       -0.0453346 -0.042365134 -0.029237714 -0.024152113
0000a0 b8 03 94 bc 61 5d be bc 32 d9 b9 bc ff 12 ab bc
       -0.01806818 -0.023237886 -0.022686575 -0.020883081
0000b0 e8 b3 11 bd 86 07 5f bc 69 fc af bc 82 c5 10 bd
       -0.035571963 -0.013612634 -0.021482663 -0.035344608
0000c0 c0 33 3a bd bf b0 f2 bc fd aa 25 bd 44 40 df bc
       -0.04545951 -0.029625295 -0.04044627 -0.027252324
0000d0 4d 24 d9 bc cd f4 db bc 77 f8 f9 bc 5d 37 de bc
       -0.026506567 -0.026850129 -0.030513985 -0.027126009
0000e0 25 b1 cd bc b5 4c 00 bd 92 4b da bc e7 af de bc
       -0.025108883 -0.031323154 -0.026647363 -0.027183486
0000f0 89 2c 05 bd 00 b9 a4 bc a6 e5 f4 bc 13 d7 cc bc
       -0.032513175 -0.020107746 -0.029894661 -0.0250049
000100 65 e9 c4 bc f5 cc eb bc cc 55 f9 bc fd 64 f9 bc
       -0.024037072 -0.028784255 -0.030436419 -0.030443663
000110 0e 0d db bc 1f bc e7 bc 23 ef c6 bc 5f 65 15 bd
       -0.026739623 -0.028287945 -0.024283951 -0.036473628
000120 42 10 51 bd 47 3f 50 bd c9 33 f2 bc 26 22 23 bd
       -0.051040895 -0.050841596 -0.029565709 -0.03982749
000130 ff 9c 05 bd f5 08 0d bd ae f4 3c bd 6f 13 c2 bc
       -0.032620426 -0.03443237 -0.046131782 -0.023690907
000140 74 30 94 bc c9 a9 f8 bc 11 25 33 bc ed a0 bb bc
       -0.01808951 -0.030354397 -0.01093413 -0.022903884
000150 83 f9 14 bd 5e 77 5b bc 7f b9 09 bd 7c 00 ff bc
       -0.036370765 -0.013395159 -0.03362417 -0.03112816
000160 59 44 d1 bc 64 f0 ad bc 09 a8 c6 bc 0b 2e 26 bd
       -0.025545286 -0.021232791 -0.024250047 -0.040571254
000170 78 c8 15 bd 23 3f d0 bc bf 60 ef bc 3d 79 52 bd
       -0.036568135 -0.025420731 -0.029220937 -0.051385153
000180 92 f7 fd bc 6a 94 f4 bc 73 7e 94 bc 30 e0 05 bd
       -0.03100184 -0.029855926 -0.018126702 -0.032684505
000190 e1 93 5b bc 5a ea de bc a2 f9 d8 bc 99 3f b4 bc
       -0.013401956 -0.027211357 -0.026486222 -0.022002982
0001a0 0c ef a0 bc 03 fc dd bc 96 02 18 bd 03 52 c2 bc
       -0.019645236 -0.027097708 -0.03711184 -0.023720747
0001b0 88 16 0b bd 82 91 9d bc 2f 04 9f bc a1 a8 98 bc
       -0.033957034 -0.019234423 -0.019411175 -0.018635096
0001c0 47 9e 24 bd a4 95 e5 bc db 4f 08 bd 8e e2 bd bc
       -0.040190008 -0.028025456 -0.03327928 -0.023179319
0001d0 d6 4b bf bc 13 15 2c bd 33 dc d4 bc ff 95 0e bd
       -0.023351591 -0.042012285 -0.025983905 -0.034811016
0001e0 d0 68 3c bd 26 26 3c bd 52 11 d5 bc b9 8a 61 bc
       -0.045998394 -0.04593482 -0.026009236 -0.013765984
0001f0 cb 7a a0 bc 11 f6 11 bd 5f c3 e3 bc 75 01 8e bc
       -0.019589802 -0.035635058 -0.027803121 -0.01733468

generator.conv4.bn.running_mean f4 [128]
000000 c8 ed 25 bf 2e 8e 05 3f 1b 7c c3 be 1d 48 c3 bf
       -0.6481595 0.52170074 -0.38180622 -1.5256382
000010 a4 9a 09 bc c9 91 90 bf ad d2 41 3f a2 1b a1 3e
       -0.008398686 -1.129449 0.7571209 0.31466395
000020 4a d5 05 3f 4e d8 21 bf c2 3d 86 3c 4a 19 26 bf
       0.5227858 -0.6322068 0.01638687 -0.6488234
000030 fa 87 30 bf a2 d4 91 3f f0 79 20 3f d6 89 6d 3e
       -0.68957484 1.1393015 0.6268606 0.23197111
000040 20 61 82 be ec 25 84 be 1f c4 ab 3e 0a b7 ac 3b
       -0.25464725 -0.25810182 0.33548066 0.0052708434
000050 f9 f2 27 3e fc 4d 0c bf 01 df e8 be 43 ee bb be
       0.1640128 -0.54806495 -0.45482638 -0.36705217
000060 5d e0 9c bc d2 99 94 be 5b a0 f6 3d a1 38 6f bf
       -0.019149953 -0.29023606 0.12042304 -0.93445784
000070 26 5c c1 be 0b d4 5c bf f4 ec ed 3e 79 95 de be
       -0.37765616 -0.8626105 0.46469843 -0.43473414
000080 4e ff 25 3f b8 91 93 be 9d 47 0c bd f4 86 4a 3e
       0.6484269 -0.28822112 -0.034247983 0.19778043
000090 89 e3 7d be 5e 5f 74 bf 03 cb 6e bf 9c 80 58 bd
       -0.24793829 -0.9545802 -0.9327852 -0.052857026
0000a0 5f f3 12 be 55 b9 1b bf 43 d4 93 be 3b 47 2f bf
       -0.14350651 -0.6082967 -0.2887288 -0.68468064
0000b0 93 8e b5 3d 5f 95 ba be fd c3 23 bf f2 6a 95 be
       0.088650845 -0.36442086 -0.6397093 -0.29183155
0000c0 78 18 ae 3d 39 a2 0a 3e 7d 62 6e be f2 1d 34 be
       0.08500761 0.13538446 -0.23279758 -0.17589548
0000d0 a0 5d 25 bf b7 29 65 3e 15 a5 0c bf c0 ab 25 bd
       -0.64595985 0.22379194 -0.54939395 -0.040446997
0000e0 fd c1 69 bd 92 29 34 3e 90 40 28 bf bb 3e f0 3d
       -0.057069767 0.17593983 -0.65723515 0.11730715
0000f0 09 f5 94 3e af 4c df be 53 49 a9 be 78 c7 b1 be
       0.29093197 -0.43613192 -0.33063754 -0.34722495
000100 58 c4 3d 3e 32 7f 87 3f 2a 26 4a bf e0 ef b7 bd
       0.1853193 1.0585692 -0.78964484 -0.089812994
000110 65 51 50 be 5e 9d f8 bd 1a 03 06 3e c4 08 79 be
       -0.2034355 -0.121393904 0.1308712 -0.2431975
000120 b9 26 92 3e 4c af 89 3e 5a 53 9e 3d 1e 1b b0 bd
       0.28545168 0.26891553 0.07730742 -0.08598922
000130 b4 3c 79 bf 90 6e 02 3f ec 10 34 3e dd 6e 22 bf
       -0.9735825 0.50949955 0.1758458 -0.63450414
000140 a4 ab b6 be 5a 66 4e 3e 30 92 0a 3e e1 f2 0f be
       -0.35677826 0.20156232 0.13532329 -0.14057495
000150 6f cb b0 be 11 3b 66 bf 74 85 2b bf bd 30 ee 3e
       -0.34530208 -0.8993388 -0.6700051 0.4652156
000160 ec f5 b4 3e 96 24 47 bf 0d 9f ff 3c 1d a2 d3 ba
       0.35343874 -0.777902 0.031203771 -0.0016146336
000170 44 35 fa 3a ee 64 25 be da ba 9e 3e 15 32 a1 bd
       0.0019089361 -0.16151783 0.3100193 -0.078708805
000180 2a 07 10 bf 71 57 3f bf 7e ea 65 be d9 1c 1b 3f
       -0.5626093 -0.747428 -0.22452733 0.60590893
000190 ff bc ab bc 45 83 94 bf cd f1 18 bf ae c8 48 3f
       -0.020964144 -1.160256 -0.5974396 0.7843121
0001a0 1a b6 41 bf 98 78 72 bf 74 6e da be f8 c0 5a bf
       -0.7566849 -0.9471526 -0.42662394 -0.85450697
0001b0 2b 34 90 be 86 93 c5 be be 81 12 be 7e df 2e bf
       -0.281648 -0.38589114 -0.14307305 -0.6830977
0001c0 74 a9 9f be 27 98 81 bd d7 e3 32 be 79 5f 28 bf
       -0.3118397 -0.06327849 -0.17469727 -0.6577068
0001d0 1e a2 fb 3d a5 62 14 bf d8 9a 04 bd 09 0f 8c 3f
       0.12286781 -0.5796302 -0.032374233 1.0942088
0001e0 c6 bb 74 3b 96 87 22 be 0e aa 96 3e ee 5e 27 3e
       0.0037343367 -0.15872034 0.29426616 0.16344807
0001f0 12 e2 8d 3e 3b 45 82 bf 4f 18 a1 bd 01 7a 34 bf
       0.2771154 -1.0177377 -0.078659646 -0.70498663
