dl/models/conv2d/checkpoint.ckpt (torch, 521495 bytes, 22 tensors)

generator.conv1.conv.weight f4 [64, 1, 3, 3]
000000 0c 0d 19 be cb f9 7f 3e ef 51 d9 3d 06 95 d1 bd
       -0.14946383 0.24997632 0.10611331 -0.10233502
000010 6f 98 b3 bd 94 e0 a3 3d b0 5c 65 be 70 67 97 3d
       -0.08769309 0.08001819 -0.22398639 0.07392776
000020 48 ec 92 3e bd 10 c2 3d c8 ef 75 bc d4 ca 2b 3d
       0.28695893 0.09475849 -0.015010782 0.04194148
000030 2f 57 77 be c4 46 5c bd b0 54 8e 3e 2c 31 40 be
       -0.24154352 -0.053778425 0.27798986 -0.18768758
000040 7d 96 b0 bd f4 d0 95 be cd a2 9e 3e 9f 70 87 3e
       -0.08622453 -0.2926098 0.30983582 0.2645311
000050 f1 65 3f 3e 15 5e 5f 3e ef 3c 93 3c c9 52 c9 3d
       0.18691231 0.21813233 0.017973391 0.09830243
000060 d4 2c fd 3d e9 f8 02 3e c3 2e bb bd c0 5e 35 be
       0.12362066 0.12790264 -0.091397785 -0.17711926
000070 67 ec 73 be ab ec c8 3d 4d 47 7f 3c 9e ef 92 be
       -0.23820649 0.09810766 0.015580964 -0.28698438
000080 21 a0 1e be b4 b0 0e bd 88 6c 0b 3e d3 35 9f be
       -0.15490772 -0.034836486 0.1361562 -0.31095752
000090 db 43 84 be 68 e5 9c bd 19 86 83 bd 35 dc 31 3e
       -0.2583302 -0.07660943 -0.064220615 0.17369159
0000a0 a4 6a 18 3e de 63 6a be 75 02 2b be 97 3b 11 3e
       0.1488443 -0.22889659 -0.16700156 0.14182888
0000b0 d9 5e 92 bd 7f e1 34 be aa ce 8b 3d 53 b5 06 3d
       -0.07146997 -0.17664145 0.068265274 0.032887768
0000c0 6d 9f d7 3c 87 e7 ac bc 4f 27 91 be 68 bf 39 3e
       0.026321137 -0.021106495 -0.28350303 0.18139422
0000d0 ad d4 9d 3d 6f ba 27 3e 4c a8 98 3d 8a 9c 8c bd
       0.0770658 0.16379713 0.07453975 -0.06865795
0000e0 f3 a5 a4 be c6 37 e4 3d 66 df 02 bd c1 07 0c 3e
       -0.3215786 0.111434504 -0.03195133 0.13674833
0000f0 ff 71 76 3e d6 7d 2b be 05 a2 9c bd 7e 48 fa 3d
       0.24066924 -0.16747221 -0.0764809 0.12220858
000100 e6 dd 5f 3e 8a 0e 93 3e 7d ca f6 3c 55 58 c6 3d
       0.21861991 0.2872203 0.03012585 0.09684817
000110 b3 82 80 3e ef 3d 9b 3b 1f dd 6c be ad e3 a1 be
       0.25099716 0.0047376077 -0.23131226 -0.31619015
000120 71 17 86 3e 01 3a a0 bd 49 61 90 3d 46 89 2c 3e
       0.2618976 -0.07823563 0.07049806 0.1684924
000130 cf d8 f9 3b 16 24 2c 3e 8a 27 2b 3e 7b 4a 2a 3e
       0.0076247226 0.1681064 0.16714302 0.16629975
000140 d3 40 b9 bd 65 55 4f be 73 00 f2 bd d6 4b f1 3d
       -0.09045567 -0.20247419 -0.11816492 0.11782043
000150 fc 69 76 bd 61 ed 38 3e 2a d1 8c be c3 1a 8c 3d
       -0.06015967 0.18059303 -0.2750333 0.06841042
000160 7e 55 b1 3d 31 92 74 3e 86 b8 61 bd bb 08 94 bd
       0.086588845 0.23883893 -0.055107616 -0.07228228
000170 6c 70 a3 3e 07 46 a1 be 7f f6 1c 3e a0 31 05 be
       0.3192171 -0.3149874 0.15328406 -0.13007212
000180 e4 9f 2e 3e 65 7a 32 be b2 89 b5 3d c2 95 1e be
       0.17053181 -0.17429502 0.08864154 -0.15486816
000190 65 0c 5c 3e 82 33 99 3e 15 10 6d be e0 f4 9e be
       0.21489103 0.2992211 -0.23150666 -0.310462
0001a0 44 20 5a bd e2 b7 fc 3d 97 7f d3 3d 6d 43 d0 3d
       -0.053253427 0.1233976 0.1032707 0.101691104
0001b0 56 bf 87 bd 93 17 86 be d5 b1 77 be 12 7c 3b 3e
       -0.06628291 -0.2618986 -0.24188931 0.18309048
0001c0 6c d3 af bd 24 a9 8d be af 4c bd bd 04 85 75 bd
       -0.085852474 -0.27668107 -0.09243142 -0.059941307
0001d0 fb da 6e 3e 23 66 a4 be 47 d4 b5 3d 55 34 86 be
       0.23325722 -0.32109174 0.08878379 -0.262118
0001e0 55 25 0c 3e 43 bd f3 bd c2 3e 5e bc cd e5 a9 3d
       0.13686116 -0.11901333 -0.013564767 0.08295784
0001f0 44 80 83 3e e8 62 b4 3c d2 1c 97 3e 99 0f d9 3b
       0.25683796 0.022019818 0.29514176 0.006624174
000200 0d fb 25 3e eb ba 01 3e 1d 80 98 be 6f c2 ce bc
       0.1620905 0.1266896 -0.29785243 -0.025239198
000210 c3 79 6d 3e 1f 41 86 be 30 cb 53 be 5a 3f 27 be
       0.2319098 -0.26221558 -0.20682979 -0.1633276
000220 ba 5f 86 be 98 e1 5d 3e de 42 6b be 8f 16 68 3e
       -0.2624491 0.21668088 -0.22974727 0.22664855
000230 0e 53 08 3e f5 90 a4 3c 7f 9a 1e be 32 ed 99 3e
       0.13312933 0.020088652 -0.15488623 0.30063778
000240 62 c7 06 be f9 40 8e bc 67 b1 64 be b0 f2 89 3c
       -0.13161996 -0.017364966 -0.22333299 0.016839355
000250 2f 50 b7 3c b4 16 9c be 8a d3 0a be 7a 43 45 be
       0.022377102 -0.3048607 -0.13557258 -0.19264022
000260 3e 84 93 be 5e 12 a1 be 69 7c 17 3d 42 6b 86 be
       -0.2881183 -0.31459326 0.03698388 -0.26253706
000270 63 a5 96 3e ee 0d 11 3e 93 09 90 be 44 07 18 bd
       0.29423055 0.1416547 -0.28132305 -0.037116304
000280 2f 38 07 3e 81 23 a2 3e bd 08 94 3e fe f2 70 3d
       0.13205026 0.31667712 0.28912917 0.058825485
000290 b8 43 95 3d e6 a8 8a 3e 6a ab 8f 3e 00 02 e2 bd
       0.07288307 0.27081984 0.28060466 -0.11035538
0002a0 5b 49 ae 3c b3 a6 80 3e a4 93 91 3e 3b be 5b 3e
       0.021275213 0.2512718 0.28432953 0.21459286
0002b0 31 5f ad bd c2 da 99 3e c6 8a 68 be c1 af e6 bd
       -0.08465422 0.3004971 -0.22709188 -0.11263991
0002c0 09 fc 73 be df 13 53 3e a8 f8 75 3e 16 6f 1e be
       -0.23826613 0.20613049 0.24020636 -0.15472063
0002d0 c9 c8 0a be 2b 0e a1 bd 85 ef 74 be ed e9 39 bc
       -0.13553156 -0.078640305 -0.23919494 -0.011347276
0002e0 c5 92 ab bd 6d a6 31 be e9 e3 2e bd 2f 10 0e be
       -0.083776034 -0.17348643 -0.04269782 -0.13873361
0002f0 6a d3 7f be 3a 8d 5f be 68 f9 37 be 1a bb 9c 3d
       -0.24982992 -0.21831217 -0.17966235 0.07652874
000300 7e df 9b 3e a8 90 6a be cf 92 08 be 99 39 a0 be
       0.30443949 -0.22906744 -0.13337253 -0.31293944
000310 2f 73 94 3e 6c 4b 0b be a0 6d a1 be ab 4c 39 be
       0.28994128 -0.1360299 -0.3152895 -0.18095653
000320 54 6d 56 3e 5d dc 55 be 7b 79 f3 bc 77 98 1c 3e
       0.20940143 -0.20884843 -0.029721012 0.15292536
000330 b2 86 17 be d2 3e 45 be fd 91 95 3e 5a ae 81 be
       -0.14797476 -0.19262245 0.29212943 -0.25328332
000340 b5 98 8b be b6 e6 52 3e a9 d4 0e be 30 57 92 3e
       -0.27264944 0.20595822 -0.13948311 0.28582144
000350 30 2d a5 bc 4e ae f4 3d 98 a5 9e be b1 66 91 3e
       -0.020163149 0.119473085 -0.30985713 0.2839866
000360 4a ce 0b 3d 39 d2 79 3c 8d 7b 8c 3e 4b 4b 81 3e
       0.03413228 0.015247875 0.27438012 0.25252756
000370 66 7d 3b bc 41 2f 02 be a2 5c 9b 3e 3f e3 78 bc
       -0.011443472 -0.12713338 0.3034411 -0.015190898
000380 4e fb 19 be 72 f8 18 3e c5 66 0e 3e c5 10 0c bd
       -0.15037271 0.14938524 0.13906391 -0.03419568
000390 74 26 91 be 24 3d 9e be 3a ff 37 be 27 8a 15 3d
       -0.2834965 -0.30906022 -0.17968455 0.036508705
0003a0 c2 a4 82 be 90 e9 92 be 58 61 a2 3e 68 ea 24 3e
       -0.25516325 -0.2869382 0.31714892 0.16105044
0003b0 90 5c 68 3d e8 1c a0 3e f3 6d 99 be 4b a6 64 be
       0.0567289 0.31272054 -0.29966697 -0.2232906
0003c0 6e 98 27 3e 60 2b 4c 3e 21 c6 26 3d c5 92 85 be
       0.16366741 0.19938421 0.040716294 -0.2608854
0003d0 6f fd 29 be 21 64 33 3e ee 75 46 3e 0a 22 44 be
       -0.16600583 0.17518665 0.19380924 -0.1915361
0003e0 d1 0c 37 b9 3a d0 f0 bd 38 a4 81 3e 67 fd ed 3c
       -0.00017457014 -0.11758466 0.253206 0.029051496
0003f0 d9 17 6c be c7 39 9a 3c ef 34 5d 3e 06 32 33 3e
       -0.23055972 0.018826379 0.21602224 0.17499551

generator.conv1.bn.weight f4 [64]
000000 01 9c 7f 3f e9 ab 7f 3f d8 a6 7f 3f ad 3a 80 3f
       0.9984742 0.9987169 0.9986396 1.0017906
000010 74 85 7f 3f a0 4d 7f 3f ff 69 80 3f 4a db 7f 3f
       0.9981301 0.9972782 1.0032347 0.99943984
000020 80 79 80 3f 4f 71 7f 3f da 08 80 3f 79 fa 80 3f
       1.0037079 0.9978227 1.0002701 1.0076438
000030 47 5f 80 3f 11 29 80 3f 99 03 80 3f 71 be 7e 3f
       1.0029076 1.0012532 1.0001098 0.9950934
000040 ff 1e 80 3f c4 98 80 3f 09 2b 80 3f 50 f0 7f 3f
       1.0009459 1.004662 1.0013133 0.9997606
000050 8e d4 7f 3f bd 57 7e 3f 35 0a 80 3f 7b a0 7f 3f
       0.9993371 0.9935263 1.0003115 0.9985425
000060 cf 4d 7f 3f f2 84 7f 3f 69 cd 7f 3f f5 7b 7f 3f
       0.997281 0.99812233 0.99922806 0.9979852
000070 af ec 7e 3f 1c 86 7f 3f 99 45 80 3f 5d 8b 7f 3f
       0.995799 0.9981401 1.002124 0.99822026
000080 f7 66 7f 3f 39 0f 80 3f b4 76 80 3f ce 9f 80 3f
       0.99766487 1.0004646 1.0036225 1.0048769
000090 85 b7 7f 3f 30 c1 7f 3f fe ce 7f 3f 16 8f 80 3f
       0.99889404 0.99904156 0.9992522 1.0043666
0000a0 d2 8d 80 3f 0e 92 80 3f 91 98 7f 3f d0 8c 80 3f
       1.004328 1.0044572 0.9984217 1.0042973
0000b0 19 23 80 3f 9d a5 7f 3f 84 a6 7e 3f ab bb 80 3f
       1.0010711 0.9986208 0.9947283 1.0057272
0000c0 80 fc 80 3f 4e 0f 80 3f 47 4e 80 3f 62 07 80 3f
       1.0077057 1.0004671 1.0023888 1.0002253
0000d0 21 26 7e 3f a4 e6 7f 3f 13 f4 7f 3f 33 64 7f 3f
       0.9927693 0.99961305 0.999818 0.99762267
0000e0 c8 09 7f 3f 3e 33 7f 3f f4 41 7f 3f 9f 6c 80 3f
       0.996243 0.99687564 0.9971001 1.0033149
0000f0 d4 d3 7e 3f 3f 31 7f 3f c3 a0 7f 3f a0 4b 80 3f
       0.99541974 0.9968452 0.9985468 1.0023079

generator.conv1.bn.bias f4 [64]
000000 02 5c b0 ba 3d b9 4c bb 91 36 17 bb aa 88 c5 39
       -0.0013455155 -0.003123834 -0.0023073296 0.0003767659
000010 ec 5e 55 bb f2 56 ed ba e1 8b a1 3a b9 f8 05 bb
       -0.0032557799 -0.0018107577 0.0012325012 -0.002044244
000020 77 ed be 39 1f 1e a8 3b 5a a6 be 3a d4 22 76 3b
       0.0003641655 0.005130544 0.0014545426 0.003755738
000030 e1 42 86 3a ed d3 9b 3b 93 58 12 bb bc 50 d2 bb
       0.001024332 0.004755488 -0.0022330626 -0.0064183157
000040 0e 5a 8d 3a 04 08 01 3b 0a f9 f7 3a 44 30 47 bb
       0.0010784285 0.0019688616 0.0018918824 -0.0030393759
000050 43 58 92 ba 5e 34 e4 bb 6d ba 5f ba e2 e6 4b ba
       -0.001116522 -0.0069642505 -0.00085345545 -0.00077782397
000060 cb d6 b8 bb bc eb 8f 39 df 98 85 bb 2f a8 0c 3b
       -0.0056408397 0.0002745072 -0.0040770615 0.002146255
000070 07 d5 09 bb 69 7f ce ba 4c bc 33 bb 06 be 11 bb
       -0.0021031515 -0.0015754524 -0.0027425466 -0.0022238507
000080 35 d0 ad bb 9c 9e c8 b9 7c 71 92 3b 46 c8 23 bb
       -0.005304361 -0.00038265146 0.004469095 -0.0024991198
000090 74 8e b7 3a 46 55 90 3a 27 51 26 ba 1c 4e 01 3b
       0.0014004246 0.0011011742 -0.000634449 0.0019730395
0000a0 49 4e ad ba 5a 4c 0d 3b 83 92 03 bb 55 c7 67 3b
       -0.0013222183 0.0021560402 -0.0020076341 0.0035366614
0000b0 fc d3 33 ba 3e d8 1b bb 8b 18 b1 bb 7a 9d 38 3b
       -0.0006859896 -0.0023780013 -0.005404537 0.0028170035
0000c0 9f fc c3 3b 36 18 cf 3a 9a 56 85 3b b7 9a 7d 3b
       0.0059810425 0.0015800062 0.0040691616 0.0038696954
0000d0 50 38 af bb f6 9b 87 b9 c2 e9 fc ba 6b aa e8 ba
       -0.005347289 -0.00025865406 -0.001929574 -0.0017750984
0000e0 29 e9 22 bb 19 95 5a bb 65 a3 17 bb 29 7b 20 3b
       -0.0024858213 -0.003335303 -0.0023138162 0.0024487472
0000f0 c7 3f 43 bb 06 e1 ea b9 04 76 10 bb 4b ef a6 39
       -0.0029792653 -0.00044799614 -0.0022043 0.00031840274

generator.conv1.bn.running_mean f4 [64]
000000 11 cb 79 3c ec 14 f9 bc 00 07 aa 3d 92 9d 80 bd
       0.015246169 -0.030405484 0.083021164 -0.06280054
000010 8a 65 df bc 64 ef 86 3b 84 48 d5 bb 0d a2 00 3d
       -0.027270097 0.004117893 -0.0065088887 0.031404544
000020 96 28 64 3d 47 8a ed 3a 9e d2 4d ba 33 e1 c6 3b
       0.05570277 0.0018122875 -0.0007851514 0.0060693263
000030 46 38 35 bd 79 8f 16 bc 75 75 4d 3b 24 a8 bc 3b
       -0.04424312 -0.00918948 0.0031350527 0.0057573486
000040 64 68 a9 bd df 18 8c 3a 8f 4b bf 3d de 68 19 3c
       -0.08271864 0.0010688565 0.093405835 0.009363381
000050 aa c0 9b bd ef b8 11 bd 93 7d e3 bc 40 27 ce bb
       -0.07605107 -0.035576757 -0.02776984 -0.0062913
000060 41 66 1c 3d a2 38 89 bd 99 7c 46 3d ba 27 bd bb
       0.038183454 -0.06700255 0.04845867 -0.005772558
000070 80 cb 3b 3d 53 12 fd bc f1 64 9d 3d cc c1 32 bc
       0.04584837 -0.030892527 0.07685269 -0.010910463
000080 6f 67 e1 3c 61 c8 ca 3c 76 fd e9 bc 36 0d 75 3a
       0.027515141 0.024753751 -0.028563242 0.0009347977
000090 d2 ed 53 bd 9c 36 1a 3d 36 01 ff 3c fd fb e9 bc
       -0.051740475 0.037649736 0.031128507 -0.02856254
0000a0 71 cf 42 3c 7b 5c 5a 3d 6a ea a4 3c a6 72 31 bd
       0.011890278 0.053310852 0.020131309 -0.043322228
0000b0 aa 0b d1 3b a4 92 38 bc 8a 6e 23 bd f7 70 d7 bc
       0.0063795643 -0.011265431 -0.03990034 -0.026298983
0000c0 6f b6 06 3c 49 02 cf bb bb ba 81 bd 51 1f e3 bc
       0.0082222065 -0.006317411 -0.06334444 -0.027724894
0000d0 58 64 52 3c 8e 63 0d 3d e4 c9 2b bc 86 56 04 3d
       0.012841307 0.03451877 -0.010485146 0.032309078
0000e0 a9 0d 2d 3b a3 c6 fb bc 21 49 5c 3d 02 30 af bb
       0.0026405847 -0.030734366 0.05378068 -0.005346299
0000f0 9f ec 2d bc 8a fc 9b 3b ce 45 ba bc 80 99 21 3d
       -0.010615497 0.0047603296 -0.022738364 0.03945303

generator.conv1.bn.running_var f4 [64]
000000 15 8f f3 3c 5d 06 69 3d 18 45 b2 3e 7b a0 50 3e
       0.029731313 0.056890834 0.3481834 0.20373718
000010 c4 9e 13 3d 26 d6 d3 3b 24 1f 60 3c c6 95 92 3d
       0.036040083 0.0064647375 0.0136792995 0.07157473
000020 be f2 1e 3e af ac 05 3c 79 ef e5 3b 2e 2c 5c 3c
       0.15522286 0.008158847 0.0070170728 0.013438268
000030 13 21 e2 3d 3e 7e 7d 3c 3f 81 b5 3c d3 bb c7 3c
       0.11041465 0.015471993 0.022156356 0.024381554
000040 f3 b5 ad 3e 49 3c 93 3c 5c 56 e3 3e 69 a6 28 3c
       0.3392788 0.017973082 0.44401824 0.0102935815
000050 f4 81 93 3e 9d 6c 83 3d 0f 3d 99 3d 51 a0 8b 3c
       0.28810084 0.06417201 0.07482349 0.017044218
000060 d3 3a a1 3d 36 61 80 3e 5d 60 02 3e be c3 10 3c
       0.07872548 0.25074166 0.12732072 0.008835731
000070 d8 0b ee 3d 3d 70 60 3d 99 42 94 3e a4 2e 49 3c
       0.11623353 0.05479454 0.2895706 0.012279186
000080 57 af 4a 3d 73 2d 0e 3d 4d 01 24 3d 2a 8e b5 3b
       0.049483623 0.034711313 0.040040303 0.005540629
000090 85 ab 0b 3e 8d 3e 96 3d 97 a9 89 3d 8c d2 64 3d
       0.13639648 0.07336149 0.067218 0.055864856
0000a0 7d 5e 90 3c d5 e5 16 3e 19 5c 02 3d 1d 38 d1 3d
       0.01762318 0.14736111 0.031826112 0.10215781
0000b0 ae 7e 63 3c 96 88 3b 3c 18 bb bb 3d d5 77 3c 3d
       0.013885183 0.011446139 0.09166545 0.04601272
0000c0 bc e9 11 3c 8f 31 45 3c 9d bd 56 3e f6 52 1b 3d
       0.008905824 0.0120357415 0.20970769 0.037920915
0000d0 4a 2b 5f 3c ca bd 83 3d 9c d5 5d 3c 2f 31 60 3d
       0.013621161 0.06432684 0.013539698 0.054734405
0000e0 de 8d 5f 3c d9 2f 60 3d e5 49 27 3e f7 31 dc 3b
       0.013644664 0.05473313 0.16336782 0.0067198235
0000f0 dd 0e 43 3c 47 bc 17 3c b5 d8 16 3d 81 97 a5 3d
       0.011905399 0.009261197 0.03682776 0.08085538

generator.conv2.conv.weight f4 [64, 64, 3, 3]
000000 42 c8 9a ba 39 1a 02 bd 6c 9c 67 3c 88 09 13 3c
       -0.0011808949 -0.03176329 0.014136415 0.00897444
000010 10 24 21 3c 51 c0 19 bd 33 36 10 3d d8 40 b6 3b
       0.009835258 -0.037536923 0.03520794 0.005561929
000020 df c8 05 bd 9c 50 f3 3c d9 a8 2c 3d d9 2d a3 3b
       -0.03266227 0.029701523 0.042153213 0.0049798307
000030 29 03 a7 bc dd 5c ff bc 64 00 72 bc 6e 9b 94 bc
       -0.020387249 -0.03117221 -0.014770601 -0.01814052
000040 13 96 b8 bc ec 90 03 bc 53 17 29 3d 7d 90 a1 3c
       -0.022532498 -0.008030158 0.04128201 0.019722218
000050 3a 44 e5 3c 6c 32 0b 3d 86 c5 80 bc 26 4f ba 3b
       0.027986635 0.033983633 -0.015719187 0.0056857048
000060 96 8a 1c 3d 08 59 fe 3c e0 2c 5a bc 98 78 85 bc
       0.038218103 0.031048313 -0.013316363 -0.016292855
000070 ac 97 d9 3b cc 3f 6d 3c 0f b2 84 bc b9 60 c1 bc
       0.006640395 0.014480542 -0.016198186 -0.023605691
000080 07 3a 96 bc 81 fe bf bc 5d 1e a3 3c 66 cb 42 bc
       -0.018338216 -0.023436787 0.01991194 -0.011889314
000090 21 69 0b 3d 3d 36 08 bd 1a 11 88 3c 2a 2a 8a 3c
       0.034035806 -0.03325485 0.016609717 0.016865809
0000a0 0c 8b bb bb a1 66 82 bc bd f0 1b bd e3 8f 8f ba
       -0.005723363 -0.015918078 -0.038071383 -0.0010952916
0000b0 43 06 d2 bc 7f 83 e8 bc e0 d6 c6 bc 9f 13 13 3d
       -0.025637751 -0.028383015 -0.024272382 0.035907384
0000c0 c6 50 19 bd 80 32 c0 bc 17 9f 36 3c f7 89 01 3d
       -0.037430547 -0.02346158 0.011146328 0.031625714
0000d0 86 90 ab bb d0 d3 ee bc 64 f8 bc 3c 73 10 01 bd
       -0.0052357344 -0.029153734 0.02306766 -0.031509828
0000e0 e4 f7 e5 3c 09 bb cd bc c2 b9 f1 3c db 47 11 3d
       0.028072305 -0.0251136 0.029507522 0.035468917
0000f0 9e ae 09 3d c5 1a d7 3c c9 3c 70 bc dd b7 ba bc
       0.033613794 0.026257882 -0.01466293 -0.022792751
000100 96 4d 00 3c fa 58 a8 bc eb 61 e4 bc d2 e3 ce 3b
       0.007830998 -0.02055024 -0.027878722 0.0063137794
000110 e5 79 9d 3c 18 41 e3 3c 1f 05 1e bc ce 80 b1 3c
       0.019223163 0.027741 -0.009644776 0.021667864
000120 73 5c fd bc b5 86 f4 3c b8 44 c2 bc 7b 84 52 3b
       -0.030927872 0.02984939 -0.023714408 0.0032122422
000130 a0 53 00 3d af 46 b8 3c 77 6e 76 bc d6 12 96 3b
       0.03132975 0.022494642 -0.015040985 0.004579882
000140 a5 6a 06 3d 25 9d 1d 3d 86 87 d1 3b c6 c1 97 bc
       0.032816548 0.038479943 0.0063943295 -0.018525016
000150 cb 64 26 3d 1d c7 0e bd fc 11 d8 3c e8 0a 69 3c
       0.040623467 -0.034857858 0.026375763 0.014223792
000160 ef c7 0d 3d 27 d1 0a bd 30 25 0c 3d 75 46 06 3d
       0.0346145 -0.03389087 0.034215152 0.032782037
000170 4b ea d9 3c 60 ad 13 3b 9f 8f 01 bd b3 b6 35 3d
       0.026600977 0.002253376 -0.03163111 0.04436369
000180 da 1d 0c bd a0 18 25 bd 24 d2 27 3d b1 ea ad bb
       -0.034208156 -0.040306687 0.04097189 -0.0053075184
000190 37 a2 30 3d 40 02 02 3d f6 f8 02 bd 37 b2 2b 3d
       0.04312345 0.031740427 -0.03197571 0.041918006
0001a0 0e 74 f4 3c 1e 21 66 bc 9b 79 f1 39 dd 53 f0 3b
       0.029840495 -0.014045982 0.00046057705 0.007334216
0001b0 48 a6 5e bb c2 18 13 bd 11 83 8f 3a 9b 68 a2 3c
       -0.0033973623 -0.035912283 0.0010949095 0.01982527
0001c0 df cc f0 ba 05 16 cf bb 1c 21 06 bd 19 78 28 bc
       -0.0018371603 -0.0063197636 -0.03274642 -0.01028254
0001d0 f5 bd 14 bd d7 db 16 3d 90 f7 b4 bc 76 8c ac bc
       -0.03631397 0.03683075 -0.022090703 -0.02106307
0001e0 15 da 10 3d 8d ad a4 bc 8b 25 17 bc 38 75 48 bc
       0.03536423 -0.020102287 -0.00922526 -0.012234978
0001f0 6e 0c 12 bd ff f2 d5 bc 3e ff 0b bc 22 25 9d bc
       -0.035656385 -0.026116846 -0.008544741 -0.019182745
000200 f8 c8 73 bc 3d c3 bc bc 74 a0 23 bc cf e5 52 bc
       -0.014879458 -0.023042316 -0.0099869855 -0.012872173
000210 20 c8 f8 bb b0 36 a9 bb 1c 39 96 bb f6 1b 40 3c
       -0.007592216 -0.00516399 -0.0045844447 0.011725416
000220 8e 41 df 3c 23 18 da 3c fd b6 cf bc 0c b9 86 b9
       0.027252939 0.026622837 -0.02535581 -0.00025696342
000230 86 55 9e bc 5a d0 2e bd 68 8f ba bc 92 c1 26 3d
       -0.01932789 -0.04267917 -0.02277346 0.040711947
000240 30 a7 d0 3c 66 e4 2c 3d 17 08 bd bc 5b 23 15 3b
       0.025470346 0.042210005 -0.023075147 0.002275667
000250 ff e4 73 3c c7 b7 fb 3c 29 7d 2b 3d 64 13 bf bc
       0.01488614 0.03072728 0.04186741 -0.023324676
000260 be e7 2a bc a0 9e 89 3c ec 5e 01 bc 6f 97 72 bc
       -0.010431228 0.016799271 -0.007896166 -0.014806612
000270 8f cf 1b bb 52 3b b5 bc e0 a4 8a 3c fe b8 11 bd
       -0.0023774838 -0.022123013 0.016924322 -0.035576813
000280 b5 e5 02 bd 67 70 0e 3d 36 97 bf 3b 3d ec dd 3b
       -0.031957347 0.034775164 0.005846883 0.0067725466
000290 fe 35 0d bd cf 27 fc 3c 2a 4a ed 3c ce c2 92 3c
       -0.03447532 0.030780701 0.028966028 0.017915156
0002a0 d7 1c d1 3c 84 c8 a4 3c 4b 10 68 3c 63 dd c8 3c
       0.025526447 0.020115145 0.014164041 0.024519628
0002b0 86 02 2a bc 2b d9 b8 bc 6e 98 7d 3c 58 85 90 bc
       -0.010376578 -0.022564491 0.015478237 -0.017641708
0002c0 7d f4 08 bd e1 36 e8 bc e5 66 6d bb 17 f8 38 bc
       -0.033436287 -0.02834648 -0.003622466 -0.011289618
0002d0 df bb 16 3d 17 97 32 bc 7b 4f 08 3d 6c 89 0f ba
       0.03680026 -0.01090028 0.033278923 -0.00054754945
0002e0 cf 76 d0 3c 70 62 b1 bc 02 4f 47 bc 3a 70 b0 3c
       0.025447277 -0.021653384 -0.012164833 0.021537889
0002f0 45 79 32 bc db 0d 98 3c 91 0a 89 bb e0 98 a4 bc
       -0.010893171 0.018561294 -0.004182168 -0.020092428
000300 57 a0 19 3d 38 22 aa bc d1 5d 70 3c 08 c6 a6 bc
       0.037506428 -0.02076827 0.014670805 -0.0203581
000310 58 33 2e 3c 47 cd 1a bc 04 10 56 bc 27 bc 30 3d
       0.0106323585 -0.009448356 -0.013065342 0.043148186
000320 61 0b cf bc 79 cb 82 bb 62 64 22 3d 34 00 19 bd
       -0.02527398 -0.003991541 0.039646514 -0.03735371
000330 0b 2a 60 bb 67 b0 ab 3c 93 75 be bc 23 e4 63 3b
       -0.0034204747 0.020958139 -0.023249423 0.0034773431
000340 07 79 1c bd 8a 92 aa 3a b6 61 0b 3b 1e c1 6b 3c
       -0.03820136 0.0013013643 0.0021267957 0.014389304
000350 15 3d 5d 3c 6f ea e0 bc 73 d9 d1 ba 3d 77 97 bc
       0.013503333 -0.027455537 -0.001601024 -0.018489474
000360 26 c5 1f 3d ad 4d 1d 3d 14 db c5 ba 35 da ae bb
       0.039006375 0.038404156 -0.0015095198 -0.005336071
000370 66 bc f8 bb 63 4b e6 3c ea 2d 27 3c a4 32 1e 3b
       -0.007590818 0.028112119 0.010203818 0.002413907
000380 85 f8 65 3c 72 87 81 3a e3 f0 25 3d 22 23 91 3c
       0.014036302 0.0009882285 0.04051293 0.017716948
000390 30 d0 19 3d 22 7b 9b bc 69 87 78 3c 5a fc da 3a
       0.03755206 -0.018979613 0.015169003 0.0016707287
0003a0 fd ee 7c 3c 42 fb 39 bc a0 df 82 3c ad 4e b9 3c
       0.015437839 -0.011351408 0.015975773 0.022620523
0003b0 e5 35 5d 3c e9 0f fd 3c 9e 64 9d 3c 7a 03 05 bd
       0.013501619 0.030891376 0.019213017 -0.03247402
0003c0 de 14 08 3b 5b 97 00 3c 76 3a 4f 3c 94 d6 06 bd
       0.002076439 0.007848586 0.0126482155 -0.03291948
0003d0 d9 55 5d bc 42 be 23 bd fd 3b c5 bc 71 39 a6 bb
       -0.013509237 -0.039976366 -0.024076456 -0.0050727655
0003e0 7e 6c ec bc 0a a5 ad bc 3d 63 d6 bc e3 9e 06 3d
       -0.028860327 -0.02119686 -0.026170367 0.03286637
0003f0 8e 8d af bc 85 5d 20 3d 07 25 00 3d ae 0a 05 bd
       -0.021429803 0.039151687 0.031285312 -0.032480888

generator.conv2.bn.weight f4 [64]
000000 70 55 80 3f b3 52 80 3f d4 06 80 3f c0 27 7e 3f
       1.0026073 1.0025238 1.0002084 0.99279404
000010 bb 52 80 3f 22 d7 80 3f 38 bc 80 3f 1f 44 80 3f
       1.0025247 1.0065653 1.005744 1.0020789
000020 63 29 80 3f 69 79 80 3f 1c 0a 80 3f 20 71 7f 3f
       1.001263 1.0037051 1.0003085 0.9978199
000030 39 4c 80 3f 87 69 80 3f bd db 7f 3f b3 19 80 3f
       1.0023261 1.0032204 0.9994467 1.0007843
000040 8d ed 7f 3f c9 bf 7e 3f 72 37 80 3f c3 8c 7f 3f
       0.9997185 0.9951139 1.001692 0.9982416
000050 47 f1 7d 3f ff 82 80 3f 77 c7 7f 3f 11 38 7e 3f
       0.99196285 1.0039977 0.99913734 0.993043
000060 fa e0 7f 3f 7e 89 7f 3f ab 2f 80 3f 72 03 80 3f
       0.9995266 0.9981917 1.0014547 1.0001051
000070 47 71 7f 3f 8e ec 7e 3f b2 b0 7e 3f dc 6d 80 3f
       0.9978222 0.99579704 0.99488366 1.0033526
000080 1f 2b 80 3f fa bd 7f 3f a2 35 7f 3f 8e 0c 80 3f
       1.001316 0.99899256 0.9969121 1.0003831
000090 73 65 80 3f 5d 99 7f 3f c7 29 7f 3f 23 3d 80 3f
       1.003096 0.9984339 0.9967312 1.0018657
0000a0 bf 80 80 3f 30 02 80 3f 5c 1a 80 3f e2 e4 7f 3f
       1.003929 1.0000668 1.0008044 0.9995862
0000b0 37 b5 7f 3f d9 7f 7f 3f 68 02 80 3f d3 f4 80 3f
       0.99885887 0.99804455 1.0000734 1.0074714
0000c0 34 54 7f 3f d3 6a 80 3f bc 3e 7f 3f 37 07 80 3f
       0.9973786 1.00326 0.997051 1.0002202
0000d0 c2 f2 7f 3f 46 17 80 3f 5a df 7f 3f ec a2 80 3f
       0.99979794 1.0007102 0.9995018 1.004972
0000e0 75 1b 80 3f ac 31 7f 3f 13 65 7e 3f 1f 40 80 3f
       1.0008379 0.9968517 0.99372977 1.0019568
0000f0 31 c2 7f 3f da 7f 7f 3f bc b3 80 3f 81 42 7e 3f
       0.9990569 0.9980446 1.005485 0.99320227

generator.conv2.bn.bias f4 [64]
000000 f8 44 da 3a c4 ed 87 3b 80 88 7b ba 02 a7 b0 bb
       0.0016652634 0.004148217 -0.000959523 -0.0053910026
000010 ec c9 0f 3b ff e0 1e 3b 55 e0 9a 3b 05 dc 73 3b
       0.0021940423 0.0024242995 0.0047264495 0.003721
000020 25 90 66 ba d4 2d d8 3b 66 b5 c9 39 d8 d3 94 39
       -0.0008795283 0.00659726 0.0003847286 0.00028386596
000030 72 e9 e5 3a 9d 54 9c 3b dc 1b c7 ba c3 29 8b 3a
       0.0017540886 0.004770829 -0.0015190798 0.0010617304
000040 35 b6 a8 39 34 30 6b bb c0 39 e0 3b ce cb 74 bb
       0.00032179212 -0.0035886886 0.006842822 -0.0037352922
000050 36 47 c7 bb 81 b3 dd 3b c0 96 99 37 02 ff b0 bb
       -0.006081487 0.0067657833 1.830922e-05 -0.005401493
000060 30 2f 7b bb 4d 6c 66 b9 50 f9 f6 3a 64 fa 59 3b
       -0.0038327686 -0.00021974854 0.0018842611 0.0033260817
000070 cf 53 b2 39 f5 5f 80 bb 8b af 57 bb f6 31 dc 3b
       0.00034013248 -0.003917689 -0.0032911028 0.006719823
000080 d8 38 af ba eb 7c 28 39 b0 d0 6f ba b7 16 94 3a
       -0.0013368381 0.00016068264 -0.00091482233 0.0011298273
000090 22 73 16 bb 17 89 59 3a 2c 91 da ba 84 76 a6 3a
       -0.0022956808 0.0008298321 -0.0016675345 0.0012700115
0000a0 ae 5d 66 3b f0 2b 92 3b 49 7e de 3a 5b ab a1 ba
       0.0035151052 0.004460804 0.0016974892 -0.0012334393
0000b0 d9 97 dd ba 2c da e3 39 1b 90 66 3b b1 79 8b 3b
       -0.0016906216 0.00043459365 0.0035181108 0.00425645
0000c0 ea fe 52 ba 09 6a e3 3a 9a 35 9b ba 74 3c bf 3b
       -0.00080488494 0.0017350327 -0.0011841536 0.005836064
0000d0 bf df 0b bb 7d 3f e8 b9 94 e4 a2 3a e4 cb c1 3b
       -0.002134308 -0.0004429779 0.0012427741 0.0059141982
0000e0 c6 31 37 3b 08 b7 88 bb 33 4d 0c 39 da e6 22 3b
       0.0027953251 -0.0041722097 0.000133802 0.0024856837
0000f0 19 1d 95 39 3b 83 a6 bb 83 3d 06 ba 2f 2a ec b9
       0.00028441174 -0.005081562 -0.00051208603 -0.00045044857

generator.conv2.bn.running_mean f4 [64]
000000 45 af 99 3e 40 91 b0 3e 6d 12 d5 be a7 c0 a1 bd
       0.30016533 0.34485817 -0.4161562 -0.07898074
000010 e1 15 46 be aa 1c 20 3f 56 4e 02 3e 67 fb 22 be
       -0.19344284 0.6254374 0.12725195 -0.15916215
000020 4c f0 c4 bd 3a 31 15 bf 9a 4b 4b be 6f fa 9f be
       -0.096161455 -0.5827824 -0.19853058 -0.31245753
000030 71 00 f0 3c d4 34 59 3d 59 32 58 3e 4b 87 b2 bd
       0.029297085 0.053028896 0.21112956 -0.08717211
000040 95 25 f1 bd cf 03 38 bf 74 cd 11 3e dd 0d b6 3e
       -0.11774746 -0.7188081 0.1423853 0.35557452
000050 45 7b 87 be 62 95 f8 bc 1f 3d fc 3d 16 8b 04 3e
       -0.26461235 -0.030344669 0.123163454 0.12943682
000060 ac d3 79 be af 18 6c be b0 46 a8 be 92 c8 91 be
       -0.24397153 -0.23056291 -0.3286643 -0.28473336
000070 c9 94 5a bd 7c 7f a9 bc f1 8b 05 be 16 74 8c be
       -0.05336455 -0.020690672 -0.13041665 -0.27432317
000080 71 df 9f 3d a9 08 8e 3d 03 a5 06 3e 7d 05 a1 be
       0.0780629 0.069352455 0.13148884 -0.314495
000090 87 fe 91 3e 72 a8 08 3d ee a1 eb be 2e 1a 3f 3e
       0.285145 0.033363767 -0.4602198 0.1866233
0000a0 b1 39 97 3e 27 fe ba bb 9a 8f 08 bf 38 df 88 3e
       0.29536203 -0.005706567 -0.5334412 0.26732802
0000b0 f6 5e 20 bf ab 7d 31 bf fc e6 a0 be 20 9f 95 3e
       -0.626449 -0.6933238 -0.31426227 0.29222965
0000c0 45 15 5a be 33 8d 3c be 92 67 c1 3d e9 ec 90 3d
       -0.21297176 -0.18413238 0.094435826 0.07076437
0000d0 63 21 92 3e 57 c5 3c be d3 28 37 bf 69 bd ca 3d
       0.28541097 -0.18434654 -0.7154667 0.09899408
0000e0 2a f0 95 3e de e8 94 3e c6 a4 ce 3e 48 c9 d7 3d
       0.29284793 0.29083914 0.40360087 0.10536438
0000f0 f9 fe 94 3e d6 ea c9 3e 3b 35 c3 3e 7f 50 d4 bd
       0.2910078 0.39436978 0.3812655 -0.10366916

generator.conv2.bn.running_var f4 [64]
000000 3b 3f cd 3e c9 15 20 3e 95 88 08 3f 8b b0 06 3f
       0.40087304 0.1563331 0.5333341 0.52613133
000010 89 78 5a 3e 5e d9 95 3e 0a 6c 27 3e a8 ec 9b 3e
       0.21335043 0.292674 0.16349807 0.30453992
000020 14 07 54 3e c3 cf 95 3e 9f 69 8a 3e 66 ed dc 3e
       0.20705825 0.29260072 0.27033707 0.4314987
000030 ee 75 e4 3e c9 90 41 3e 63 7f b4 3e 11 40 8e 3d
       0.44621223 0.18902887 0.35253438 0.069458134
000040 f4 59 7e 3e d0 c6 65 3f 7c 39 8d 3e 6d aa e3 3e
       0.24839002 0.8975649 0.2758292 0.44465962
000050 eb 7c 3e 3e 9e f7 d0 3d 03 04 e3 3e 95 89 0d 3e
       0.1860234 0.10203479 0.44338998 0.13822015
000060 f4 1c ec 3d a7 82 1c 3f 37 cf 0f 3f 17 5d a0 3e
       0.1152896 0.6113686 0.5617556 0.31321022
000070 fe d4 e6 3d fa 4e 47 3e 96 13 5b 3e 9f 7d e6 3e
       0.11271094 0.19463721 0.2139419 0.45017716
000080 83 89 44 3e 3d 8f a4 3d 8f 28 81 3e 0a 1e 0f 3e
       0.19193082 0.08035133 0.25226256 0.13976303
000090 7c 56 17 3f 39 17 b3 3e b3 c3 30 3e b1 93 a0 3e
       0.5911634 0.34978655 0.17262153 0.3136268
0000a0 84 6b 86 3e 7c 7a cc 3e 64 62 91 3e df 4b 0c 3e
       0.26253903 0.39937198 0.2839538 0.13700818
0000b0 9f 45 99 3e 7d 93 89 3e 64 ee 8b 3e 61 a9 12 3e
       0.2993593 0.26870337 0.27330315 0.14322425
0000c0 0b 05 42 3f 51 a3 cb 3e d7 cc 0e 3e 29 6b da 3d
       0.75788945 0.39773038 0.13945328 0.106649704
0000d0 3b b8 f8 3d 23 20 eb 3d a7 21 78 3e e0 6a d8 3d
       0.12144514 0.11480739 0.24231587 0.1056726
0000e0 c4 bd ff 3d 15 e0 eb 3e ab 99 00 3e 74 6c 80 3e
       0.12487367 0.460694 0.1255862 0.25082743
0000f0 fa 1a 78 3e df 0c c5 3e 7e 10 db 3e 3c ef 57 3e
       0.2422904 0.38486382 0.4278602 0.21087354

generator.conv3.conv.weight f4 [64, 64, 3, 3]
000000 a8 1a be 3c 66 0f ee bc 2b 3d cf bc ad e3 96 3c
       0.02320607 -0.029060077 -0.025297722 0.018419111
000010 ec ed c0 3b 6c 30 10 bd 65 0f 8d bc f8 20 f5 3b
       0.0058877375 -0.03520243 -0.017219255 0.007480737
000020 4f b3 1b bc bd 75 ba 3c 5b 9d b1 3a 98 2f c9 3c
       -0.0095032 0.02276122 0.0013550924 0.024558827
000030 c2 17 57 3c 54 a9 12 3d 5a 66 28 3b bc 2b de 3b
       0.013128223 0.035806015 0.0025695772 0.006780116
000040 d3 74 c0 39 8e 72 03 bd be 04 a5 bc 6f ec 41 bc
       0.00036708135 -0.03209167 -0.020143863 -0.011836155
000050 5e 08 4e 3c e0 94 18 3d 39 7d 1c bd 3a b2 80 bc
       0.012575237 0.037251353 -0.03820536 -0.015709985
000060 51 63 8c 3c 7a a8 e4 bb e4 cf a5 bc 2b 17 1a 3d
       0.017137202 -0.006978092 -0.020240732 0.03761975
000070 1f 30 05 bc 95 da b1 bc f1 26 f1 bc d5 b4 7c 3c
       -0.008129149 -0.021710673 -0.029437514 0.015423973
000080 2c 2e 04 3c 0f 74 23 bd 40 d0 4b bc cb e8 d4 bc
       0.008067649 -0.039905604 -0.012439787 -0.02598991
000090 34 4a ab 3a 34 a5 74 3c 44 c5 02 bd cb 1f 70 bb
       0.0013068379 0.014931966 -0.03192641 -0.0036640044
0000a0 dc 15 9a bc 42 25 15 3c 05 b4 08 3d 4c a7 0e 3d
       -0.018809251 0.009103121 0.033374805 0.034827515
0000b0 20 ba b5 bb d8 38 1b bd 0e 6e a5 bb 0b 3f 11 bd
       -0.0055458695 -0.037896007 -0.00504852 -0.035460513
0000c0 b3 a3 06 3d 29 37 70 bc 1b 5e ec bc 27 5f 9d bc
       0.03287096 -0.014661589 -0.028853467 -0.019210411
0000d0 95 ee c8 bc 81 aa 0c bc f5 70 0b 3d 4f c2 b5 bb
       -0.024527827 -0.008585573 0.03404327 -0.005546845
0000e0 c3 64 08 bc a5 cc 0b bd db 0b fc 3c 75 99 6a bc
       -0.008324805 -0.03413071 0.030767372 -0.014318814
0000f0 2a f2 54 3c 43 ac 22 3d f7 55 1d bd 17 7c 23 bd
       0.01299719 0.039715063 -0.03841206 -0.039913263
000100 64 27 c3 bc 31 96 58 bc 00 a4 d8 bc d0 c2 16 3a
       -0.023822494 -0.013219402 -0.026445389 0.0005751075
000110 6c 5a 26 3d f6 e4 a3 3c 2c bc b3 3c e2 e0 a9 bc
       0.040613577 0.020006638 0.021940313 -0.020737115
000120 9c 2e cd 3c ff bb be 3a 4f 9d 2b 3c 66 b0 08 bd
       0.02504664 0.0014551877 0.010474517 -0.03337135
000130 67 38 bc 3c b1 dc 58 3c d1 90 1b 3d 67 95 ef bb
       0.022976113 0.013236211 0.037979905 -0.0073115113
000140 45 34 b2 bc 3d 23 00 3d 74 84 7e bb 87 d0 af 3c
       -0.02175344 0.031283606 -0.0038836272 0.021461738
000150 3e c6 42 3c 8f 85 85 bb fb b8 b9 3c 04 cc 13 bd
       0.011888085 -0.0040747593 0.022671213 -0.036083236
000160 59 a5 dd 3c 50 12 fc bb 7f 8c 18 bd 99 a6 11 bd
       0.027056383 -0.0076926127 -0.037243363 -0.03555927
000170 13 d1 4a bc 0f 1c e9 3c 96 74 63 bc 5b 69 2f bd
       -0.012378949 0.028455762 -0.013882777 -0.042825084
000180 8b 85 12 3c a6 fb 81 3c 12 50 05 3d 71 58 72 3c
       0.008942972 0.015867066 0.032547064 0.014791594
000190 3d 5b 8f bc 83 ee c6 3c 6f c1 f4 3c 7a 9e ed bc
       -0.01749956 0.024283653 0.029877393 -0.029006232
0001a0 57 8d e3 3b ec 7a 85 3a 61 8a fb 3c 40 11 3f 3c
       0.0069443393 0.0010183728 0.030705633 0.011661828
0001b0 ed 2d 2d bd b2 96 ff 3c 81 61 b2 bb 79 11 c2 3c
       -0.042280126 0.031199787 -0.0054437523 0.023689972
0001c0 64 8a f2 3c 8b 57 89 bc 81 9b 83 3b 9a 5e 12 3d
       0.029607005 -0.016765377 0.0040163402 0.03573475
0001d0 a5 d6 87 bc 9d d3 2e 3d 40 ee c4 bb a4 c6 18 3d
       -0.016581843 0.04268228 -0.006009847 0.037298813
0001e0 38 5c 73 bc 9e 83 9d 3c 0b 2c 10 3d 95 49 18 3d
       -0.01485353 0.019227799 0.035198253 0.03717955
0001f0 a1 8a c2 bc e8 88 c3 3b d4 2b a9 bc 8b e2 41 bc
       -0.023747744 0.005967248 -0.020650782 -0.011833797
000200 a4 e3 02 3b 0c 39 42 bb 3c 59 f2 3c b5 bb 1d bd
       0.001997211 -0.0029636053 0.029583566 -0.03850909
000210 eb 6f 00 3a a8 b2 13 3d dd 59 b9 bc d8 56 20 3d
       0.00048994896 0.03605905 -0.022625858 0.03914532
000220 17 dc 36 3d 6c b6 df 3c fd 22 67 bc a6 b9 55 3c
       0.044643488 0.027308665 -0.014107463 0.01304475
000230 0a 54 44 bc ec 01 00 bd 52 84 c0 bc 5c 28 ab bc
       -0.011982927 -0.031251833 -0.023500595 -0.020893268
000240 f6 ad 0f bd be c0 13 3d 0c 58 00 bb b0 f0 59 bb
       -0.03507801 0.036072485 -0.001958373 -0.0033255033
000250 d3 c7 82 bb d1 25 9a bc 8b 29 76 3c 65 f6 15 3d
       -0.003991106 -0.01881686 0.015024553 0.036611933
000260 70 93 1d bd 76 1f 20 3d 60 3f 8f 3c 2f 18 bd 3b
       -0.038470685 0.039092503 0.017486274 0.005770705
000270 e3 3a bc bb 24 68 db bc 23 cf b2 3c 1a 6e 64 3b
       -0.0057443245 -0.026783057 0.021827286 0.0034855665
000280 bf 17 a7 3c ea 78 08 bc 95 fb 40 3c b1 98 92 bc
       0.020397065 -0.008329609 0.011778732 -0.017895075
000290 96 7f cf 3c fb 51 16 3c 21 89 3a bc 0a ac 48 bc
       0.025329392 0.009174819 -0.011385233 -0.012248049
0002a0 fe e5 41 3c 70 e7 64 3b 5a 1a 1a 3d 37 62 1b 3c
       0.01183462 0.0034927987 0.037622787 0.009483865
0002b0 b0 3e 93 3a 25 f5 b8 bb 4c 88 38 3d 99 d5 6f bc
       0.0011233892 -0.005644458 0.045051858 -0.014638328
0002c0 b1 b2 94 bc 33 15 d5 b9 0b ae d4 3c 0d 6d 2d bb
       -0.018151613 -0.0004064232 0.025961896 -0.0026462704
0002d0 ed e0 4c bc c4 2a 8e bc 0b 7c e4 3c e8 ec 1d 3d
       -0.012504798 -0.017354377 0.02789118 0.03855601
0002e0 1d cb 17 bc 00 bc c1 3a 87 99 c3 bc c8 3b 60 3c
       -0.009264735 0.001478076 -0.023876918 0.013686128
0002f0 1c 5e e8 3c 75 66 c0 3c 97 9a a9 ba e7 29 85 bc
       0.028365187 0.023486355 -0.0012939748 -0.016255332
000300 eb 9f c3 bc cf 49 ef bb b4 2a fc bb 74 16 04 3d
       -0.023879966 -0.0073025 -0.0076955203 0.032247975
000310 35 c3 04 3d a9 5b b9 3c cc 39 00 bc 74 07 0f 3d
       0.032412726 0.022626715 -0.00782628 0.034919217
000320 c7 63 a6 bb 64 c2 28 bc 7c 8d 19 3d 93 fa 0c bd
       -0.0050778124 -0.010300253 0.037488446 -0.034418654
000330 52 b8 ca bc 01 48 25 3d c9 30 a0 bc de 45 0d bd
       -0.024746094 0.04035187 -0.019554513 -0.03449046
000340 c9 2c 01 bd 47 60 a6 bc f6 16 98 bc f7 bd fa bc
       -0.03153685 -0.02030958 -0.018565636 -0.03060816
000350 2e de dc 3c 4a c4 b0 bc 70 81 a5 bc 19 2f cf 3c
       0.026961412 -0.021577973 -0.020203322 0.025291013
000360 11 5b d7 bc 16 70 86 3c 8c 24 e9 3c 93 21 59 bc
       -0.026288541 0.016410869 0.02845981 -0.013252634
000370 8e 6e 17 bd ff 4b 04 3c dc f6 18 bc b3 2f 9b 3c
       -0.036970668 0.0080747595 -0.0093362 0.018943643
000380 12 dd ff 3b 29 e6 eb 3c e5 b0 aa 3c 7f f6 b9 bc
       0.007808336 0.028796272 0.020836303 -0.022700546
000390 19 eb 84 3c 67 b6 90 bc 95 4b fa bc 24 a4 e2 3c
       0.016225385 -0.017665101 -0.030553618 0.027666159
0003a0 f3 8a 11 3d 16 8c 51 39 bb c0 9d 3c 42 50 d1 bb
       0.035532903 0.0001998398 0.01925694 -0.0063877413
0003b0 16 b0 14 3c 2b e5 b4 3c cf 67 d6 3b a5 99 57 3c
       0.009075185 0.022081932 0.0065431367 0.01315919
0003c0 3d 0d c0 bc f0 de 0f bb 3a 89 47 3c 0b dc 2d 3d
       -0.023443813 -0.002195295 0.012178713 0.042446177
0003d0 22 93 0e bd f0 f6 0c bd 18 62 24 3d 34 ff c2 bc
       -0.034808286 -0.034415185 0.040132612 -0.023803331
0003e0 74 a5 eb 3c 68 33 17 3d 9f cb 00 3d 87 6a f0 bc
       0.028765418 0.03691426 0.03144419 -0.029347671
0003f0 d3 a4 97 bc 7e 24 fc bc 35 9d 2a bd 9f 66 df bc
       -0.018511211 -0.03077912 -0.04165383 -0.027270613

generator.conv3.bn.weight f4 [64]
000000 20 57 80 3f 72 ce 7f 3f 63 61 7e 3f 5b 2b 7e 3f
       1.0026588 0.99924386 0.9936735 0.99284905
000010 98 83 7f 3f 75 06 80 3f d9 15 80 3f 7a 7e 80 3f
       0.9981017 1.000197 1.0006667 1.0038598
000020 8a c4 7f 3f 60 9d 7d 3f df b7 80 3f d0 90 7e 3f
       0.9990927 0.9906826 1.0056113 0.99439716
000030 6d 0b 81 3f 7a 30 80 3f 66 4c 7e 3f e8 5a 80 3f
       1.0081612 1.0014794 0.99335325 1.0027742
000040 ef 85 7f 3f 98 6c 7f 3f b9 32 7f 3f 84 36 80 3f
       0.9981374 0.99775076 0.9968677 1.0016637
000050 bd 25 7f 3f a7 3b 80 3f 5b 01 80 3f 69 4d 80 3f
       0.9966696 1.0018204 1.0000414 1.0023624
000060 8a 8e 7f 3f cd a6 7f 3f 85 06 7f 3f 74 f2 7e 3f
       0.9982687 0.9986389 0.99619323 0.99588704
000070 c4 20 80 3f 34 d0 7f 3f fb 36 80 3f af c8 7f 3f
       1.0009999 0.9992707 1.0016779 0.99915594
000080 8b 3f 81 3f ec e3 7e 3f 00 dc 7f 3f 78 b2 80 3f
       1.0097517 0.9956653 0.9994507 1.0054464
000090 0f 00 7f 3f 3b c1 7e 3f 01 c4 7f 3f 0f a7 80 3f
       0.99609464 0.99513596 0.99908453 1.0050982
0000a0 6a 74 80 3f a6 82 80 3f 3a 74 80 3f a8 1a 80 3f
       1.0035527 1.0039871 1.003547 1.0008135
0000b0 c5 50 80 3f 4f 7d 80 3f 58 2f 80 3f b8 0e 80 3f
       1.0024649 1.0038241 1.0014448 1.0004492
0000c0 c5 a9 7e 3f e1 67 7f 3f 2b 1b 80 3f c7 85 80 3f
       0.994778 0.9976788 1.0008291 1.0040826
0000d0 af b7 7f 3f 1e d9 80 3f 16 71 81 3f 33 09 80 3f
       0.99889654 1.0066259 1.0112636 1.0002807
0000e0 b8 a6 7e 3f 63 10 80 3f 31 6d 7f 3f 9c 4b 80 3f
       0.9947314 1.0005001 0.9977599 1.0023074
0000f0 d6 c4 7f 3f f4 5d 7f 3f 34 e5 7f 3f bd 83 7f 3f
       0.9990972 0.99752736 0.9995911 0.9981039

generator.conv3.bn.bias f4 [64]
000000 f0 40 39 3b dc 86 d3 3b c0 19 bc bb 9f 74 a2 bb
       0.0028267466 0.0064552855 -0.0057403743 -0.00495775
000010 65 2b 38 3a b2 72 c6 3b d5 00 d9 3a c1 73 c4 3b
       0.0007025509 0.006056153 0.0016556034 0.0059952443
000020 78 71 f7 ba 8b 1b 9c bb 8f 43 35 3b a4 f6 b6 bb
       -0.0018878421 -0.0047640256 0.0027658676 -0.005583601
000030 46 7b a1 3b 5d e5 2f 3b 9a e0 db ba 9e 0a 33 3a
       0.0049280254 0.0026839592 -0.001677531 0.000682989
000040 5e ca 37 3b 53 c3 f8 ba 65 e6 04 39 8f f1 6f 3b
       0.0028044204 -0.001897911 0.0001267433 0.0036612486
000050 bd c3 ab bb a7 11 9c 3a bc 0f 1a 3b 36 9a e1 ba
       -0.0052418397 0.0011907116 0.0023507914 -0.0017212096
000060 56 20 54 bb 79 b9 ac 3a b9 70 b0 39 9d 7b 33 bb
       -0.0032367907 0.0013177834 0.0003365332 -0.0027386912
000070 76 90 b9 3b 4b a3 1a 3a 48 c4 61 3b 8f 5b a7 ba
       0.005662973 0.00058989663 0.0034449268 -0.0012768375
000080 48 80 3f 3c 6d 74 85 bb 6e 9e 32 bb db 17 9d 3b
       0.0116882995 -0.004072717 -0.0027255076 0.0047941036
000090 6a 8f ae ba f2 d4 44 bb 2b 4c 25 3b 0e eb 08 3c
       -0.0013317887 -0.0030034152 0.0025222402 0.008356823
0000a0 06 dd b4 3b 60 e6 69 3b 07 ad 93 3b a8 18 b8 3b
       0.005519512 0.0035690293 0.0045067105 0.0056181736
0000b0 ff 8f 27 3b 22 a2 ca 3b 75 52 f6 3a c2 a8 86 3b
       0.0025568006 0.0061838785 0.0018792885 0.004109473
0000c0 cc cc 30 bb d6 74 7c ba 59 61 4b 3a 78 6f 18 3b
       -0.0026977537 -0.0009630447 0.00077583414 0.00232598
0000d0 13 48 00 3b 82 e1 18 3c 53 a1 0a 3c 88 c8 28 3b
       0.001957421 0.009331109 0.008461314 0.0025754292
0000e0 03 d3 a5 bb 58 04 75 b7 e3 1a b6 ba ca e0 84 3b
       -0.005060555 -1.4604149e-05 -0.0013893511 0.0040551173
0000f0 a3 e0 3c ba 7a ca 24 ba 75 9b 31 3b 1e d5 ae ba
       -0.00072051043 -0.0006286275 0.0027100716 -0.001333866

generator.conv3.bn.running_mean f4 [64]
000000 57 bb cd 3c 98 0e c4 be 9a 46 ef bd a7 5c 46 3d
       0.025113745 -0.38292384 -0.11683388 0.048428204
000010 7e d2 56 be ad 6d 69 be 9e fb a4 3e 67 e5 82 bd
       -0.20978734 -0.22795744 0.3222322 -0.06391411
000020 a9 9b 0d 3d 52 67 21 bf 91 14 b6 3e 06 65 21 bf
       0.034572277 -0.6304828 0.35562566 -0.63044775
000030 5e 6e b8 3e 27 45 cf 3e d2 29 9f 3e f8 50 04 bf
       0.36021703 0.40482447 0.31086594 -0.5168605
000040 fe 00 ea 3d 1e 18 dd 3e eb e2 74 be 36 99 1b be
       0.114259705 0.43182462 -0.23914687 -0.15195164
000050 95 c9 18 be bd 2e b1 be 01 e7 22 3f 43 e8 b2 3e
       -0.14920647 -0.3460597 0.63633734 0.34942827
000060 47 81 43 3f 5b b7 1a bd e9 a3 98 be 23 70 d1 3e
       0.76369137 -0.037772518 -0.29812554 0.40905866
000070 1c fe d7 be 27 4e cb 3d 22 09 0f bf 29 13 9d be
       -0.42186058 0.09927016 -0.5587331 -0.3067868
000080 44 9c 41 be 33 2c 76 be e6 be a0 be 47 95 ac 3d
       -0.18907267 -0.24040298 -0.31395644 0.0842691
000090 51 0d 28 3f 2b 2a a2 be 61 dc e6 3d 29 27 36 bd
       0.6564532 -0.31672797 0.11272503 -0.04447094
0000a0 6a 4e 9c 3c e8 61 d0 3d 13 0a 81 3e 8a af 60 be
       0.01908036 0.10174924 0.25203 -0.21941963
0000b0 68 8f 0e 3e b4 00 9d be 3b 45 c8 3c 1e 94 7d be
       0.13921893 -0.306646 0.024447074 -0.24763533
0000c0 62 25 4a 3e ca 42 8e be 0d 9b e5 be 0d d4 3a be
       0.19740823 -0.2778533 -0.44844857 -0.18244953
0000d0 b1 a9 63 be 47 b6 8a be b7 d7 f4 bc 66 14 1d be
       -0.22232701 -0.27092192 -0.029888017 -0.15339813
0000e0 ef 25 d1 bd d4 cc 6d be 41 7a 85 3c 52 f0 cf 3e
       -0.102123134 -0.23222667 0.016293647 0.40613037
0000f0 52 99 d5 3e e2 03 e6 bd 2c ff 1d be 97 15 df 3c
       0.41718537 -0.11231209 -0.15429372 0.027231975

generator.conv3.bn.running_var f4 [64]
000000 63 ea 2e 3e 9d 60 d3 3e dd d3 cf 3e fd 4d ea 3d
       0.17081599 0.41284648 0.40591326 0.11440656
000010 66 10 49 3e b7 9c df 3e ae 5b 6f 3e 85 fb 3d 3e
       0.19635162 0.4367425 0.23374817 0.18552978
000020 63 3c 97 3e 52 4f a3 3e 64 64 13 3f fd 8b a5 3e
       0.2953826 0.31896454 0.5757506 0.32333365
000030 e5 84 c9 3e e8 de b2 3e 33 4f aa 3e f4 6a 8d 3e
       0.39359203 0.3493569 0.3326355 0.2762066
000040 be e7 da 3e 05 0c 53 3e dd 3a b5 3e e7 98 64 3e
       0.4275493 0.20610054 0.35396472 0.22323953
000050 07 eb aa 3e e2 8a 78 3e f9 40 69 3e 26 c2 42 3e
       0.33382437 0.2427173 0.22778691 0.19019374
000060 0d 8d 68 3e 7d 72 4b 3e 70 d8 56 3e c8 8d 96 3e
       0.22710057 0.19867893 0.20981002 0.29405046
000070 56 3e bd 3e 6c e7 27 3e fb 1b 81 3e 5e 6c 19 3e
       0.3696162 0.16396874 0.2521666 0.14982745
000080 82 8d 25 3e 3c 5c 1c 3e 17 39 2d 3e ee 72 b7 3e
       0.16167262 0.1526956 0.1691631 0.35829872
000090 c5 56 a9 3e a6 7f 06 3f 3a f4 bc 3e 81 78 29 3e
       0.33074012 0.52538526 0.3690508 0.16549875
0000a0 33 70 2f 3e 38 6e 27 3e a0 36 36 3e 0e 39 bd 3e
       0.17132644 0.16350639 0.17794275 0.36957592
0000b0 2e 7e 21 3f 70 09 83 3e 55 4e 2d 3e 5b 02 43 3e
       0.6308316 0.25593138 0.16924413 0.19043867
0000c0 89 81 81 3e 1f 2d f7 3e 23 64 b1 3e e5 82 ad 3e
       0.2529414 0.48276612 0.3464671 0.33888927
0000d0 c1 f7 85 3e 84 c3 85 3e 54 da 5d 3e 28 28 36 3e
       0.26165584 0.2612573 0.21665317 0.17788756
0000e0 12 ef f5 3d 34 d1 e4 3e b0 ab 6b 3e 70 05 85 3e
       0.1200849 0.4469086 0.23014712 0.2598071
0000f0 c5 f8 5f 3e 38 a0 86 3e f8 77 72 3e 09 60 83 3e
       0.21872242 0.26294112 0.23678577 0.25659207

generator.conv4.conv.weight f4 [64, 64, 3, 3]
000000 1b 02 16 bd 03 35 e8 bc 29 ba 01 3d 20 de 10 3d
       -0.0366231 -0.02834559 0.031671677 0.035368085
000010 57 06 ad bc 70 98 1d bd d7 37 ff 3c 80 54 32 3d
       -0.021121187 -0.038475454 0.031154556 0.043537617
000020 9a 1d 96 3c aa 68 1f bc 3c d2 f0 3c 2f b1 f1 3b
       0.018324662 -0.009729544 0.029397123 0.0073758583
000030 f7 82 09 3d 00 9f b3 3c 4d 83 cc 3c e4 8a 15 bd
       0.033572163 0.021926403 0.024964953 -0.03650941
000040 d3 4b b5 3c e4 d5 9e 3c ab a3 a4 bc b8 a1 f4 3c
       0.022130882 0.0193891 -0.020097574 0.02986227
000050 a5 9e 29 bd de fc 11 bd e3 d3 0b bd 52 60 92 3c
       -0.04141106 -0.035641544 -0.034137618 0.017868195
000060 35 1f 82 3c de cf a9 bc d9 f1 32 bb f6 82 b5 bc
       0.015884021 -0.020729002 -0.0027304797 -0.022157174
000070 5c b1 ef bb b7 e7 f5 3c de 81 22 3d e3 f6 30 bc
       -0.007314844 0.030017717 0.039674632 -0.01080105
000080 a0 92 1c bd 6b dc 9f bc 2f 52 0f bd eb 49 0f bd
       -0.03822577 -0.019514283 -0.034990486 -0.034982603
000090 20 63 ab bc bf d1 93 bb d8 dd a1 bb e9 36 1e 3d
       -0.02092129 -0.0045110877 -0.004939776 0.038626585
0000a0 7b 33 ce bc 64 ab 11 3d 91 48 00 bd 4d 46 30 3c
       -0.025171032 0.03556384 -0.031319205 0.0107589485
0000b0 25 83 d7 bc 90 a1 0f 3d 3b 02 24 bc 74 8a e8 3a
       -0.026307652 0.035066187 -0.010010297 0.0017741458
0000c0 aa 67 1d 3d 8d b8 36 3d 5f d9 02 3c 89 d2 c3 3b
       0.03842894 0.044609595 0.007986396 0.0059760255
0000d0 5a b3 3c 3c 9a 0c fc 3a 60 77 c9 bb 64 53 15 bb
       0.01151737 0.001922983 -0.006148264 -0.00227853
0000e0 8c 3d 46 bc af 77 76 3c bf 75 e1 bc 64 7e 5a 3c
       -0.012099635 0.015043183 -0.027521966 0.013335798
0000f0 71 5c 4c bc 19 7c 58 3c 11 84 16 3d e0 21 33 bd
       -0.012473212 0.013213181 0.036747042 -0.043733478
000100 7f 69 a0 3c 31 35 df 3c 52 e5 b2 3a d3 14 87 3c
       0.019581554 0.027247043 0.0013648665 0.016489422
000110 30 8a 5e 3c 36 26 82 bc 34 4a 71 bc 58 6e df bb
       0.013582751 -0.015887361 -0.014727164 -0.006818574
000120 4a 02 0d 3b b8 a5 cf bc 2e df 33 bc a2 7c cf 3c
       0.0021516257 -0.025347576 -0.010978503 0.025327984
000130 8a 0e 8f 3a 25 07 b4 3c ab 27 7a 3c 21 3d 43 3c
       0.0010914367 0.021976063 0.015268247 0.01191643
000140 1b 9f a9 3b b7 42 c4 3c 16 8d fc 3c 74 66 dc 3b
       0.0051764376 0.023957593 0.030828994 0.0067260806
000150 f8 81 1c bd 4f 5e ef bc 8e cf a3 3c f2 eb be 3c
       -0.038209885 -0.029219775 0.01999643 0.023305867
000160 02 d4 1a bd 53 41 d2 3c 38 1d 85 3c f7 a8 5e 3b
       -0.037799843 0.025665915 0.016249284 0.0033975223
000170 80 fc f9 bb d4 ca 92 bc b6 0c 77 bc 20 d1 f9 3c
       -0.0076289773 -0.017918982 -0.015078714 0.030495226
000180 18 68 0e 3d c9 de 3b 3c ad 80 49 bb 50 53 00 3d
       0.03476724 0.01146669 -0.0030746863 0.031329453
000190 6a dd 38 bc 72 7e bb 3b ef 37 d8 3c d5 06 b1 bc
       -0.011283258 0.0057218606 0.026393859 -0.021609703
0001a0 af d0 19 3d ff 17 f5 3c 9a ad 86 3b 2d 26 b3 3c
       0.03755253 0.029918669 0.0041100504 0.02186879
0001b0 d8 cb 93 3c d0 d5 6f bc b2 0f 05 3d fe 6d 31 bd
       0.018041536 -0.014638379 0.03248567 -0.043317787
0001c0 61 42 cc 3c f4 9c 74 bc 06 10 17 bd 6b 8b 94 3c
       0.024933996 -0.014929999 -0.036880516 0.018132886
0001d0 f5 34 61 3c a0 7e 3e bc 4e 17 11 3d 63 97 1b bd
       0.013745536 -0.011626869 0.035422616 -0.03798617
0001e0 0a 1b a8 bc 29 71 8a 3c 68 a3 d1 bc a0 82 c7 bc
       -0.020520706 0.016899662 -0.025590613 -0.024354279
0001f0 7a 71 39 3d 77 44 1e 3d 50 dd 5d 3b 2f 15 04 3d
       0.045274235 0.038639512 0.0033853836 0.032246765
000200 61 07 9b 3c 99 96 90 bb 16 37 27 bd 1b a8 13 bd
       0.018924417 -0.004412484 -0.04082402 -0.03604899
000210 7f ba a5 3c 67 de 9e 3c ec 64 aa bc d8 e6 00 bd
       0.02023053 0.01939316 -0.020800076 -0.03147015
000220 26 d7 b9 3c fc 6a 10 3d 76 ef 2b bc 4d b7 02 bc
       0.022685599 0.03525828 -0.010494104 -0.007978273
000230 5d b9 ec 3c d4 bf 1a 3d 83 92 c7 3c d4 22 06 3c
       0.028896982 0.037780598 0.024361854 0.008187015
000240 a3 43 3e bc 18 dc 81 bc 84 fe 77 bc 39 27 eb 3c
       -0.011612806 -0.01585202 -0.015136365 0.028705226
000250 88 4f e0 bc 24 c7 48 3c 5d 52 44 3c 91 86 22 bd
       -0.027381673 0.01225451 0.011982528 -0.039679114
000260 e7 20 1e 3b 2c 04 c3 bb 1b 1e 26 bd 33 0f 76 3c
       0.0024128498 -0.005951425 -0.040556055 0.015018272
000270 31 39 a3 3b f0 2a 1b 3c d1 e6 15 bd b7 d1 a4 bb
       0.004981183 0.009470686 -0.036597077 -0.005029883
000280 31 c3 a2 3c d3 b7 93 3b 45 73 37 bc 48 a5 bf 3c
       0.019868465 0.0045079975 -0.011196916 0.023394242
000290 6f 55 c3 3b ee e0 c9 3c 6b 72 f9 3c db 47 f9 3c
       0.005961112 0.024643388 0.030450067 0.030429771
0002a0 2a bf 12 bd 26 c6 fb bc 7b 13 01 3d 75 81 bc 3a
       -0.03582684 -0.030734133 0.03151272 0.0014381843
0002b0 50 5b fa bb e4 83 58 bc 9a bb 27 3c 7b 37 dc 39
       -0.00764028 -0.013215039 0.010237599 0.00042003006
0002c0 ca e4 01 bd b2 63 12 3c 96 4d 12 3b 5a ac 78 bc
       -0.03171233 0.008934902 0.0022324077 -0.015177811
0002d0 e0 ad 17 bd f3 3c 3b bd 23 ae a2 3c 57 b5 1f 3d
       -0.037031054 -0.045712423 0.019858425 0.0389913
0002e0 ff 03 d9 3a a7 27 e9 bc 72 46 e3 ba 1d e0 1a 3c
       0.0016556977 -0.02846129 -0.001733972 0.009452847
0002f0 4f ca 11 3d 09 87 87 39 7d d0 2c 3c 40 16 67 3c
       0.035593327 0.00025849816 0.010547754 0.014104426
000300 60 6a 95 3c fe fe 23 3d dc 58 b9 3c b8 08 78 3c
       0.0182392 0.0400381 0.02262538 0.015138797
000310 84 30 dd 3c cd f7 8a 3c 73 d4 db bb ed bf e1 3c
       0.027000673 0.016963864 -0.0067086755 0.027557338
000320 96 9c a8 bc 1c a6 70 bc cc d5 31 3d e3 f6 00 bd
       -0.020582478 -0.014688041 0.043416783 -0.03148545
000330 5a 46 d5 bc c0 d1 3e 3a 4b bd 15 3c aa 07 04 3d
       -0.026034523 0.000727918 0.009139369 0.03223387
000340 e5 07 18 bc 6c c0 0a 3d 6d 7a 29 bd 96 5a e3 bc
       -0.009279226 0.033874914 -0.04137652 -0.027753156
000350 79 5e 12 bd b8 68 02 3d 34 93 98 3a 6a d7 d0 3c
       -0.035734627 0.03183815 0.001164055 0.025493342
000360 ac b9 64 3c d8 5d b7 bc bc 7d 68 3b e3 ce 0d bc
       0.013960283 -0.022383615 0.0035475334 -0.008655283
000370 5b 0c 1c bd dc eb 15 3d ea 12 a4 3c b9 7f 8b 3c
       -0.03809772 0.036601886 0.02002855 0.017028676
000380 ee d6 82 bc cf d1 18 3d 24 bb 83 bb b0 f1 cc 3c
       -0.015971627 0.037309464 -0.0040201116 0.02501759
000390 20 b6 9c bc e1 30 58 3c cc 95 25 bd 13 b3 fe 3b
       -0.019129813 0.013195247 -0.04042606 0.007772812
0003a0 f9 84 1a bd ce ab 6c bc 7c 35 c4 3a 97 db b2 3c
       -0.03772447 -0.014445258 0.0014969553 0.021833224
0003b0 6c e8 05 3c 57 e5 68 3c 78 0f 77 3b 17 63 1f bd
       0.0081730895 0.014214835 0.003769843 -0.03891286
0003c0 ad ca b5 3c f3 38 3d 3c 89 f7 14 3c 65 8e 25 3b
       0.02219137 0.011549222 0.00909222 0.0025261876
0003d0 8d ca 08 bd db e9 88 3a 1b c0 c0 3c f8 04 82 3c
       -0.033396292 0.0010445671 0.023529103 0.01587151
0003e0 5b 54 45 bc c0 a5 1d 3c de ed 14 3d 43 21 f4 bb
       -0.012044038 0.009622037 0.03635966 -0.007450254
0003f0 ee 12 2e 3d 3f 7c c0 3c 39 b2 3b 3c 90 30 cd bc
       0.04249852 0.023496745 0.011456066 -0.02504757
