dl/models/conv2d/checkpoint.ckpt (torch, 521495 bytes, 22 tensors)

generator.conv1.conv.weight f4 [64, 1, 3, 3]
000000 eb ac 64 be bf 59 86 be 5f 6e 76 3e 8c 06 4c 3e
       -0.22331588 -0.26240346 0.2406554 0.19924372
000010 32 68 9b 3e 88 37 f0 3d 24 5d 80 3e 06 25 5b 3e
       0.30352932 0.11729342 0.2507106 0.21400842
000020 b1 4b 77 be fd eb 47 3d 50 a9 c7 3e 35 c1 37 be
       -0.24149968 0.04880904 0.38996363 -0.17944796
000030 1d 47 8d 3d 06 3c 70 be 83 b3 2f be 86 e0 8b 3d
       0.068983294 -0.23460397 -0.17158322 0.06829934
000040 51 a7 76 be 05 c0 78 3e 83 8d 97 3e ef 64 b8 bd
       -0.24087264 0.24292 0.29600152 -0.090036266
000050 01 92 59 3c a8 60 79 3d e7 bb 71 be 2d f0 11 3d
       0.013279439 0.060883194 -0.23606835 0.03562944
000060 ee 9e 72 3d 7e 18 97 3a 27 ce ae 3d 03 42 af bd
       0.0592336 0.0011527685 0.08535414 -0.085575126
000070 1c e1 9a be 45 b3 1c 3e 8b 61 0f 3e 8b 1b 50 3d
       -0.3024987 0.15302761 0.14002053 0.050807517
000080 24 d1 11 be 50 41 8b 3e 68 55 91 be eb 55 49 3e
       -0.14239937 0.27198267 -0.28385472 0.19661681
000090 63 53 5f 3e 95 73 65 be 5b 97 21 be 55 a0 8e 3d
       0.21809153 -0.22407372 -0.15780394 0.06964175
0000a0 6c 70 06 3c 58 91 7b bd 43 b2 4b 3e 59 09 19 3e
       0.008205514 -0.061417907 0.1989222 0.14944972
0000b0 bb 81 af bd 27 5c 8e 3e ad c5 75 bd f0 af a9 3d
       -0.08569666 0.27804682 -0.06000297 0.082855105
0000c0 f1 a6 4b 3e ad 9f 94 3e 2b e8 ab bd 39 f9 e4 3d
       0.19887902 0.29028073 -0.08393892 0.11180348
0000d0 aa 77 c6 3d a4 22 de bd 2c 6a ef bd 24 76 32 bd
       0.09690793 -0.10846451 -0.116901726 -0.0435697
0000e0 30 13 4e be a9 ef 25 3e 34 1d aa 3e da 18 67 3e
       -0.20124507 0.16204704 0.33225405 0.22568074
0000f0 64 55 85 3d 83 45 76 be 1d a0 47 be d7 3b 17 3e
       0.065104276 -0.24049954 -0.19494672 0.14768921
000100 0c 85 87 be 39 e5 54 be 76 7a 8f be d0 ea 04 bc
       -0.26468694 -0.20790567 -0.28023118 -0.008112624
000110 4d b4 41 3d 44 50 9b 3e b8 73 dd 3d 7e 39 25 3e
       0.04729109 0.30334675 0.10813087 0.16135213
000120 c8 cd 3b bd 1f d5 c2 bc 7d fb 96 3d 69 73 2a 3d
       -0.045850545 -0.023783265 0.07372186 0.04161397
000130 dd 1d 4e be 63 a8 c8 3d 8b cd df 3d 10 5a a0 be
       -0.2012858 0.09797742 0.10927876 -0.31318712
000140 b6 80 8b 3e 8e 08 9a 3d 7e 2c 9d 3d 7b d8 cc 3d
       0.27246636 0.07521163 0.07674502 0.10002228
000150 cf 48 6b be 1b 89 32 be 48 6d 34 3e 0c 26 c2 3d
       -0.22976993 -0.17435114 0.17619812 0.09479913
000160 0f 76 48 be 82 dc d9 3d c5 3a 3c be 23 98 6a 3e
       -0.19576286 0.10637762 -0.18381794 0.22909598
000170 87 2a 67 bc cc d3 80 3d 83 49 01 bd 2c 47 8b 3d
       -0.01410926 0.06290397 -0.031564247 0.06800684
000180 3c dd 60 3e be 56 30 3e 0c 31 5c 3e bf 5f 8c bd
       0.21959394 0.1722059 0.21503085 -0.068541996
000190 1b 33 75 3d a7 62 be bc 59 0e 25 be 43 c9 eb 3d
       0.05986319 -0.0232404 -0.16118754 0.11512997
0001a0 6a 0e 44 be 26 4d 8c be f7 7c 81 3e 89 32 92 3e
       -0.19146124 -0.2740261 0.25290653 0.2855418
0001b0 01 1e a2 be 64 eb 48 be f8 cb 5d 3c 2b 89 be 3d
       -0.31663516 -0.19621044 0.0135373995 0.093035065
0001c0 0f f6 33 3e 0f fb c7 3d 59 52 52 be 24 48 9d 3d
       0.17574333 0.097646825 -0.20539226 0.07679775
0001d0 1d d6 86 3e b5 b5 0d ba 3a f8 34 be 0c 0f 2e be
       0.2633523 -0.00054057996 -0.17672816 -0.16997927
0001e0 c0 75 32 bb 1f 93 7e be 31 74 98 be 7e 9b 00 3e
       -0.002723083 -0.2486081 -0.29776147 0.12559316
0001f0 2c a6 21 3e 6d c8 50 be b5 6e b2 be 1d 06 00 3d
       0.15786046 -0.20388956 -0.34850088 0.03125583
000200 0d e8 7d 3e 1d 24 75 3e 4d e8 99 bd 71 6e 0c 3e
       0.24795552 0.23939557 -0.07515011 0.13714005
000210 a0 a7 29 3e 66 7d 50 bd f4 d2 9f be a0 67 39 3c
       0.1656785 -0.05090084 -0.31215632 0.01131621
000220 a7 53 83 3e dd b2 a0 3e 29 85 90 be 69 4e 21 3d
       0.2564976 0.31386462 -0.28226593 0.03938142
000230 3b 6c 63 bd 6b cb db 3d 6c 01 f5 bd 5c 64 8b be
       -0.05552314 0.10732158 -0.11963162 -0.27225006
000240 33 52 2a be 7c fc 43 be 27 1d 83 bc 6c 88 d6 bd
       -0.16632919 -0.19139284 -0.016005112 -0.10475239
000250 42 25 a5 be bb 3f 3f be 1b f1 1f 3d 41 d1 31 be
       -0.32254988 -0.18676655 0.039048295 -0.1736498
000260 e6 52 de bd cf 8f 2f 3e a1 1e 7c be eb af 9b 3d
       -0.10855655 0.17144702 -0.24621059 0.07601913
000270 a9 d4 88 3d fc cf 52 be 13 42 73 3e 50 07 14 3e
       0.06681187 -0.20587152 0.23755674 0.14455914
000280 2d a0 81 be a7 8b 81 3c a5 78 86 bd ce 8a 90 3e
       -0.25317517 0.015813662 -0.0656598 0.282309
000290 f0 90 56 3e 63 4d 2c 3e 8e f1 d5 bd 1b 4e 37 3e
       0.20953727 0.16826396 -0.104464635 0.17900889
0002a0 e1 84 46 3e f0 f1 26 3e 55 fa 28 be e2 e7 a3 bd
       0.19386627 0.1630323 -0.16501744 -0.080032125
0002b0 47 ed c2 3d 13 8d df 3d 70 07 4f 3d e2 0f 5a be
       0.09517913 0.1091558 0.050544202 -0.21295121
0002c0 97 ba 33 be 05 c2 92 3d b0 68 aa 3d 9f da 8d 3d
       -0.17551647 0.071659125 0.08320749 0.06926464
0002d0 77 06 18 3e 72 91 03 be ea 07 58 3d 89 c9 32 3e
       0.14846216 -0.12848452 0.052741922 0.17459692
0002e0 f8 fb 67 be 2f a4 50 ba 11 4c a4 3e b6 12 ad 3e
       -0.22654712 -0.00079590356 0.32089284 0.33803338
0002f0 3c 6d 4f 3e 3d 9c a6 bd 2a 18 98 3e f1 ab 80 be
       0.20256513 -0.08135269 0.29705936 -0.2513118
000300 06 31 92 be 72 fa 78 bd 9c 19 55 bd c8 c2 9c 3e
       -0.28553027 -0.06078572 -0.052026376 0.30617356
000310 59 c7 9d 39 92 cf f4 bd 47 fd fd bd 63 d9 a8 be
       0.000300939 -0.119536534 -0.124018244 -0.32978353
000320 ae 70 71 3d 94 d8 3a 3e 6e cd 0b 3e d8 1f 5a 3e
       0.05894535 0.1824668 0.13652584 0.2130121
000330 4c 51 34 be 61 3d 76 3e 09 ec 9e 3d fb d0 f8 3d
       -0.17609137 0.24046852 0.07759864 0.12149235
000340 6d 3d 0e 3e 34 47 ae 3e 31 b7 67 3d d7 a0 46 3d
       0.1389062 0.340387 0.05657119 0.048493233
000350 d1 4e 90 be 68 c3 97 3d 8e 2b 01 3e 0f 46 ac 3e
       -0.28185132 0.07410318 0.12614271 0.336472
000360 84 0b 83 bd 04 47 12 3e 59 ba b4 be aa 52 95 be
       -0.06398681 0.14284903 -0.35298422 -0.2916463
000370 0f e6 2f bd 34 a5 e5 3d 9d b0 8e 3e dc 87 a2 bd
       -0.04294401 0.112131506 0.2786912 -0.07936069
000380 3d 4c 94 3e cc 50 fe 3c 32 26 8a be 5f 92 96 3e
       0.28964415 0.031044386 -0.26982266 0.29408547
000390 98 29 82 be 9f b4 b1 bd 5d ca 3c be cb 9d 45 be
       -0.2542236 -0.08677029 -0.1843657 -0.19298474
0003a0 1c 5c 76 3e fe 2b a6 3e b4 17 40 3e 8a fa fd bd
       0.24058574 0.32455438 0.18759042 -0.12401302
0003b0 e5 80 5a be e1 8c 8d 3e 71 37 ef bd c4 45 2d bd
       -0.21338232 0.27646545 -0.116804965 -0.04230286
0003c0 49 b8 e3 bd 0e 10 6d bd c2 5b 75 3e d0 4a 3f be
       -0.11119134 -0.05787664 0.23960784 -0.18680882
0003d0 d2 bd e2 3d a1 b6 aa 3e 2c 0d 87 3d 5e f9 03 be
       0.110713616 0.3334246 0.06594309 -0.12888095
0003e0 03 2b af 3d 9e ac 78 be 23 3f c1 3d 8f 20 89 be
       0.08553126 -0.24284598 0.094358705 -0.26782653
0003f0 a3 bb 8c 3e 61 c3 ad be c7 38 ba bd 20 a7 20 3e
       0.27486905 -0.33938125 -0.09092861 0.15688753

generator.conv1.bn.weight f4 [64]
000000 ee 1d 70 3f e4 9b 87 3f 73 1c 6f 3f a9 f1 81 3f
       0.9379567 1.0594449 0.93402785 1.0151874
000010 d1 53 76 3f fd da 72 3f 90 ed 87 3f 65 9d 85 3f
       0.96221644 0.948654 1.0619373 1.0438658
000020 ae 25 8b 3f 0e 8b 76 3f b1 44 6b 3f 34 9b 81 3f
       1.0870874 0.9630593 0.9190169 1.0125489
000030 46 26 84 3f 42 55 73 3f da d1 7f 3f 27 42 89 3f
       1.032418 0.9505197 0.99929583 1.0723313
000040 a5 8e 70 3f 8c ba 8b 3f c2 ef 66 3f 8b b4 89 3f
       0.9396766 1.0916305 0.9020959 1.0758222
000050 f5 58 74 3f 41 4d 73 3f c1 6a 75 3f b5 60 73 3f
       0.9544824 0.95039755 0.9586602 0.9506944
000060 b7 8c 80 3f 99 25 7d 3f c7 7c 7d 3f f5 ce 7f 3f
       1.0042943 0.98885494 0.9901852 0.99925166
000070 37 2b 81 3f 27 4c 75 3f 6c 86 70 3f 6d 18 85 3f
       1.0091313 0.95819324 0.9395511 1.0398079
000080 18 ef 79 3f 33 a3 81 3f ce 52 7a 3f f2 eb 80 3f
       0.97630453 1.012793 0.977826 1.0072005
000090 cf 28 6f 3f 68 ea 6f 3f 68 00 82 3f dd c1 7d 3f
       0.93421644 0.9371705 1.0156374 0.99123937
0000a0 8e 52 73 3f f8 40 72 3f d7 d4 70 3f 23 dc 82 3f
       0.95047843 0.94630384 0.9407477 1.022343
0000b0 de d3 80 3f 3d 01 6d 3f 15 20 87 3f b7 03 73 3f
       1.0064657 0.92580014 1.0556666 0.94927543
0000c0 1e 09 85 3f e7 74 85 3f 2f b9 6e 3f c5 b1 80 3f
       1.0393407 1.0426301 0.9325132 1.0054251
0000d0 82 22 83 3f a5 47 83 3f e0 79 84 3f 86 35 8e 3f
       1.0244906 1.0256239 1.0349693 1.1110084
0000e0 f9 39 72 3f d4 e2 89 3f 2d 30 7a 3f 80 f6 7e 3f
       0.9461971 1.0772347 0.9772976 0.9959488
0000f0 10 c7 7c 3f b0 df 72 3f 71 3d 7f 3f aa 7b 81 3f
       0.98741245 0.9487257 0.9970313 1.0115864

generator.conv1.bn.bias f4 [64]
000000 79 b6 4a bd a4 8d 4e bd b3 16 87 bd eb ad c0 3c
       -0.049490426 -0.050428048 -0.065961264 0.02352043
000010 a2 73 d9 bc 50 3b 64 bd b7 17 47 bb 75 92 9d 3d
       -0.026544396 -0.055720627 -0.0030379125 0.0769395
000020 74 a3 6e bd ea 51 d9 bc e8 89 8f bd 80 44 60 3d
       -0.05826135 -0.026528317 -0.070087254 0.054752827
000030 6a 03 66 3d 48 03 93 bd db 64 9d bc 4c 39 7d bb
       0.0561556 -0.0717836 -0.01921313 -0.0038638888
000040 d7 44 5f bd 3b ca 17 bd cf c2 91 bd 69 97 b0 bd
       -0.05450901 -0.037058096 -0.07117235 -0.08622629
000050 8f 38 86 bd cf 19 5b bd 41 1f 4c bd 07 db 3a bd
       -0.065537564 -0.05349141 -0.049834494 -0.045619037
000060 1b 43 11 3c ab 9a 12 bd 01 9a 0f bc 9d 42 21 bd
       0.008866097 -0.035792034 -0.008764745 -0.039370168
000070 6f 31 1e bb 9f 2b 66 bd 57 cc 77 bd c8 7a 00 3d
       -0.0024138351 -0.056193944 -0.060497608 0.031367093
000080 95 2f f8 bc 44 08 a2 3c 24 9c 3a bd 88 da 1e bd
       -0.030296126 0.019779332 -0.045559064 -0.038782626
000090 ee b5 7d bd 76 ce 7c bd 65 f3 5a 3d 5c 53 b8 bc
       -0.06194108 -0.061720334 0.053454775 -0.022500686
0000a0 d0 6f 40 bd 5d 6e 71 bd 17 da 92 bd ca fa 65 3c
       -0.046981633 -0.05894314 -0.071705036 0.014036844
0000b0 ef d8 da bb 91 5f 63 bd 9c ee 64 3d 1c 88 56 bd
       -0.0066786925 -0.05551106 0.055891618 -0.052375898
0000c0 17 c1 6e 3b 0a 60 3d bc 21 48 8d bd 4d ee 7c 3c
       0.0036431008 -0.011558542 -0.06898523 0.015437675
0000d0 ae 85 0f 3d 78 6b a4 3d f5 6c 89 3d 56 57 7e bb
       0.035039596 0.080283105 0.06710235 -0.003880938
0000e0 94 37 81 bd 72 13 12 be e9 3e 4d bd 2b ee a5 bc
       -0.06309429 -0.1426523 -0.050108824 -0.020255169
0000f0 85 ad 44 bb 19 ca a2 bd 79 e5 48 bd a5 8f c7 bc
       -0.0030010652 -0.07948703 -0.049046967 -0.024360487

generator.conv1.bn.running_mean f4 [64]
000000 5e ee 33 3d dd 8e 04 ba 9b 0f 8b 3c 96 ba 5b 39
       0.043928497 -0.00050566887 0.016975215 0.00020954976
000010 30 1a 09 3c c3 58 73 3d d5 eb 4d ba b5 d8 96 39
       0.00836806 0.05941082 -0.0007855271 0.0002877169
000020 57 3e ad 3a f1 68 24 3b 4a 0a 5d 3d 0e be 6f ba
       0.0013217431 0.0025086964 0.05396489 -0.0009145447
000030 71 31 1a b8 4d 91 77 bd b4 87 35 3b ea 0b 3c b8
       -3.6762507e-05 -0.060441304 0.0027699294 -4.483379e-05
000040 22 5f b9 bd 4a e2 a4 3a ce f5 81 3d 9a bc 31 3a
       -0.09051348 0.0012579646 0.06345712 0.0006780118
000050 7e d2 84 3d 70 14 99 bc cb 66 a8 3c 2b c7 90 3d
       0.06485461 -0.018686503 0.020556828 0.07069238
000060 e4 4b 6b ba 9e a1 ef bb 09 f8 46 3b 78 21 22 bc
       -0.0008975847 -0.0073129674 0.0030360243 -0.009895675
000070 96 14 59 3b fd bf 99 bb 76 ac 71 bd 2f c0 3a 3a
       0.0033123842 -0.0046920762 -0.059002362 0.00071239745
000080 08 c4 1c 3b 7b 5e 04 3b ae fe 99 bc 5f 58 fc 39
       0.0023920555 0.0020197916 -0.018798199 0.00048131027
000090 e8 54 40 3d 8b b6 2e 3d 46 08 21 39 4c 12 cb bb
       0.046955973 0.042654555 0.00015357239 -0.0061972495
0000a0 c8 21 64 3c b9 b4 47 3d 2c 29 28 3d cc fd d9 3a
       0.01392407 0.048756335 0.04105489 0.0016631423
0000b0 af 27 b4 3b e6 e2 1f 3d 28 8e b1 39 4e 6f 06 bd
       0.0054978947 0.039034747 0.00033865985 -0.032820992
0000c0 8d 15 b8 39 43 80 65 37 d5 2a 40 3d ab 5c b6 3a
       0.0003511127 1.3679327e-05 0.046915848 0.0013913115
0000d0 6b 20 d3 39 78 93 f8 b7 f3 9a 20 ba ba 56 c6 b9
       0.0004026921 -2.9632574e-05 -0.0006126605 -0.0003783012
0000e0 08 07 0e 3d 8c 6e f0 b9 7d 18 d7 bb 22 5c a2 3a
       0.034674674 -0.0004585873 -0.0065641985 0.0012387077
0000f0 3b 78 32 3b 8e d3 92 bc 32 7e 2a ba 52 c5 51 b9
       0.0027232307 -0.017923143 -0.000650379 -0.00020005301

generator.conv1.bn.running_var f4 [64]
000000 78 4d c3 3d 23 41 e9 3b 30 54 59 3c 3e 40 f6 3b
       0.0953626 0.0071183606 0.013264701 0.0075149825
000010 f3 fd 92 3c 8a 7b 20 3e 9d 80 fb 3b 73 0b 76 3c
       0.017943358 0.15672126 0.007675244 0.015017378
000020 ea f2 d2 3b e6 e7 f9 3b a6 69 00 3e 3c 4c 41 3c
       0.006437649 0.0076265214 0.12540302 0.011797961
000030 dc 5d a4 3c e8 20 2b 3e 4e 90 fa 3b 59 7e 86 3c
       0.020064287 0.16711771 0.007646597 0.01641767
000040 17 c8 b1 3e cd d4 da 3b 54 66 2a 3e e3 70 04 3b
       0.3472297 0.0066782 0.16640598 0.0020208887
000050 d9 93 33 3e 33 11 a0 3c 7b a9 ff 3c 44 ce 4a 3e
       0.17536868 0.019539451 0.031208744 0.19805247
000060 3f 90 36 3c 1b 7e b7 3c 3a 7d 06 3c 30 9f 8c 3c
       0.011142789 0.022398999 0.008208567 0.01716575
000070 ec 6e ff 3b 56 84 8c 3b ba aa 09 3e 59 3c 1d 3c
       0.0077952053 0.0042882366 0.13444033 0.0095969075
000080 87 a1 7d 3c b1 5c 6c 3c 35 b1 a0 3c ba 0c ac 3b
       0.015480406 0.014426396 0.019615749 0.0052505406
000090 20 94 cf 3d ae 60 a5 3d 94 cf d1 3b 5b b0 84 3c
       0.101356745 0.08075081 0.006402919 0.016197374
0000a0 8b 22 8f 3c 0b c5 eb 3d 59 35 a3 3d b9 34 0e 3c
       0.017472526 0.11512192 0.0796916 0.008679562
0000b0 ef 9d 6d 3c 55 68 84 3d b8 f1 51 3c 9f b5 4d 3d
       0.014502986 0.06465212 0.012813978 0.050222035
0000c0 8f c4 ef 3b 61 ef 02 3c 6e b9 c6 3d a0 49 8f 3c
       0.007317133 0.007991643 0.09703337 0.017491162
0000d0 03 1e 65 3c a9 ce 1b 3c 15 85 14 3d ec 01 17 3c
       0.013984206 0.009509721 0.03625973 0.009216767
0000e0 87 a3 69 3d d4 d3 0a 3b 2b 69 64 3c 29 6c 0e 3c
       0.057040717 0.0021183388 0.01394109 0.00869278
0000f0 36 4e 11 3c 36 c7 a3 3c 79 5d 34 3c d5 4e e2 3b
       0.008868745 0.019992452 0.011008614 0.00690637

generator.conv2.conv.weight f4 [64, 64, 3, 3]
000000 03 92 bf 3c 6e 42 e0 bc 09 54 7a 3b d8 2b 9c 3c
       0.023385054 -0.027375426 0.0038197062 0.019063875
000010 ce f2 94 bc 8d ef bf bc ad 61 a7 bc 0a 16 77 bc
       -0.018182185 -0.023429656 -0.020432318 -0.015080938
000020 d5 4c 37 3c 71 61 ab 3c 9a 32 a2 3c 51 11 43 3d
       0.011187752 0.020920487 0.01979952 0.047623936
000030 f5 2a 88 3c d0 ad 16 b9 31 04 84 ba b1 90 64 ba
       0.016622046 -0.00014369865 -0.001007205 -0.00087190705
000040 15 28 0e bd b6 03 a2 3c 9d e2 d2 3c 96 38 f5 bc
       -0.034706194 0.01977716 0.025742823 -0.029934209
000050 cb ea c6 bc a6 a0 1a bd 76 46 b5 bc 92 ed f7 bc
       -0.02428188 -0.037750863 -0.022128325 -0.03026465
000060 44 13 ba bb f7 93 3b 3d 53 aa fd bc d1 ab 2e bd
       -0.005678566 0.045795407 -0.030965006 -0.042644326
000070 1d 6c 2e bd 2d a7 ec bc ae 0e 20 bd 73 5b 25 3b
       -0.042583574 -0.02888831 -0.0390765 0.002523151
000080 90 d8 ae 3c eb 19 9e bc 87 ed 07 3d 5d 59 84 bc
       0.0213435 -0.019299468 0.033185508 -0.016155893
000090 6d 62 b6 3a 2c 1e a1 bc 48 8a 1b bc 6c be 14 bd
       0.0013914831 -0.019667707 -0.009493418 -0.036314413
0000a0 db f0 02 3d 1b a5 fc 3c aa 9c 82 3c 7d d2 ab 3c
       0.03196798 0.030840447 0.015943844 0.020974392
0000b0 46 d5 4d 3c 9a 09 0e 3d 19 2b 18 3c 35 e3 57 bc
       0.012563055 0.034677126 0.009287619 -0.013176729
0000c0 df 03 ee bc ad c5 e8 3c 9d 48 06 3c 1c c0 49 bc
       -0.02905458 0.028414572 0.008196023 -0.012313869
0000d0 65 46 13 bb d9 23 e7 bc 24 3f 1d bd d3 46 8f bd
       -0.0022472378 -0.028215336 -0.038390294 -0.069959305
0000e0 cb 63 0e bd 0b 32 88 bd 2a 2c 06 bd e4 9c 56 bd
       -0.03476314 -0.0665017 -0.032756962 -0.052395716
0000f0 d3 ac 9f bc c9 57 bb bc 37 95 2a bd 80 80 81 bb
       -0.019491589 -0.022869008 -0.04164621 -0.003952086
000100 a5 06 8b 3c ac 4d fd bb c9 e0 22 bc 7f 63 ec bc
       0.016970942 -0.0077302065 -0.009941288 -0.028856037
000110 39 55 92 3c e6 73 af bc bc 4d f5 3c ed 70 23 3d
       0.017862903 -0.02141757 0.029944293 0.039902616
000120 3e 3c 02 bc 7c 14 d5 3c 5c 10 2a 3c 2e 02 31 bc
       -0.007948933 0.026010744 0.010379877 -0.010803742
000130 8c d6 80 bc 39 2f a1 3b 7b 58 0f 3c 34 0f de b9
       -0.015727304 0.0049189595 0.008749123 -0.00042354467
000140 64 36 d6 3c b2 74 8c 3c 83 9a a3 3a 5f b8 08 3d
       0.026148982 0.017145488 0.0012481961 0.033378955
000150 6b 00 6e bb 8a d4 e5 3c e5 e5 ac 3a 02 2d d1 3c
       -0.0036316167 0.028055448 0.0013191073 0.025534157
000160 40 2a 95 bc a6 02 fb 3c 84 28 96 3c fc 16 54 bc
       -0.018208623 0.030640911 0.018329866 -0.012944933
000170 7d fe b4 bc 93 8f 0f bd ed 00 2b bd 73 51 49 3c
       -0.022094006 -0.035049032 -0.04174893 0.012287485
000180 33 47 b9 bc a3 df c3 bc 27 c9 d1 ba ae e1 07 3d
       -0.022616958 -0.02391035 -0.0016005383 0.03317421
000190 7a bb 88 3b 25 e8 7e bc 1f 2e ac 3c 9e 71 d9 b8
       0.0041727396 -0.015558277 0.021018086 -0.00010368529
0001a0 d8 56 65 3d 26 78 45 bc 22 61 a9 bc 00 06 c2 3c
       0.055991024 -0.012052571 -0.0206762 0.023684502
0001b0 87 66 0e 3d 22 fe 08 bd 26 2a e7 bc 1d a7 06 3d
       0.034765746 -0.033445485 -0.02821834 0.032874215
0001c0 c8 5a 2b 3c d5 66 06 3d 67 f9 16 bd 05 aa f7 bc
       0.010458656 0.032812912 -0.036858942 -0.030232439
0001d0 6c 87 8e 3c 45 71 06 ba 4f 7a 02 bd 23 dd 08 3c
       0.017398559 -0.0005128573 -0.031854924 0.008353504
0001e0 7c a7 04 bd ce df d1 3b a9 f7 01 3d f4 99 ba bc
       -0.032386288 0.0064048534 0.031730328 -0.022778489
0001f0 de 25 0b 3c 47 e3 01 3d 0b ca 88 3c 60 bf 1a 3d
       0.008492915 0.03171089 0.016697904 0.037780166
000200 61 8b 1c 3d 73 65 bb bc 95 70 12 3d 3b e4 0c 3d
       0.03821886 -0.022875523 0.035751898 0.034397345
000210 ea 82 b7 3c f6 ae 0d bb 5a 02 00 3c d1 ff 8a bc
       0.022401292 -0.0021619177 0.007813061 -0.016967686
000220 c2 52 ad bc 7b e6 2a 3c bf a4 d3 bc 64 5a c6 3c
       -0.021157626 0.010430927 -0.025835393 0.024213023
000230 0f 88 93 bc 70 70 c8 bc ab a2 26 3c c2 42 11 bc
       -0.018009214 -0.024467677 0.010170619 -0.008866014
000240 21 1f 84 bc f9 35 be 3c d5 7d a1 bc 4f a5 9c bc
       -0.016128125 0.023219096 -0.019713322 -0.019121794
000250 6d 96 64 3c 2b 99 26 3d 24 76 bc 3b 9e 6e 18 3d
       0.01395188 0.040673416 0.005751388 0.037214868
000260 45 aa 01 bd 4d e5 1d bd 3e d8 05 bb 6f da 1a bd
       -0.031656522 -0.038548756 -0.002042308 -0.03780597
000270 bf 12 18 bd ff d9 91 bc c9 93 0f bd fc 03 34 bd
       -0.037127253 -0.017804144 -0.03505305 -0.043949112
000280 82 83 85 bd 3f c9 8f 3b f3 07 3a 3c 5c 69 73 3c
       -0.06519224 0.004388004 0.011354434 0.014856663
000290 51 d6 fe bc ff 94 b4 3c b0 e8 03 3b 47 e4 cb 3c
       -0.031108053 0.022043703 0.0020127706 0.024889125
0002a0 04 8c db bc 06 52 53 bc cd 92 b0 bc 46 28 62 bd
       -0.026800163 -0.012897974 -0.021554375 -0.05521419
0002b0 b5 26 15 bd c7 b7 26 bd e6 c3 72 bd 47 ad 5d bd
       -0.036413867 -0.040702607 -0.059268855 -0.05412033
0002c0 6f d8 e6 bc 30 bc 46 bd dd da 64 bd 61 d9 a7 bb
       -0.028179375 -0.048519313 -0.055872787 -0.005122349
0002d0 e0 19 92 3b 53 d7 64 3c d5 ca 2e 3d 6d d0 fa bb
       0.004458651 0.013967353 0.042673904 -0.007654241
0002e0 e3 b1 77 bc a2 b6 8e 3c 61 ca 2c bd a9 72 57 3c
       -0.015118095 0.01742107 -0.04218519 0.013149896
0002f0 2f 99 22 bb 92 ec d5 3b 96 70 43 bc 29 c3 e7 3c
       -0.0024810543 0.0065284455 -0.011928698 0.028291302
000300 fa 7a 5f 3c 36 c9 aa 3c ce 6d e1 b9 15 e3 1e bc
       0.01364016 0.020847898 -0.00042997155 -0.009697695
000310 0f 8b 2e 3c 45 bf ea bc a5 c4 99 3c bb 77 2b 3c
       0.010653271 -0.028655658 0.018770525 0.010465558
000320 ad bf c5 b9 54 d7 6b bc 1b 41 4b 3c 8a a6 02 ba
       -0.00037717578 -0.0143946 0.012405659 -0.00049839227
000330 d5 ce 78 3c 29 76 0d bd 16 48 12 bd 16 1f f1 3a
       0.015186031 -0.034536514 -0.035713278 0.0018396105
000340 6c 2f f6 3c fe ee 4b bc 2e 1a 57 3c da 96 93 3c
       0.03005191 -0.012447117 0.0131288 0.018016268
000350 f8 00 9f 3a df 6a 31 bd e3 5a f6 bc fe 68 5c 3c
       0.0012131026 -0.04331481 -0.030072635 0.013452766
000360 f8 34 12 bd 89 eb cb bc bc 5b e8 bc bc cd 93 bc
       -0.035695046 -0.024892585 -0.028364055 -0.018042438
000370 2f a5 5d bc 65 e4 16 bd b0 9d 37 bc 51 22 85 bc
       -0.013528152 -0.036838908 -0.011207029 -0.016251715
000380 1a 48 d8 3c b6 51 a0 bb c9 27 2c 3c 99 40 0e 3c
       0.026401568 -0.004892553 0.010507532 0.0086823935
000390 c0 2e a2 bc ac e6 cd bb b7 ad 8f bc 1c ae 2a 3d
       -0.019797683 -0.0062836017 -0.017538888 0.04166995
0003a0 0b 6d cb 3c d5 21 b2 bb 74 f3 07 bd 9d e0 05 bd
       0.02483227 -0.005436162 -0.03319116 -0.03268491
0003b0 be ae 02 3d 5a 1d a1 3c 25 e3 58 3b 41 bd c4 bc
       0.03190493 0.019667316 0.0033094373 -0.024016025
0003c0 6e 96 08 3c e2 5f 83 bc bb f6 e3 3b d2 02 57 3d
       0.0083366465 -0.016036931 0.006956903 0.052492924
0003d0 b2 d1 58 3d a5 21 0e bc 03 5f 07 3d d2 d7 e2 3c
       0.052934356 -0.008675014 0.033049595 0.027690802
0003e0 5f 01 05 3d 4f 1c 26 3d b2 d7 d3 3c cf 75 9b 3c
       0.03247201 0.04055434 0.025859687 0.018977074
0003f0 39 04 92 bc 69 3b 82 bc 5e e8 73 3b 9d 7d 45 3b
       -0.01782428 -0.01589747 0.003721736 0.0030134686

generator.conv2.bn.weight f4 [64]
000000 95 ab 84 3f 2f 95 83 3f e2 86 73 3f af 99 80 3f
       1.0364863 1.0279902 0.9512769 1.00469
000010 45 ef 84 3f 89 79 76 3f 9e a6 7f 3f 53 28 78 3f
       1.0385519 0.962792 0.9986361 0.9693653
000020 bb 10 86 3f 23 3f 87 3f 9f 5c 82 3f 41 6e 7b 3f
       1.0473856 1.0566143 1.0184516 0.9821511
000030 1f c3 7c 3f b5 33 7f 3f 67 4b 72 3f 4c 35 76 3f
       0.9873523 0.99688274 0.94646305 0.96175075
000040 5f ba 6d 3f 9d 6b 80 3f 4e 8d 78 3f fb 67 7b 3f
       0.92862505 1.0032841 0.97090614 0.98205537
000050 c3 66 83 3f dc 7d 7d 3f a2 e7 77 3f 37 a1 81 3f
       1.0265735 0.9902017 0.9683782 1.0127324
000060 c1 63 80 3f 76 00 82 3f 93 99 7f 3f d2 69 7e 3f
       1.0030442 1.0156391 0.9984371 0.9938022
000070 c4 ce 81 3f 0f 80 7e 3f 6c 47 81 3f 25 61 78 3f
       1.0141225 0.9941415 1.0099921 0.9702323
000080 93 ec 79 3f 04 0b 77 3f 34 88 84 3f c5 31 7e 3f
       0.9762661 0.96501184 1.0354066 0.9929469
000090 fc 35 88 3f 9e 9d 82 3f 90 05 82 3f ed c3 81 3f
       1.0641475 1.0204351 1.0157948 1.0137917
0000a0 42 cb 83 3f ee 2d 7c 3f ec ac 80 3f aa f5 7a 3f
       1.0296404 0.98507583 1.0052772 0.98031104
0000b0 52 6b 82 3f c5 c7 74 3f 44 f9 7b 3f 50 d4 80 3f
       1.0189002 0.95617324 0.98427224 1.0064793
0000c0 d0 33 75 3f ab 56 8a 3f 02 3a 76 3f 53 dc 70 3f
       0.95782185 1.0807699 0.9618226 0.9408619
0000d0 f1 62 84 3f 5f cc 74 3f 1c e8 82 3f c5 0e 89 3f
       1.0342695 0.95624346 1.0227084 1.0707632
0000e0 9b 41 76 3f 31 ee 85 3f 30 70 74 3f e0 83 7b 3f
       0.96193856 1.0463315 0.95483685 0.982481
0000f0 8c aa 70 3f 8b f0 80 3f 91 a5 79 3f 73 8b 7e 3f
       0.94010234 1.0073408 0.9751826 0.9943153

generator.conv2.bn.bias f4 [64]
000000 c8 e7 9c bb 94 c0 eb bc 57 22 f7 bc 28 10 08 bd
       -0.0047883727 -0.028778352 -0.030167742 -0.033218533
000010 15 13 9d bc 36 70 d5 bc e6 c8 ee bc 9e 59 ad bc
       -0.019174138 -0.026054483 -0.02914853 -0.021160897
000020 d8 38 13 bd a3 83 7c bc 40 53 ef bc c8 20 16 bd
       -0.035942882 -0.015412244 -0.029214501 -0.036652356
000030 16 99 97 bd a0 22 a5 bc 77 90 5d bd 90 07 32 bd
       -0.07402246 -0.020158112 -0.05409285 -0.043464243
000040 fa c3 8d bd c1 5a 9c bc 6e df 13 bd 3d 39 89 bd
       -0.06922145 -0.019086244 -0.03610175 -0.067003705
000050 09 53 9f bc 98 de 66 bb f5 3d 0a bd a9 5b 3a bd
       -0.019448774 -0.003522789 -0.033750493 -0.04549757
000060 80 b5 14 bd f9 69 d9 bc 3b 05 b7 bd 26 40 1e bd
       -0.036305904 -0.02653979 -0.089365445 -0.038635395
000070 a0 ca b0 3c 24 60 7b bd c8 e7 ff bc 7d 2c c3 bc
       0.021580994 -0.061370984 -0.031238452 -0.023824925
000080 1a fd 08 bd ca 61 cd bc 8f 9a fd bc 22 4d 19 bd
       -0.0334445 -0.025071044 -0.030957488 -0.037427075
000090 40 39 5e 3b 0d 99 d4 bc b4 2e fd bc b5 91 8f bc
       0.0033908635 -0.025951887 -0.030906059 -0.017525533
0000a0 0d 3a 7e 3b 40 2d 40 bd 6d 3b b7 bc 21 35 25 bd
       0.0038791925 -0.046918154 -0.022367204 -0.04033387
0000b0 25 eb 30 bd 7e db 62 bd 69 5e 8d bd 8c d7 53 bd
       -0.043193 -0.055385105 -0.06902773 -0.051719233
0000c0 d2 ce 56 bd 8e fd 48 bd 11 79 7e bd ad 49 17 bd
       -0.052443333 -0.049069934 -0.062127177 -0.036935497
0000d0 06 6b 60 bc 1a 5c 21 bd 49 73 a2 bc c3 f4 50 bd
       -0.013697391 -0.039394476 -0.019830363 -0.051014673
0000e0 a4 c6 02 bd ee 18 39 bd ba 3d bb bd 47 1f 05 bd
       -0.03192772 -0.04518979 -0.09142633 -0.03250053
0000f0 4c 55 78 bd 28 7c 3e 3c b3 fe 9b bd 9d d7 aa bc
       -0.06062822 0.011626281 -0.076169394 -0.020854766

generator.conv2.bn.running_mean f4 [64]
000000 47 64 a3 be f5 4c 15 be 83 69 8c 3d 71 2a 10 bb
       -0.31912443 -0.14580138 0.06856062 -0.0021997953
000010 c9 7c 4a bf 6d b0 9b 3e 71 16 83 be d2 6a 31 3f
       -0.7909666 0.3040804 -0.2560306 0.6930362
000020 40 d7 2a bf fb 5b 3d bf 46 a5 91 be 46 89 32 bf
       -0.66734695 -0.73968476 -0.28446406 -0.6974071
000030 34 80 9f 3c 1c be 61 be 73 f7 ab be 41 af 4e be
       0.019470312 -0.22045177 -0.33587226 -0.20184042
000040 55 c2 56 bf d7 b9 c7 3e ab 80 27 3e d3 c8 a9 3f
       -0.8389028 0.39008972 0.16357677 1.3264412
000050 32 87 9a bf 44 a2 3f bf 8c b1 66 3d f6 a7 8d be
       -1.2072508 -0.7485697 0.056321666 -0.27667207
000060 39 12 ab 3d 70 cd 70 bf 2c c8 8a 3f fe 4e 2c be
       0.08353085 -0.9406347 1.0842338 -0.16827008
000070 ed 6c e7 be 8f c8 b8 3f 54 4e ae be 05 45 90 3c
       -0.4520029 1.4436206 -0.34044135 0.017611036
000080 05 0e 38 be f8 ff fa 3e 43 79 3d bf 91 4e 81 bf
       -0.17974098 0.49023414 -0.74013156 -1.0102102
000090 c2 96 8f bf 89 54 80 3d 1e 32 04 bf 06 0d 25 bf
       -1.1217883 0.06266124 -0.5163897 -0.64473
0000a0 64 24 0c bf a1 af c1 3e a3 f5 3e 3e 8a 44 a6 bd
       -0.5474303 0.37829307 0.1864839 -0.081185415
0000b0 22 fa 62 bf dd 65 d2 3d 4d 4c cd bd 25 01 e0 bd
       -0.8866292 0.10273335 -0.10024319 -0.10937718
0000c0 00 47 09 bf fb 08 bb be 12 d7 8c 3f 48 61 b6 bf
       -0.5362396 -0.3653029 1.1003134 -1.4248438
0000d0 7f a3 8a be a1 cb 85 3e a1 2b 75 bf 25 99 85 bd
       -0.27077863 0.2613192 -0.957697 -0.065233506
0000e0 e9 13 42 be 2c 93 62 bf a5 60 b2 3f 1f d0 23 bf
       -0.18952908 -0.88505816 1.3935744 -0.6398944
0000f0 78 fb 16 bf 17 51 b9 3e 50 31 d6 be 36 a7 7f be
       -0.5897746 0.3619468 -0.41834497 -0.2496613

generator.conv2.bn.running_var f4 [64]
000000 a0 8d 3c 3f 54 05 13 3f 97 ad 28 3f 6d 1d 13 3f
       0.736536 0.57430005 0.6588988 0.57466775
000010 90 2e 21 3f 23 24 32 3f 98 03 e6 3e 5c 73 1d 3f
       0.62961674 0.6958639 0.44924617 0.6150415
000020 cf f6 22 3f 55 11 ed 3e 04 d9 b8 3e 7f 53 38 3f
       0.6365785 0.46302286 0.3610307 0.72002405
000030 6a f0 1c 3f d8 f1 bd 3e c5 8b 5e 3f 67 18 0d 3f
       0.6130434 0.37098575 0.8693202 0.5511536
000040 08 67 6f 3f ae 99 f5 3e b3 0d d8 3e c4 8b 2c 3f
       0.9351659 0.4796881 0.42197952 0.67400765
000050 a1 d7 36 3f 8b 2d 00 3f 6c 0a 89 3f 86 5f ef 3e
       0.71422774 0.50069493 1.0706306 0.46752566
000060 e6 50 f6 3e 09 bf 36 3f 43 9d 2d 3f 3a ce e2 3e
       0.48108596 0.71385247 0.6781809 0.44297963
000070 16 2b 7e 3e ce e1 22 3f ca 58 05 3f 2b f1 9a 3e
       0.24821123 0.636258 0.52088606 0.30262122
000080 0a 50 84 3e 49 2c 49 3f 46 70 14 3f 79 6d 3e 3f
       0.25842315 0.785832 0.57983816 0.7438579
000090 20 d4 4e 3f ad 17 de 3e d8 29 1e 3f e0 d1 12 3f
       0.8079243 0.43377438 0.617826 0.57351494
0000a0 67 0f ff 3e 3b bd 0b 3f 38 7a df 3e 98 17 70 3f
       0.4981644 0.5458562 0.43647933 0.93786
0000b0 bd 0e 3a 3f 2a 18 d9 3e 29 bb 26 3f 9d d0 50 3f
       0.7267874 0.42401248 0.65129334 0.8156832
0000c0 21 69 1d 3f 89 66 c6 3e c1 df 33 3f 6e b0 a7 3f
       0.6148854 0.38750103 0.70263296 1.3100717
0000d0 33 a1 1e 3f 73 5c 13 3f 6f 1b 1e 3f 21 44 a1 3e
       0.6196472 0.5756294 0.6176061 0.3149729
0000e0 80 0e c9 3e cd e4 30 3f 0f d4 27 3f f2 1b d7 3e
       0.39268875 0.6909912 0.6555795 0.42013508
0000f0 9c ff 64 3f 10 36 fa 3e 84 5f 28 3f fe 24 1d 3f
       0.8945253 0.4886937 0.65770745 0.6138457

generator.conv3.conv.weight f4 [64, 64, 3, 3]
000000 ea ef 34 3d 6c b4 0b 3d 88 10 69 bd 8c 58 5d 3b
       0.044174112 0.03410761 -0.05690053 0.0033774702
000010 43 e5 a2 bb 05 0f 56 bd 9f 5b e2 3c b9 e6 cc 3c
       -0.004971178 -0.052260417 0.027631579 0.02501236
000020 01 4d e3 bb 70 c0 3e bd 1c 81 d8 bc 89 d3 04 bc
       -0.00693667 -0.04657024 -0.026428752 -0.008107075
000030 37 3f 2f bb c3 af 59 bc 51 d2 2c bc 57 03 b8 bc
       -0.002674056 -0.013286534 -0.01054819 -0.02246253
000040 11 ef 28 bd aa 44 28 bd 86 f4 4b 3d ff ec 23 3b
       -0.041243616 -0.04108111 0.049793743 0.0025013087
000050 f7 ce 9f bc 68 91 3c 3d fb 77 b4 bb 1c ed 52 bb
       -0.019507868 0.046037108 -0.005507467 -0.0032184785
000060 18 2e 92 3c 55 87 b6 bc a8 2f 00 3b 26 17 9a 3c
       0.017844245 -0.022281328 0.0019559655 0.018809866
000070 0e 82 32 bd b4 e4 09 3d cf 8c 5b bd e7 2e 99 bc
       -0.04358106 0.033665374 -0.053601082 -0.018699123
000080 0a fd 5b 3c b7 65 00 bd 5c 79 9e bc d7 d6 4b 3c
       0.013427028 -0.031347003 -0.019344978 0.0124413585
000090 20 61 99 bc 69 fd 33 bd 15 1e 1a bd 25 7c 42 bd
       -0.01872307 -0.043942843 -0.037626345 -0.047481675
0000a0 cc 60 a9 bb 6b 7a 09 bd 79 2e 11 bd 59 0b bf bc
       -0.00516901 -0.033564012 -0.03544471 -0.02332084
0000b0 35 35 99 bb 90 ea 37 3c d9 06 29 3b 5d 6d 78 bc
       -0.004675532 0.011225358 0.0025791435 -0.015162793
0000c0 eb 03 0b bc d2 1e 06 3d 06 b0 c8 3c d0 72 44 bc
       -0.008484821 0.032744236 0.024497997 -0.011990264
0000d0 9b 0b c4 3c fc 4c 25 bd 3a 10 24 3b 7d a1 16 3d
       0.023931315 -0.04035662 0.0025034086 0.0367751
0000e0 6e b9 09 3d 1b 3a 24 bc a4 81 7b 3c 6f df f1 3c
       0.033624105 -0.010023619 0.015350733 0.029525487
0000f0 94 30 e2 bc b5 00 22 3d fa 93 91 3c 2e 4b 2e 3b
       -0.027611054 0.039551456 0.017770756 0.0026595104
000100 9e 51 9a 3c a8 5b b5 bc 48 10 3b bc d8 37 e5 3c
       0.018837746 -0.022138432 -0.011417456 0.02798073
000110 a0 79 17 3d 7b f1 9e bc d2 5f ff 3c 0c e4 c0 bc
       0.036981225 -0.019402256 0.03117362 -0.023546241
000120 44 0e 0b bd 12 0d 89 bc 50 5c 53 bd 87 8a 68 bd
       -0.03394915 -0.016729865 -0.051601708 -0.056772735
000130 db 5f 05 3c 27 4d 36 bd bb 7f 43 bd fc 93 66 bd
       0.0081405295 -0.044507172 -0.047729235 -0.056293473
000140 c1 c4 e2 3c 8b 62 0c 3d 75 be b6 3c ad ed 97 bc
       0.02768171 0.034273665 0.022307614 -0.01854595
000150 8f 9a 20 3d ef 1a fe ba 50 0f 57 bc 68 50 01 bc
       0.0392099 -0.0019386689 -0.013126209 -0.0078927055
000160 48 b2 23 bb ab 58 dc bc a6 1e 1c 3d 11 a4 6a 3d
       -0.002497809 -0.026897749 0.038115166 0.057285372
000170 c9 9f 1d 3d 36 9e 1a 3d f4 23 43 3d 86 c8 28 3b
       0.03848246 0.037748538 0.04764171 0.0025754287
000180 ae c5 86 3c 2d 4c 6e bc 0a 6c cb 3b d0 c7 c3 bc
       0.016451683 -0.014544529 0.0062079476 -0.023898989
000190 b6 cc 99 3c 3b e9 ba bb 7f 23 11 bc 1e af b2 3b
       0.018774372 -0.005704073 -0.008858561 0.0054530045
0001a0 84 d2 c4 3b e5 83 82 bc bb 38 ea 3b 76 d4 94 3b
       0.0060065407 -0.015932033 0.007147876 0.004541929
0001b0 07 c3 49 3d a9 bf 87 3d b3 d8 c1 bc 8c 8d 32 3d
       0.04925826 0.06628353 -0.0236629 0.04359202
0001c0 0e 22 5d 3d f7 7f 39 3d 5c 09 09 3d f4 ce 84 3d
       0.053987555 0.045288052 0.03345619 0.06484786
0001d0 63 b6 69 3c 5f 10 25 bc fc 39 bc bc f3 7e 2e 3d
       0.014264676 -0.010074704 -0.022976868 0.042601537
0001e0 67 1d b2 3c 46 79 bf ba 34 5c 23 3c 68 93 10 3d
       0.021742536 -0.0014608286 0.009970713 0.035296828
0001f0 d7 d5 f9 3c c5 57 f9 bc bd cb e4 bc 25 1b b9 bc
       0.030497475 -0.03043736 -0.027929181 -0.022595951
000200 c0 39 10 bd 3f 84 66 3b 2b 07 ee bb c3 ea 01 bb
       -0.035211325 0.003517404 -0.007264038 -0.0019823767
000210 06 5e 14 bc e7 f4 b7 bc b0 78 11 3d 8e 2c 18 3d
       -0.00905562 -0.022455646 0.035515487 0.037151866
000220 24 f8 f7 3c e3 b5 4e bc 32 9f 46 3b ac 6d 3c 3d
       0.03026969 -0.012616607 0.003030729 0.04600303
000230 76 32 e0 3c ab 3f ab bc e0 6b 0d 3d 9c 1e 05 3c
       0.027367812 -0.020904383 0.034526706 0.008124974
000240 11 dc 5c bc 13 2d 51 3d 3f ea 70 bb e9 c8 0f 3d
       -0.013480202 0.051068377 -0.0036760715 0.035103712
000250 17 54 2a bb 8f 1b a5 3c 2a e6 ce 3c 88 9e 0c 3d
       -0.0025990063 0.020154743 0.025256235 0.034330875
000260 c6 4a 94 3c 88 a3 23 bb c3 f2 50 bd fd 85 a9 bb
       0.018102061 -0.0024969298 -0.051012766 -0.0051734434
000270 0c 36 9b bc db 44 7f bc 0c d3 58 bd 7a ca 0e bd
       -0.01894667 -0.015580381 -0.052935645 -0.034861065
000280 99 bf 36 3c 90 18 8b bc 50 f8 20 bd f6 73 2c bc
       0.011154079 -0.016979486 -0.03929931 -0.010525694
000290 c0 25 2f bd 95 77 3a 3d 49 1a c0 bb 75 57 40 3d
       -0.04276061 0.0455242 -0.0058625084 0.046958406
0002a0 c2 a1 83 3c b4 0c 4a ba 94 a9 27 3d dc 03 a2 ba
       0.016068343 -0.00077075814 0.040933207 -0.0012360769
0002b0 24 b6 01 3d 89 35 51 3d e6 b1 0a 3b 1c a1 29 3d
       0.031667843 0.051076446 0.0021163165 0.04141341
0002c0 c2 a6 41 3d 2c 91 fd 3c 60 9b 44 3d 2c 42 5a bc
       0.047278173 0.030953012 0.04799974 -0.013321441
0002d0 13 4b 84 3c 73 43 bc bc 2c 02 03 3d e7 8c 35 bb
       0.01614908 -0.022981381 0.031984493 -0.0027702393
0002e0 77 7d 44 bc 0c ee 85 3c 14 ba 8f bc 6c 93 2e 3c
       -0.011992804 0.016348861 -0.017544784 0.010655265
0002f0 84 e7 59 bc eb d8 cf 3c 43 9d 04 bd 18 57 3c bd
       -0.0132998265 0.02537199 -0.03237654 -0.045981497
000300 a3 74 4e bc 9c 47 4d bd 65 e8 6e bd 05 34 54 bd
       -0.012601051 -0.05011712 -0.058327097 -0.051807422
000310 c6 a4 44 bb 52 1a 8c 3c dc b6 30 3c c2 7f 2f bc
       -0.003000544 0.017102394 0.010785785 -0.010711612
000320 f6 7f 28 bd 57 54 d0 3c c4 89 31 3b bd b0 2f bc
       -0.041137658 0.025430841 0.0027090171 -0.01072329
000330 55 d3 35 bc 80 94 bf bc d1 7f b0 bc 9f be 3c 3d
       -0.011097749 -0.02338624 -0.021545323 0.046080228
000340 3b 8e 1c 3d 6d 02 c3 bb a5 6a ca 3c 49 24 b9 3c
       0.03822158 -0.005951217 0.024709055 0.02260031
000350 56 47 98 3c 28 98 37 3d af 52 14 3d a5 91 da 38
       0.018588703 0.044822842 0.036211666 0.000104221785
000360 a6 27 89 3d c0 61 9d 3c bd 68 38 3c 7b a1 02 3d
       0.066970155 0.01921165 0.01125544 0.03189228
000370 d9 c5 3b 3d 3e 2d 87 bc 4b 5a 0e 3c 20 25 e1 3c
       0.04584298 -0.016501065 0.00868852 0.027483523
000380 d0 e3 fc bb 78 89 ab 3c c8 7e a8 3c ad c7 d8 3a
       -0.007717587 0.020939574 0.020568267 0.0016539
000390 74 54 93 3b d9 34 03 3c 6a bd 2a bd 05 8d a7 3c
       0.0044961516 0.008008205 -0.041684546 0.020452986
0003a0 5b 23 13 3d ae 99 91 bc 89 de 11 bd d5 ce a6 bc
       0.03592239 -0.017773475 -0.035612617 -0.020362297
0003b0 8b cd 12 3c 08 ad ce bc 61 6b 88 3c 2f 7c f6 bc
       0.008960138 -0.025228992 0.016652765 -0.030088512
0003c0 a9 92 17 bd a9 9a 21 bc 7f 37 9b bc 7e 29 06 bd
       -0.0370051 -0.009863534 -0.018947361 -0.032754414
0003d0 d2 24 d9 3c 6d 0e bd ba 7d 07 c2 3c db 30 9f bc
       0.026506815 -0.0014423855 0.023685211 -0.019432476
0003e0 6e c8 29 bc f4 7a 3b bd 8d 15 0d bd 5a 46 90 bc
       -0.010362728 -0.045771554 -0.03444438 -0.017611671
0003f0 74 7c 1c bc 1c 91 26 bd 8e 35 f5 bc 49 90 b1 bc
       -0.009551156 -0.04066573 -0.029932763 -0.021675246

generator.conv3.bn.weight f4 [64]
000000 b6 f8 7a 3f 5c 67 7a 3f 92 9c 74 3f 3d d5 80 3f
       0.9803575 0.97813964 0.9555141 1.0065075
000010 bc 52 7c 3f 46 7f 88 3f 32 a0 78 3f be 71 83 3f
       0.9856374 1.0663841 0.9711944 1.0269086
000020 cd 91 70 3f c4 9b 87 3f 80 e2 76 3f ef 2f 86 3f
       0.93972474 1.0594411 0.9643936 1.0483378
000030 63 16 73 3f 2a 22 84 3f 59 ed 79 3f 1e 21 7e 3f
       0.94956034 1.0322926 0.9762779 0.9926928
000040 d9 69 81 3f e1 c8 78 3f 60 4e 72 3f 38 09 78 3f
       1.0110427 0.97181517 0.9465084 0.96889067
000050 95 9b 83 3f d5 7d 81 3f a2 31 7f 3f 59 b2 7a 3f
       1.0281855 1.0116526 0.9968511 0.97928387
000060 d2 de 81 3f be 69 88 3f ce 9b 77 3f d8 a4 7e 3f
       1.0146124 1.065727 0.96722114 0.9947028
000070 b8 34 7b 3f c3 42 85 3f 49 21 7c 3f 0c 85 7d 3f
       0.9812732 1.0410999 0.9848829 0.9903114
000080 93 13 76 3f a6 50 7d 3f 2c aa 80 3f ac 82 7c 3f
       0.9612362 0.98951185 1.0051932 0.9863689
000090 79 43 7f 3f 7d 2c 84 3f 39 ac 76 3f 7a 60 86 3f
       0.9971233 1.0326077 0.9635654 1.0498192
0000a0 2e 9b 75 3f 74 18 7b 3f e3 cc 7e 3f df 7f 88 3f
       0.9593991 0.9808419 0.9953138 1.0664023
0000b0 e3 ad 80 3f 53 83 83 3f 2b 80 78 3f f0 10 80 3f
       1.0053066 1.0274452 0.9707057 1.0005169
0000c0 81 4e 7b 3f aa 54 82 3f 36 e4 6d 3f 35 cc 84 3f
       0.9816666 1.0182087 0.9292635 1.0374819
0000d0 76 bb 84 3f d0 0c 80 3f 5e f9 75 3f c0 a8 71 3f
       1.0369709 1.000391 0.9608363 0.9439812
0000e0 ca d1 76 3f da dc 77 3f fa 37 84 3f 90 11 81 3f
       0.9641386 0.9682137 1.0329583 1.0083485
0000f0 90 14 74 3f 1c 4b 7f 3f cd ed 80 3f 3f 85 8b 3f
       0.95343876 0.9972398 1.0072571 1.0900038

generator.conv3.bn.bias f4 [64]
000000 34 31 bd bd 4d a9 ce bd 08 37 66 bd b8 2c c6 3a
       -0.092379004 -0.10090885 -0.056204826 0.0015119528
000010 84 1c 1a bd 7b 50 23 bd ab 82 57 bd f9 a8 ef bc
       -0.03762485 -0.039871674 -0.05261485 -0.029255377
000020 7c fd 09 bd 99 39 8d bd 32 a4 6a bd e4 d2 d3 bc
       -0.033689007 -0.068957515 -0.057285495 -0.025857396
000030 f8 e5 d1 bc cc 06 f0 bd a0 11 fe bc df 1c 04 bd
       -0.025622353 -0.117200464 -0.031014264 -0.032254096
000040 93 c8 10 bb 35 98 6c bd 50 67 46 bd 55 af 0f bd
       -0.0022092208 -0.057762343 -0.04843837 -0.03507932
000050 31 df be bc 07 fc d5 bd c8 e0 c9 bb 68 2d 7b bd
       -0.023299785 -0.10448461 -0.006160829 -0.0613226
000060 d2 79 7f bd 48 03 31 bd 03 e2 4a bd 1a 43 27 bd
       -0.062372036 -0.04321602 -0.049531948 -0.040835477
000070 5a 30 88 38 4c 48 83 bd e5 f6 7b bd 12 de 24 bd
       6.4939915e-05 -0.06410274 -0.061514754 -0.040250845
000080 92 53 43 bd 24 f4 72 bd 66 fe 6b bd a6 56 5b bd
       -0.04768712 -0.059314862 -0.05761566 -0.05354943
000090 bd 45 2b bd cb 14 de bc a3 a9 0b bd b5 ef 2d bd
       -0.041814554 -0.027109524 -0.034097325 -0.04246493
0000a0 23 2b 0e bd 8e 54 7c bd 94 44 b0 bc 23 b4 30 bd
       -0.034709107 -0.061604075 -0.021517076 -0.04314054
0000b0 5a 27 51 bc 2a 96 0e bd 98 ac 30 bd 8a 5e 3f bd
       -0.01276573 -0.034811176 -0.04313335 -0.04672102
0000c0 8a e9 4b bd 14 f9 49 bd 70 48 84 bd 86 78 99 bd
       -0.049783267 -0.049309805 -0.06459129 -0.07493691
0000d0 1a fd 74 bc d8 60 df bc 8b fa 1e bd 18 27 c9 bc
       -0.014952922 -0.027267858 -0.038813155 -0.024554774
0000e0 97 37 5a bd 5b 9b db bc be de 09 3c b8 4b 5e bc
       -0.05327567 -0.026807478 0.008414922 -0.013567857
0000f0 5a 48 09 bd ba dd 9b bd 39 7c 88 bd f0 43 7c bd
       -0.033516265 -0.0761065 -0.066643186 -0.061588228

generator.conv3.bn.running_mean f4 [64]
000000 ef 59 d5 3d 78 0b f4 bb 2a 69 b1 be ee 29 97 be
       0.10417544 -0.0074476562 -0.34650546 -0.29524177
000010 e8 7a 40 bf 37 12 fd be 30 17 b3 3e e6 f2 ff be
       -0.7518754 -0.4942796 0.34978628 -0.49990004
000020 7b 39 b3 be 80 73 8d bf 14 a3 a9 be 55 cf 63 be
       -0.35004792 -1.1050873 -0.3313223 -0.2224706
000030 64 6d fe 3d 79 4b 1a bf cf a2 83 bf a3 58 13 3f
       0.12423208 -0.6027141 -1.028406 0.57557124
000040 34 69 31 bf e5 b8 b2 be c2 05 5d 3e 1f 43 d5 be
       -0.6930115 -0.34906688 0.21584228 -0.41652772
000050 a7 81 0a be f0 9a a3 be 72 20 d5 be 50 23 fb bd
       -0.13526021 -0.31954145 -0.41626316 -0.12262595
000060 13 10 de bd a3 b0 7f be ea 1f c5 be f5 14 d7 bd
       -0.1084291 -0.24969725 -0.3850091 -0.10502044
000070 ae 34 70 be b8 e3 d5 be cb a1 71 3f e5 4d ea be
       -0.23457596 -0.41775298 0.943875 -0.45762554
000080 fb ed 31 3e 18 65 d5 be bc 40 e8 be ef 4c af be
       0.17375939 -0.4167869 -0.45361888 -0.34238383
000090 31 04 8c be 87 35 3c be 1d 2c 89 3d 35 0d fc be
       -0.27346948 -0.18379794 0.06697867 -0.49228826
0000a0 5e c0 8b be 4e 66 e3 bd 48 18 32 bf 8c 14 9e bf
       -0.27295202 -0.111034974 -0.695683 -1.235002
0000b0 a9 41 a0 3e 42 b5 bd be 03 74 2c bf 2f ce 72 3f
       0.31300095 -0.3705235 -0.6736452 0.9484586
0000c0 4c 5f 55 3f 62 1c 0b be c8 1c ea 3c eb 71 10 bf
       0.83348536 -0.13585046 0.028578177 -0.56423825
0000d0 b3 3d 4c bf 15 7b 00 bf d8 6d 9a be 2e 85 1e 3f
       -0.79781646 -0.5018781 -0.3016193 0.61921966
0000e0 cb 44 aa be e1 76 80 be cb 6a bb be c9 27 0d bf
       -0.3325561 -0.25090697 -0.36604914 -0.5513883
0000f0 4c e0 9e bf cf c4 e5 bc a9 66 f2 be 47 79 5e be
       -1.24122 -0.028047947 -0.47343948 -0.21725951

generator.conv3.bn.running_var f4 [64]
000000 9e 4e 9a 3e ff 2b b0 3e 6d b6 bf 3e d8 4b 06 3f
       0.30138105 0.34408566 0.37443867 0.5245948
000010 bf a8 db 3e e4 cf 40 3f 10 d7 38 3f c8 7e 20 3f
       0.4290218 0.75317216 0.7220316 0.6269345
000020 46 cc c1 3e 89 6b b3 3e 2c b3 e1 3e d4 9e c2 3e
       0.3785116 0.3504298 0.4408201 0.380118
000030 d1 c4 fc 3e 7d 8e 8f 3e bf 37 b0 3e 78 b9 d4 3e
       0.4936891 0.28038397 0.3441753 0.4154775
000040 ee 3f b5 3e 82 04 c4 3e 85 fb 90 3e cf f3 ae 3e
       0.35400337 0.3828469 0.28316894 0.34170386
000050 0d b5 05 3f 16 27 6e 3e 17 81 b6 3e 25 81 cf 3e
       0.52229387 0.23257098 0.35645363 0.40528217
000060 c5 46 af 3e 6a 8b 04 3f 5d 2c e3 3e 7b a8 00 3f
       0.3423368 0.5177523 0.44369784 0.5025708
000070 b9 be c4 3e 10 9c b9 3e b3 6b af 3e 5d b4 f0 3e
       0.3842676 0.3625188 0.34261855 0.47012606
000080 bc 9f 97 3e d2 1d ac 3e 59 10 88 3e 17 38 c3 3e
       0.29614055 0.336165 0.26574972 0.3812873
000090 42 16 0b 3f 72 b8 02 3f b0 45 d1 3e e6 26 e7 3e
       0.5433084 0.5106269 0.4087348 0.45146865
0000a0 49 93 da 3e 61 72 74 3e 42 8f c1 3e 48 fb 19 3f
       0.42690495 0.23871757 0.3780461 0.6014905
0000b0 e2 81 c9 3e 79 e9 b9 3e f0 98 15 3f dc 38 ab 3e
       0.39356905 0.36310938 0.5843649 0.33441818
0000c0 65 d9 0f 3f be 6a f8 3e d3 57 c9 3e d2 da 0b 3f
       0.5619109 0.48518938 0.39324817 0.5463077
0000d0 d8 a7 e9 3e 74 55 dc 3e 93 87 46 3f 4b bf 4f 3f
       0.45635867 0.43033946 0.7755062 0.81151265
0000e0 dd 5f a7 3e be e5 95 3e 45 78 fa 3e 77 67 b4 3e
       0.32690325 0.29276842 0.48919883 0.35235187
0000f0 19 e1 e8 3e 7d 9f f0 3e 49 e9 f5 3e 67 d8 e6 3e
       0.45484236 0.4699668 0.48029545 0.45086977

generator.conv4.conv.weight f4 [64, 64, 3, 3]
000000 27 fa 83 bc 7d af 09 bc 7c a9 40 3c aa 73 0c bc
       -0.016110493 -0.008403656 0.011759158 -0.008572498
000010 3a ca 0f bc 30 36 0b bd 1b 3b 0d bc 16 01 15 3d
       -0.008776242 -0.033987224 -0.008620049 0.03637799
000020 9a 3c 82 bd 9b 38 0c bd 80 7e 62 bc a7 49 c0 3c
       -0.06359215 -0.03423367 -0.013824105 0.02347262
000030 ef 99 87 bc 44 ed a2 3c 36 17 91 3b dd 7c 5e bc
       -0.016552893 0.019888528 0.004427816 -0.013579574
000040 4d 21 ad bb eb 79 64 bd dc f5 41 bb d9 10 e3 bc
       -0.005283511 -0.055780333 -0.0029596006 -0.027717995
000050 c3 2c 4a 3d c9 26 de 3c 60 5c 5e bc f9 ab 40 3d
       0.049359094 0.027118104 -0.013571829 0.047039006
000060 50 fe 27 bb 76 7e 78 bc 72 5a 50 3c 75 c8 81 3b
       -0.002563376 -0.015166869 0.012716876 0.003960664
000070 c1 07 c2 bc 6c 0f 24 bd d7 92 af bc a4 be 0a bc
       -0.023685338 -0.04005377 -0.021432323 -0.008468304
000080 f3 17 d9 bc c8 8a 7f bc 43 f9 de bc 54 52 33 bc
       -0.026500678 -0.015597053 -0.027218467 -0.0109449215
000090 15 40 c7 bc f6 f9 e6 bc 88 25 0a bd cb 1c 9e bc
       -0.024322549 -0.028195363 -0.0337272 -0.019300839
0000a0 4e e8 20 bd 2a 62 87 bc e3 e0 79 3c c2 32 6d 3b
       -0.039284043 -0.0165263 0.015251371 0.0036193584
0000b0 13 bb a2 3c e9 26 dd 3c b7 16 13 3d 7c a7 56 bc
       0.019864595 0.026996093 0.035910334 -0.013101455
0000c0 af e0 7a 3c b9 93 01 3b dc c8 c2 3b b9 a5 1e 3d
       0.015312358 0.0019771887 0.0059443545 0.038732264
0000d0 44 ff b7 bc 0c 91 f5 3b 5d 3f f7 bc ce 89 54 3c
       -0.022460587 0.0074940976 -0.030181581 0.012972308
0000e0 04 6c 99 bc b8 12 e1 bc 48 60 c5 3c 41 07 62 bc
       -0.018728264 -0.027474746 0.024093762 -0.013795675
0000f0 10 bd 9c bb 67 11 59 3c 27 a9 28 bd 4c 2a 65 bc
       -0.00478328 0.013248778 -0.04117694 -0.013987135
000100 bf 70 80 bd c0 d9 82 bd 81 26 6b bd 51 58 52 bd
       -0.062715046 -0.06389189 -0.057409767 -0.051353756
000110 52 5d ee 3b 1a 42 0b bd 81 27 e1 bc 7d a9 19 3d
       0.0072743082 -0.033998586 -0.027484657 0.037515152
000120 a6 58 35 3c bf a8 15 3d e4 ac d7 bb 3a bb 3f 3b
       0.011068499 0.036537882 -0.0065818895 0.0029255883
000130 6d 17 22 3c ef e7 24 3c fe d4 4f 3c d8 42 e5 3c
       0.00989328 0.010065063 0.012685059 0.027985975
000140 68 bc b7 3b d0 d2 c3 3b 65 78 b3 bc 4e 89 38 bc
       0.0056071766 0.0059760585 -0.021907995 -0.011263205
000150 3d 85 c2 3c 1a 6b 0a 3c a6 a5 4f 3d d5 fd c7 bc
       0.023745174 0.008448387 0.050695084 -0.024413029
000160 cd a9 15 3d 31 b8 61 3c c0 ed d9 bc 98 41 a4 3c
       0.036538888 0.013776825 -0.026602626 0.020050809
000170 9a 54 cf 3c ad 37 a7 3c eb 63 e4 3c 76 88 0b bc
       0.025308896 0.02041229 0.027879676 -0.008516422
000180 2d 9a 16 3d 8a 54 15 bc ad 78 93 bc 78 94 a6 bc
       0.036768127 -0.009114394 -0.018001879 -0.020334467
000190 1a 4c 38 bc 90 c5 b2 3c 15 9c 89 3c 3b b6 9e bc
       -0.011248613 0.02182272 0.016798059 -0.019374004
0001a0 1f f8 c5 bc e3 d8 0f bc 82 dd de bc 47 6e ef 3c
       -0.024166165 -0.008779737 -0.027205233 0.029227389
0001b0 e0 aa 9d 3c 1c f4 01 3d 71 41 0f bc 69 21 7a bc
       0.019246519 0.03172694 -0.00874363 -0.015266755
0001c0 7a 2c fb bc ab 50 38 bd 19 37 4f 3b 43 7f a8 bc
       -0.030660857 -0.044998806 0.0031618534 -0.020568496
0001d0 e3 41 9b 3c 2f 14 09 bc d9 a8 a1 bc 19 fb 31 3c
       0.018952316 -0.008366629 -0.019733833 0.010863089
0001e0 12 60 01 bd e5 83 1b bd 02 b2 2b bd 1f 0a 15 3d
       -0.03158576 -0.03796758 -0.04191781 0.036386605
0001f0 37 b6 0b bd 6c 5e af 3c 16 77 2b 39 ea 55 e2 3c
       -0.03410932 0.021407329 0.00016352194 0.027628858
000200 70 ae 46 3d 63 19 73 bc 78 b8 e3 bc 73 f1 1b 3d
       0.0485062 -0.014837596 -0.027797922 0.03807206
000210 dd 4f ce 3b bf 1f 2f 3d 9b 9c 60 3d 2a fe 60 3c
       0.0062961415 0.042754885 0.05483685 0.013732472
000220 d5 80 c9 bc b7 e7 ae bc fb 60 c7 bc 6e 1f 2b 3c
       -0.024597565 -0.021350725 -0.024338236 0.010444505
000230 af 23 6a bc 7f bb cf bc a6 ad 90 bd 21 3f c7 bc
       -0.014290734 -0.02535796 -0.07064371 -0.024322094
000240 52 82 51 3c c8 aa 16 3d 4e bb 96 bc 0c 0d af bc
       0.012787418 0.036783963 -0.01839986 -0.021368526
000250 c2 3a be bc 97 07 51 bc 11 67 2a bd 34 aa 33 bd
       -0.023221377 -0.012758157 -0.041602198 -0.04386349
000260 5a 07 39 3c 3c 0a 12 3d 20 d0 91 3c 59 a7 72 3b
       0.011293257 0.03565429 0.017799437 0.0037026017
000270 31 b2 72 3c c1 e1 73 3c 27 ad 12 bd 90 75 54 bc
       0.014812992 0.014885367 -0.035809662 -0.012967482
000280 7c 35 a7 bc da 53 1b bd f3 a4 9c bc a1 d4 2f 3c
       -0.020411246 -0.037921764 -0.019121623 0.010731847
000290 b2 bd 14 bd 33 b3 5b bc f8 77 02 bd 25 a9 3d bd
       -0.03631372 -0.013409424 -0.031852692 -0.046303887
0002a0 1c e8 2d bd ff df 8c bc e6 3b 42 bc dc 68 cf bc
       -0.042457685 -0.017196653 -0.011855101 -0.025318556
0002b0 cf bc 0f 3d 54 bc b4 bc 80 a7 60 3c e0 10 ac 3c
       0.03509217 -0.022062458 0.01371181 0.02100414
0002c0 cc 5b 93 3c 18 0b 13 3d bb 68 81 bc 16 82 08 bd
       0.017988108 0.03589925 -0.01579701 -0.033327185
0002d0 dd 9b c4 bc a5 aa 1d bd 5f 53 80 3c ce 5a bb 3b
       -0.024000103 -0.038492817 0.015664754 0.005717612
0002e0 37 d6 b4 bc 50 22 5c 3d 9c ef 3e bc 07 ec 41 bd
       -0.022074802 0.05374366 -0.011653807 -0.047344234
0002f0 b4 fd 53 3d 0a 67 a9 3c 1a 35 da ba fe 44 49 bc
       0.051755622 0.020679016 -0.0016647906 -0.012284515
000300 cc a2 66 3b 06 75 1a 3c 69 30 cd bc 0b 91 79 3c
       0.003519225 0.009427315 -0.025047498 0.015232335
000310 2c b9 4c bc 67 de 00 bd ec 1f b7 bc 45 54 c7 3c
       -0.01249532 -0.0314621 -0.022354089 0.024332175
000320 42 f5 bf 3c a1 05 a0 3c b4 fe d4 bb 20 ff 3c 3c
       0.023432378 0.019533934 -0.0065000895 0.011535436
000330 9f 32 fa bc 75 b3 e8 3c d4 88 d6 3c ac ef e3 3b
       -0.030541716 0.028405884 0.026188292 0.0069560613
000340 48 b8 61 bc fb fe d9 3c de 66 bc 3a 92 82 31 3c
       -0.013776846 0.026610842 0.0014373919 0.010834353
000350 ad 39 4f 3a 7c b9 14 3d 93 1e 3f 3c 13 82 17 bd
       0.00079050177 0.036309704 0.011665004 -0.036989283
000360 99 d0 97 3c a3 e6 a9 ba 0e 2a 85 bc f3 4d 60 bc
       0.018532084 -0.0012962412 -0.016255405 -0.01369046
000370 d9 42 00 bc 09 79 b2 bc 01 44 b0 3c 35 21 a0 3c
       -0.007828438 -0.02178623 0.021516802 0.019547084
000380 9b 20 33 39 01 b5 46 3b 34 54 58 bc 30 50 a5 3b
       0.00017082917 0.003032029 -0.013203669 0.0050449595
000390 7c 0d 20 bd 8d 12 f8 bc a1 f7 36 bb 30 52 30 bd
       -0.03907536 -0.030282283 -0.0027918594 -0.04304713
0003a0 86 27 01 bd 10 f8 8a bc e5 12 13 3d 77 d0 cb bc
       -0.031531833 -0.016963989 0.03590669 -0.024879677
0003b0 61 ff 5b 3c 18 0a 0a 3d 31 97 0a 3d 47 9d c8 bb
       0.013427586 0.033701032 0.033835594 -0.0061222645
0003c0 66 c6 d8 bc cd 54 1d bd 9c 5a d9 bc c2 99 1e 3c
       -0.026461791 -0.03841095 -0.026532464 0.009680213
0003d0 3f 18 ae bc df ea 66 bc d5 64 42 3c 55 cf 3c 3c
       -0.021251796 -0.014094084 0.011864861 0.011524041
0003e0 d9 0d 48 3c 11 12 57 bd d0 0f 39 bc e6 4d 2d 3c
       0.012210333 -0.052507464 -0.011295274 0.0105776545
0003f0 0a dd 5a bc 95 1b 1d bd 7f 38 9d bc c6 ac 0f bd
       -0.013358364 -0.038356382 -0.019191978 -0.03507688
